Plots old/naive models/results_FCNN_3L_100E_D/e_100_model.pt (torch, 71037 bytes, 13 tensors)

weight f4 [128, 54]
00000000: f98a e63c 336b a1bd bdc5 a73d c529 d0bc
00000010: 5bc2 963c 45a5 e93c cf84 bd3c d2a8 593c
00000020: 4fab 84bd c278 48bb 1122 0a3d 64b7 583d
00000030: 6f72 f23f ebe9 f83c dbde 8a3a 3f60 16bd
00000040: 6975 1bbd a321 b6bc e617 b5bd 7551 afbb
00000050: 902c 593a d0c2 183d e361 95bb d1e5 a43d
00000060: d234 5dba 2ab4 103c 2e10 39bd 92b9 9c3c
00000070: cf4f 9fbd dc4f 55be 35cd a5bd 01ed 8aba
00000080: 2ed7 15bc b68a 25be 2037 523c d60b 973d
00000090: fcbf be3d 4808 fe3d 76a5 5f3d b7e4 693c
000000a0: 85a4 da3d 7346 c63e bd2f 883d 00ef 0c3d
000000b0: 7b4d 16bd 472f 223e 0072 243e f8e1 c23d
000000c0: 7d51 16bd 8360 40be 3346 92bd 6f88 90bd
000000d0: 4666 50bd b2b8 dfbd 8d21 3e3e 2f89 0a3c
000000e0: e237 5a3d 36ad ba3d 6864 b63c 33e0 fbbd
000000f0: 1dca 13be 465c 4dbe 1e70 96be 49db 333d
00000100: f5ee dcbd f2d1 30be 6172 0a3f fceb 77be
00000110: 748c fabd e1be a33d b341 12bf 2bea 53be
00000120: be57 f9be 7b97 073d 1ac0 d93c 5436 d43d
00000130: af82 ce3d 0140 243d cb57 153c 572c 283e
00000140: 822a a43e 17a6 e53b 44b6 85bd 59bf 2bbd
00000150: 8a79 553d 8f77 be3a d1eb c03d 57cf 343c
00000160: fbcb 633d b944 243d 5bb4 9dbd cb4f 43bd
00000170: 01a7 0cba 5a42 6d3d 37f3 9f3c fba6 acbb
00000180: 7728 803d 7bb4 2fbd b9e2 e63a a88c dd3c
00000190: fe51 c03c 4dfd e73c fcdc be3c 34b2 fdbc
000001a0: 2b7d a4bb 2ee1 7bbc 873a e9bd d5e1 10bc
000001b0: e8b3 ce3d b1de 3bbc 85ce fb3d e307 d13d
000001c0: 5edd f93d eb6c 1fbe abc8 173e e620 e23d
000001d0: f404 c13c 53b7 033d adc7 82bc bf11 4c3f
000001e0: d957 debd 9e4f e83d 18f0 b03c a6a5 733e
000001f0: 6bc9 a63e 185d 623f 750c 5c3e 8ac9 3e3c
00000200: dfb4 673e e7c0 1e3e e8c7 64bd 991d 3a3e
00000210: 0bee 083e 7576 19be a904 01bf 1965 e6bc
00000220: 0f62 b8bd 80b9 883d fb4b 87ba 7c42 6bbc
00000230: d336 c73d 3b3d 843b a6f4 95bd a838 05bb
00000240: 27ef 33bd 3198 8739 0d1e 04bd 0ce0 ae3b
00000250: a945 11bd ba4d 323d 5899 4dbd e898 443d
00000260: bcce 653c a9a6 ce3d f7af 92bc 0a02 77bd
00000270: a2f4 ee3b 4987 bebd 2a04 1bba 8cdf e33c
00000280: b6fd 013d 1139 1ebd 6a4d 183e 5758 2ebf
00000290: 4d91 b5bb 8c66 09bf e490 163e 9121 613b
000002a0: 13f7 6bbc 0968 ae3b 38ca 61bc 00af 50bc
000002b0: fd81 3c3c 58a5 60bc 26d8 57bf fc42 d4bb
000002c0: 081e 213c 6c0c ebbc 13a9 03bc 2afc 3cbc
000002d0: 30e0 52bc dbbc 07bb 8566 d4bd 6e20 043d
000002e0: 84ea 19bc d8a6 e13c d758 a2be 593b 133b
000002f0: 7218 1b3c 6efd fabc 2492 51bd 94df 52bd
00000300: 31cb a9bc a765 2ebd 459a 29bc d98e 703c
00000310: 2d01 e53d 24b2 163c 97ce 663d cf96 bbbd
00000320: f72b 193e c7e5 ab3d 2506 54bd c562 97bd
00000330: 041f 8fbc 965a 483d e168 edbb d9d5 383d
00000340: d1d2 8a3b 67d1 103d b333 413b 16c2 73bb
00000350: edaa 283b 6461 dd3c eb15 5ebd c55a 533d
00000360: ea04 30bc df95 10bd d13f 0fbd 63f2 04bd
00000370: d4ff af3b 28e3 393d 9f6d 713b 6d9d 213c
00000380: 56cc 66bd 91c4 1b3d 5182 c23d ab37 ae3c
00000390: 73b9 d93f 05a8 fabb 843a 973c 44b5 f93c
000003a0: f50c 2a3e 8af6 2dbd 82d6 3c3d f08f ac3b
000003b0: 0473 7b3c 8269 5ebd 20d3 15bd 1177 8f3c
000003c0: 9a67 bbbc 528f 80bc c09d 5fbd 67bd 86bd
000003d0: cce6 2bbd 43da 1cbe 9f73 5e3c 1df7 b5bc
000003e0: 7d49 46bd 4ab1 a7bd 3235 0e3d 8095 873d
000003f0: e5d9 f43d c186 acbb 7dd6 293c 0bc6 58bc
0.02814244 -0.07881775 0.081920125 -0.025410542 0.018403223 0.02852119 0.023134617 0.013284879
-0.06477987 -0.0030589555 0.033723895 0.05290927 1.8941172 0.030384978 0.001059498 -0.03671288
-0.037953768 -0.022232836 -0.08842449 -0.0053502866 0.00082845334 0.037295163 -0.004558788 0.080516465
-0.0008438352 0.008832017 -0.045181446 0.019131456 -0.07778894 -0.20831245 -0.08095781 -0.0010599197
-0.009145541 -0.16166195 0.012830526 0.073753044 0.09313962 0.12403923 0.054601155 0.014275721
0.10675911 0.38725623 0.0664973 0.034407616 -0.036694985 0.15838347 0.16059113 0.09515756
-0.036698807 -0.18786816 -0.07142296 -0.07057273 -0.050878786 -0.109239 0.18567486 0.008455559
0.05327595 0.091150686 0.022264674 -0.12298622 -0.14432569 -0.20054731 -0.29382414 0.0439103
-0.10787765 -0.17267588 0.5408078 -0.24211115 -0.122338206 0.07995392 -0.571315 -0.20694797
-0.48699754 0.033103447 0.026580859 0.10361925 0.1008352 0.0401001 0.00911517 0.16423164
0.3206368 0.007008325 -0.06528905 -0.04193053 0.05211786 0.0014531481 0.094199784 0.011035762
0.055614453 0.0401046 -0.07700416 -0.04768352 -0.00053654617 0.057924606 0.019525154 -0.005268929
0.06257718 -0.04289673 0.0017615176 0.02704461 0.023476597 0.028319025 0.023298733 -0.030968763
-0.005019804 -0.015373511 -0.11388116 -0.008842905 0.10092908 -0.011466668 0.1229525 0.102065824
0.122004256 -0.15568893 0.14822643 0.11041431 0.023561932 0.032157253 -0.015964353 0.7971458
-0.10856599 0.11343311 0.02159886 0.23793659 0.32575545 0.884233 0.21489127 0.01164473
0.2262759 0.15503274 -0.055854708 0.18175353 0.13372056 -0.14986594 -0.50397736 -0.028124379
-0.09003078 0.06676006 -0.0010322327 -0.014359113 0.09727254 0.0040356196 -0.073220536 -0.002032796
-0.043929245 0.00025862598 -0.03225522 0.005336767 -0.035466824 0.043531157 -0.050195068 0.047997385
0.01402634 0.10090382 -0.017906172 -0.06030468 0.007292346 -0.09303147 -0.0005913401 0.027816556
0.0317361 -0.03862864 0.14873281 -0.68103546 -0.005541003 -0.536721 0.14703709 0.0034352283
-0.014402169 0.0053224606 -0.013781123 -0.012737036 0.011505601 -0.013711296 -0.8431419 -0.0064777117
0.00983382 -0.028692447 -0.008035916 -0.01153473 -0.012870833 -0.0020711932 -0.103711165 0.03225749
-0.009394292 0.027545378 -0.31708404 0.0022465794 0.009466277 -0.030638423 -0.05116476 -0.051482752
-0.020726772 -0.042577412 -0.010351722 0.014682495 0.11181865 0.0091977455 0.056349363 -0.09159624
0.14958178 0.08393436 -0.051763672 -0.07391886 -0.017470844 0.048914514 -0.0072451686 0.045125816
0.004236557 0.03535595 0.0029480278 -0.0037194542 0.0025736645 0.027023979 -0.05422012 0.051600236
-0.010743359 -0.03529918 -0.03497297 -0.03245772 0.0053710733 0.04538265 0.003683902 0.009864193
-0.056347214 0.038029257 0.09497512 0.021266779 1.700972 -0.007649424 0.01846052 0.030481942
0.16606505 -0.042471446 0.046103008 0.005266182 0.015347246 -0.05429984 -0.036578298 0.01751283
-0.02287655 -0.01569334 -0.0545938 -0.065790944 -0.041968152 -0.15317635 0.013577371 -0.02221256
-0.048409928 -0.08188112 0.0347187 0.06620312 0.119556226 -0.0052650874 0.010366079 -0.013230811

bias f4 [128]
00000000: 5b70 31bc 38d7 3bbc 7626 8c3b d73e 54bb
00000010: 31e4 8a39 2cc5 863c f336 b33a 97db d13b
00000020: e837 a9bc c8a3 0cbd fc1a 8d3b 0ec9 913b
00000030: 071f a33c f74d f33c 0e35 83bc c82e 82bd
00000040: bed2 ac3c f59d d3bb 1b19 31bd d5c1 96bc
00000050: 9865 95bc 1ea0 a0bc 5b20 083d cfec d53c
00000060: 0bc2 163d b5fe 90bc 9432 dcbb 7837 12bb
00000070: ae96 05bc 8ed6 3ebc 8ff7 f23c 78a1 da3c
00000080: 8b4e 3bbc b6a1 e13c 497a 24bd f454 7fba
00000090: 253c 5bbc 01cc 053c e86c a43c cf18 2d3c
000000a0: fcb7 4cbd 28e5 b33c b7fc 2fba 2177 fabc
000000b0: 4b84 eb39 e231 eb3b a273 cfbc 1b72 21bc
000000c0: 8c72 1abc 8cbf 87bc 3a2f 323c 10b4 99bc
000000d0: b254 e63b b672 523b 6986 8dbc f75e 1dbc
000000e0: 4d7e 7a3c 10bd 6fbd 620b 923c 2bb9 033c
000000f0: bb55 313b e5fb df3b 0db9 7dbd 7a43 4bbc
00000100: 15ec b3ba eda4 dcbb c6c8 a63c 0d36 e03c
00000110: 4e1e b1bb a054 b23c 468e 323c e90d dfbc
00000120: 7c45 5ebc 165a 4b3c c871 c33b 660e 08bd
00000130: 2110 f3bb d0cd acbc 9713 63bd 4bb4 113c
00000140: 3a64 7a3a 1538 493d 6335 b13c 5dd0 c3bc
00000150: 4483 ed3c 9d22 ffb8 5a39 1e3d da05 743c
00000160: 15a0 c03b 3f16 8e3c 5788 0abb bfa5 433c
00000170: a199 c03c 88bb 5f3c 9682 0a3c 96e4 80bb
00000180: 7f8d f53b 9d50 d1bc 2d36 68bb 195f 54ba
00000190: b7fa 1f3d 0354 f8bb 9e23 86ba 2816 5fbc
000001a0: af4f 21bb 987b 15bd 9c6b 97bc 4526 ebbb
000001b0: 758c 753c 2bd4 1e3c 5074 19bd b82a a33a
000001c0: ae4b 02bd 6396 9cbb 1aa4 d6bc b251 933c
000001d0: c017 043c c51a 29bd 9370 ccbb 4480 56bc
000001e0: d37b a4bc 2059 aa3b 6507 3a3d a806 813c
000001f0: 61b0 4bbd 56e9 533c 7fef e63c 8925 ed3c
-0.01083001 -0.011464886 0.004277046 -0.0032386088 0.00026491427 0.01645144 0.0013672992 0.006404351
-0.020656541 -0.03433588 0.0043061953 0.0044490164 0.019912256 0.029700262 -0.01601651 -0.06356579
0.021096583 -0.006458039 -0.043236833 -0.018402973 -0.01823692 -0.0196076 0.03323398 0.026113896
0.036806148 -0.017699579 -0.0067198966 -0.0022310894 -0.008153601 -0.0116478335 0.02965906 0.026688322
-0.0114323 0.02754293 -0.040155683 -0.0009740137 -0.013381039 0.008166314 0.020071462 0.010564997
-0.04998015 0.021959856 -0.00067133777 -0.030574383 0.0004492126 0.0071775774 -0.025323693 -0.009853865
-0.009426724 -0.016570829 0.0108755175 -0.018762618 0.0070291394 0.003211183 -0.017276006 -0.009605161
0.0152889015 -0.058529913 0.017827693 0.008039753 0.0027059156 0.006835448 -0.061944056 -0.012406224
-0.0013726974 -0.006733528 0.020359408 0.027369523 -0.005405224 0.021768868 0.010898178 -0.027228313
-0.013566371 0.012411615 0.0059644915 -0.033216856 -0.007417694 -0.021094233 -0.055438604 0.008893083
0.0009551678 0.04912575 0.021631902 -0.023903066 0.028993256 -0.00012165795 0.038628913 0.014893973
0.0058784583 0.017344592 -0.0021138394 0.011941372 0.023510756 0.013655551 0.008453986 -0.0039334996
0.0074936743 -0.025551135 -0.0035432682 -0.0008101329 0.03905746 -0.0075783744 -0.0010234003 -0.013616122
-0.0024614146 -0.03649482 -0.01848393 -0.007176193 0.014987101 0.0096941395 -0.03746444 0.0012448644
-0.031810455 -0.0047786697 -0.026201297 0.017983291 0.008062303 -0.041285295 -0.006239006 -0.013092104
-0.020078575 0.005198613 0.04541721 0.015750244 -0.049728755 0.01293405 0.028190373 0.028948562

weight f4 [128]
00000000: e841 433e 563b 943e 260a 9c3e a0dd 513e
00000010: 71b4 4c3e 24d6 893e 9c15 3e3e 51aa c43e
00000020: a9cc 763e 89ca 473e c163 393e 312e 9f3e
00000030: 2b97 1d3e c7f1 693e 3096 2c3e 1d77 5b3e
00000040: c215 853e 3dec 873e c230 683e b8dc 163e
00000050: 5b22 3b3e 925b 5b3e 3f32 a73e 843b 863e
00000060: 027c 5e3e 9e7c 4a3e 9644 383e 65b0 3d3e
00000070: 1c0d 753e b56a 993e f159 683e 3ba8 173e
00000080: 6659 983e 0a5a 823e aa12 5f3e c593 ae3e
00000090: a145 583e f72b 8a3e 0c20 403e 5daf 823e
000000a0: a98d 833e 5a6e 623e d74d 903e 304d ba3e
000000b0: eb84 883e 8bd0 d73d 9e37 6d3e dc5e 893e
000000c0: 5c29 913e 8702 a23e e8de 913e 8bf7 543e
000000d0: 94e0 b63e 08e4 733e c040 613e 9a12 b93e
000000e0: 77dc 5f3e f108 573e 0993 563e 278d 503e
000000f0: d991 803e 061e 953e 1bd5 783e 2759 933e
00000100: a361 2e3e ad70 8c3e c54e 853e 55f3 283e
00000110: 20c4 663e 6cc8 8d3e 7640 b73e 3921 bf3e
00000120: b7a0 a03e a6dd ba3e 18f3 813e a828 703e
00000130: 928a 953e d20e 7d3e 4ced 543e ab78 db3e
00000140: dbf6 943e 062e 323e 3845 733e ea59 8e3e
00000150: 8139 783e 26fa 353e db42 5a3e 3e0c 9a3e
00000160: b397 863e 3e97 5f3e b986 913e 3a6c 283e
00000170: 8281 913e 63ed 383e 485a 883e b2e7 293e
00000180: 30ac 593e f3bd 513e e22e 5c3e 0899 863e
00000190: 920a d43e 3c42 573e ca9f 913e 16fe 6c3e
000001a0: 8e72 e93e cc40 463e 1a7d 8d3e 3775 2d3e
000001b0: b51d 9c3e fd87 843e e901 a83e a180 8e3e
000001c0: 7fc1 ae3e edc2 bb3e f317 343e c832 1d3e
000001d0: 94b7 963e 3214 963e e832 6f3e 8ebc 6e3e
000001e0: 1a70 633e 27ad 653e cbb8 8a3e 6226 853e
000001f0: 10ac 1d3e 8d5d 0c3e d35e 833e 9958 633e
0.1906811 0.2895152 0.30476493 0.204947 0.19990708 0.2692119 0.18562931 0.3841119
0.24101509 0.19510855 0.1810446 0.3108993 0.15389697 0.22846137 0.16854167 0.21432157
0.25993162 0.26547423 0.2267485 0.14732635 0.18274824 0.2142165 0.32655522 0.26217282
0.21726993 0.197741 0.17994913 0.1852432 0.23930782 0.29964224 0.2269056 0.14810269
0.29755706 0.2545932 0.21784464 0.34097114 0.21120311 0.26986668 0.18762225 0.25524417
0.25694016 0.22112408 0.28184387 0.36387014 0.26663908 0.10537823 0.23165748 0.26830184
0.28351867 0.31642553 0.28490376 0.20797555 0.35718215 0.23817456 0.21997356 0.36147004
0.21861444 0.20999505 0.20954527 0.20366345 0.25111273 0.2912447 0.24300043 0.28778955
0.17029433 0.27429715 0.2603666 0.16499074 0.22535753 0.27691972 0.35791367 0.37330034
0.31372616 0.3649723 0.25380778 0.23453009 0.29207283 0.24712685 0.20793647 0.428655
0.29094586 0.17400369 0.23756874 0.27802974 0.24240686 0.17771205 0.21314566 0.30087465
0.26287612 0.21835038 0.28423098 0.16447535 0.2841912 0.18059306 0.2663138 0.16592291
0.2125709 0.20482616 0.2150226 0.2628863 0.41414315 0.2102136 0.28442222 0.23143801
0.4559521 0.19360656 0.27634507 0.16939245 0.30491415 0.25885 0.32813957 0.2783251
0.34132 0.36672154 0.17587261 0.15351403 0.29436934 0.29312283 0.23359263 0.23314115
0.22210732 0.22429334 0.2709411 0.26005846 0.15397668 0.13707562 0.25658283 0.22201766

bias f4 [128]
00000000: dfeb b9bd c9b9 4dbe 7d79 a73b 13ff a1bd
00000010: 7a65 f2bd d6b8 19be 1ca2 6bbc 5f00 9abd
00000020: a4dd 14be 0899 c6bd d746 afbd db34 9dbe
00000030: 80f9 bd3d 730c 1bbd d2cc 88bd 4ac1 b93d
00000040: a4cf 9abe af19 a0be 6140 05be 6bcb 173e
00000050: da97 a5bd 6412 1cbe d309 a0be d48e 68be
00000060: 7bf7 af3d 8bc0 8bbc 5ebb f53d eec1 3cbd
00000070: 7db8 dabd bec9 febd a11d 0ebe a397 fc3d
00000080: 2d02 86be 8b7a 8cbd 04e5 f8bd 52ec 3ebe
00000090: 7da6 63bd 3156 39be b486 b1bd 4b71 24be
000000a0: 9905 84be 9d2a bc3d 1fba f93c 1d1d a2bc
000000b0: 7e1f 83be 74db 803c ff2b 02be 8ee9 a9be
000000c0: 2739 6fbe 9f88 06be 5414 a03c f444 f4bc
000000d0: 1ba0 19be de0f 05be 3e0b be3d e3db 1dbe
000000e0: df5a cdbd 535f bb3d ca4e b33d b591 b03d
000000f0: f740 d5bd 2770 02bf 6648 7abb 37ee aebe
00000100: d750 85bd c116 dbbe f384 68bd 54c5 1a3d
00000110: 0cd3 02be 4765 c6be 6ef3 02be 56c7 89be
00000120: f6e1 32be 0177 36be fcb9 91be 8741 31be
00000130: d5c5 6bbe 4de9 56be 8ba5 0cbe 4739 4abe
00000140: a315 8bbe 7768 22bd 10c5 e2bd ecf0 dcbd
00000150: 2323 debd 137d be3d aa40 593d c383 dbbc
00000160: 7219 e1bd 38d9 c1bd d0fc e6be d45c 84bd
00000170: 0560 fcbd e66a 063e 71e7 5ebe 65ad 65bc
00000180: 087a bd3d 9747 aa3d 9cbb ba3d 922e 1abe
00000190: 93f9 4dbe 9cc1 b23d 9ebe 43be 77df febd
000001a0: b206 77be bf20 e9bd b4e3 4cbe 3826 89bd
000001b0: cbcb 17be 295a 01be cc00 10be 8eed 88be
000001c0: ffff 3ebe 9803 5cbe ac79 cabd af7e 77bd
000001d0: d293 3ebc f244 55be b7f6 bf3c 516c 16be
000001e0: b95c 113d 58a9 d5bd 7db5 02be a72e 5fbe
000001f0: 09c3 87bc e7ff a23d 5263 23be 699d c13d
-0.09078192 -0.20090403 0.005110918 -0.0790998 -0.11835761 -0.15011916 -0.014381912 -0.07519602
-0.14537674 -0.09697157 -0.085584335 -0.30704388 0.09276104 -0.03785367 -0.066796914 0.0907007
-0.30236542 -0.31269595 -0.1301284 0.14823692 -0.08085604 -0.1524139 -0.31257495 -0.22710735
0.08592125 -0.017059585 0.11998628 -0.046083383 -0.106797196 -0.12440823 -0.1387849 0.1233361
-0.26173535 -0.06859311 -0.12153056 -0.18644837 -0.055578697 -0.18099286 -0.08668271 -0.16058843
-0.2578552 0.09187815 0.030484257 -0.019789273 -0.25609964 0.015729643 -0.12712096 -0.33186
-0.23361646 -0.13138054 0.019540943 -0.029818036 -0.15002482 -0.12994334 0.09279488 -0.15415911
-0.10027098 0.09149041 0.08755262 0.086215414 -0.10412782 -0.5095238 -0.0038190125 -0.34166119
-0.065095596 -0.42790797 -0.056767415 0.037785843 -0.1277582 -0.38749143 -0.12788174 -0.26909894
-0.1746901 -0.17818834 -0.28462207 -0.17310153 -0.23024686 -0.20987435 -0.13735025 -0.19748412
-0.27164945 -0.039650407 -0.11072743 -0.1078814 -0.108465455 0.093012 0.053040184 -0.026796227
-0.109911814 -0.09465259 -0.45114756 -0.06463018 -0.12323002 0.13126716 -0.21767975 -0.014018391
0.09251791 0.08314436 0.09117815 -0.15056828 -0.20114736 0.08728334 -0.19115683 -0.12444966
-0.24123648 -0.11383199 -0.20008737 -0.06696743 -0.14823835 -0.1263205 -0.14062804 -0.2674374
-0.18652342 -0.21485746 -0.09886488 -0.06042355 -0.011631923 -0.20827082 0.023433072 -0.14689757
0.035488818 -0.104326904 -0.12764545 -0.2179514 -0.016572492 0.07958966 -0.15955856 0.09453852

running_mean f4 [128]
00000000: 184f c23b 247e aa3d 014c 533d acb1 583c
00000010: 6a6d 463c 95c4 bf3c 5ec3 2cbd eb01 0dbe
00000020: 0fde 1dbc b222 09bd ccce a73c 0a83 33bc
00000030: 309e 00bd 9535 c23c 9033 99ba 469e b2bd
00000040: 5cd9 e43d 31a5 5d3d 3531 fcbc e583 86bd
00000050: 20e5 d0bc 1485 8a3b 90cc 77bb a8c9 a13d
00000060: 2004 54bb b479 16bd 52dd 65bd be78 70bd
00000070: b332 acbc 5882 6fbd b924 0f3d b98a b6bc
00000080: 0977 793d 3475 b3bd 24ed 97bb 9c1e 35bc
00000090: f47d 92be 1289 7bbd 704c b33c 7765 833d
000000a0: 04c1 61bd d8e7 e5bb 48c0 0ebe dcab 27be
000000b0: 6f23 2fbd 2742 06bc a2b7 b5bc e6ab b83d
000000c0: 01c9 38be f3f3 c3bd 5c19 433d 6df8 06bc
000000d0: 193b 8a3d c60c 59bc 51d2 4dbd 6f86 58bc
000000e0: e3a3 203d 28cb bdbd ba2d c0bc 9d15 e5bc
000000f0: 5f6c 063d 2033 8a3d 80a4 49bc 0c48 e4bc
00000100: 3c76 803b 07eb 6f3d 0d23 3d3e 070c 833e
00000110: 3c1e dabb dfdf d43d 7005 353d 948e 67bd
00000120: f6bb d83c ffe8 5e3d 8cd7 833c a3a8 b13c
00000130: 3a75 46be 713c 4dbd c366 79bd cca2 3b3d
00000140: fc0d d8bd d6bd 0dbe 05c5 afbe c244 293d
00000150: 2ec4 10bd 36f7 513c 28a0 c6ba 680d f8bc
00000160: 8a2d df3d 0e3a 54bd bdb0 5e3d 0041 a1bb
00000170: 8718 7f3d f099 33bd 169d b63d 346f 16be
00000180: 79eb 10bd 155c 90bd d408 34bd aca1 d8bd
00000190: 16d6 763d 4811 41bd 3049 20bb d233 b53d
000001a0: 0654 a3bc 0db7 86bd fa64 19be 90ff 2dbb
000001b0: 75ed 9bbd 831a e3bc ba06 b4be fc03 eb3c
000001c0: cf75 64bc 3405 30bd c02e f7bc cdb0 cb3c
000001d0: 6c38 8abd 4314 d63d 809c ba3d 91b1 293e
000001e0: 2c18 01be 0098 a839 e6eb da3d bdfa 263e
000001f0: 3d75 fbbd 98e6 17be ff72 073e 80c4 3ebc
0.005929839 0.08324841 0.051586155 0.013225954 0.012111047 0.023409167 -0.042178504 -0.13770263
-0.009635462 -0.033480354 0.02048435 -0.010956535 -0.03140086 0.02370719 -0.001168834 -0.087215945
0.111742705 0.054112617 -0.030785182 -0.06568126 -0.02549988 0.00422729 -0.0037811138 0.07899791
-0.0032351092 -0.03673716 -0.05611927 -0.0587089 -0.021020269 -0.058473915 0.03494713 -0.022282945
0.060904536 -0.08762589 -0.0046364237 -0.011054661 -0.2861172 -0.061410017 0.021887034 0.06415837
-0.055115715 -0.0070161633 -0.13940537 -0.16374153 -0.0427584 -0.008194483 -0.02218229 0.09017162
-0.18045427 -0.09568014 0.047631606 -0.00823794 0.06749553 -0.013247674 -0.0502494 -0.013215645
0.039218795 -0.092672646 -0.023459304 -0.027964408 0.032818194 0.067480326 -0.012307286 -0.027866386
0.0039203446 0.05857375 0.18470402 0.25595114 -0.0066564362 0.103942625 0.04419464 -0.056532457
0.026456814 0.05442142 0.016093992 0.021686858 -0.19380656 -0.05010647 -0.060889017 0.045809552
-0.10549542 -0.13841948 -0.3433 0.04132534 -0.03534334 0.012815287 -0.0015153931 -0.03027983
0.10897358 -0.051813178 0.05436777 -0.0049210787 0.06227925 -0.043847978 0.089166805 -0.14690858
-0.035380814 -0.07048813 -0.04395373 -0.105777115 0.060262762 -0.04713562 -0.0024457686 0.088477746
-0.019937526 -0.06577883 -0.14979926 -0.0026550032 -0.07613651 -0.027722603 -0.35161382 0.028688423
-0.013944103 -0.042973712 -0.03017366 0.024864579 -0.06749043 0.10453083 0.09111881 0.16571642
-0.12606877 0.00032156706 0.10689525 0.16306587 -0.12278221 -0.14834058 0.13227461 -0.011643529

running_var f4 [128]
00000000: 64f3 5d40 994f 1040 b4c3 9c40 6317 c63e
00000010: 4f16 1e40 f934 dd3f 1601 2840 6420 9f40
00000020: 0c5c bf3e e468 de3f d97a 5240 386e b140
00000030: ec45 273f 6a33 263e 856a 4340 2b0e d040
00000040: 94b4 ef40 6141 9e40 557e 803f f727 fa3f
00000050: dd38 2740 ad60 0540 4fb4 ec40 bd52 4b40
00000060: a656 9a40 4908 2f3e 9d4e 683f 737b 873f
00000070: bbf8 bc3e 674f 303f d965 1840 59d6 4e3f
00000080: 1857 5d3f 9d41 6640 5816 e03f fa4b bf40
00000090: 4668 3b41 09a9 fb3f e37f 0640 da15 b83f
000000a0: 41b3 df40 698e af40 c658 7040 d910 6340
000000b0: 4a8e 0f40 0c48 5b3e b21b 8d40 17f4 9f40
000000c0: a8f6 3441 6cc7 4a3f 2678 a340 88a0 343e
000000d0: 8846 9a3e 0bf3 a63f e509 7340 4aca a73e
000000e0: cebf 5540 acd3 ca40 b287 4540 8e70 6e40
000000f0: b01d 543f eab8 c840 ff71 0441 8f20 c240
00000100: ce7d 8040 f040 b840 ed6f 9a40 9fdc 9240
00000110: 480b 9d3f 94a3 f540 e891 883e 66ef b740
00000120: bf14 233f 68d9 b73e ab05 1540 1556 eb3f
00000130: 8a08 0d40 67c1 d03f 6360 4740 87e6 ae3e
00000140: bc01 0541 7c3e 8d40 0bca 6741 e07c 903e
00000150: 03a2 d43f 16bd 1940 159f 8f3f c22f f540
00000160: fc42 5b3f 3fda 4940 27e2 fd40 ea2d 6840
00000170: 01b7 3f3f 67db 873f d02f ea3f 4f29 2c40
00000180: c360 df40 1b8a 8b40 7c24 6840 f6f2 b540
00000190: dff3 9e3e 44ac 5140 f361 873f 7189 a23f
000001a0: f4d8 da40 f268 be3e 4693 be40 c82b 4040
000001b0: ca65 283f c329 313f 85b3 fe40 4f06 2c40
000001c0: 61b8 943e c39b e13e d9f2 2740 ad90 6c40
000001d0: 3c21 bd3f 3f29 5040 ab31 fc40 9af8 2140
000001e0: 64fb a340 9693 7540 8077 c93e bf9e 2240
000001f0: 6a64 323f 6c17 b740 8c75 1140 f092 8f40
3.4679804 2.2548583 4.8988895 0.38689718 2.4701116 1.7281791 2.6250663 4.972704
0.37374914 1.737576 3.288748 5.5447044 0.6534107 0.1623055 3.0533764 6.5017295
7.490793 4.945481 1.0038553 1.9543446 2.6128457 2.0840256 7.3970103 3.176925
4.823077 0.17093004 0.90744954 1.0584549 0.36908516 0.6887116 2.3812163 0.8079582
0.8646102 3.5977547 1.7506819 5.9780245 11.712957 1.966096 2.1015556 1.4381669
6.9906316 5.486134 3.7554183 3.5479033 2.2430596 0.21414202 4.409631 4.998546
11.310219 0.79210544 5.1084166 0.17639363 0.30131936 1.3042921 3.797479 0.32771522
3.3398318 6.338339 3.0864072 3.7256198 0.828578 6.2725725 8.277831 6.0664744
4.015357 5.757927 4.826163 4.5894313 1.2269068 7.676218 0.26673818 5.7479734
0.6370353 0.35908055 2.328471 1.8385645 2.2036462 1.6309022 3.115258 0.34160253
8.312923 4.4138775 14.486827 0.28220272 1.6611942 2.402166 1.1220423 7.66208
0.85649085 3.1539457 7.9338565 3.6278024 0.74888617 1.0613831 1.8295841 2.6900213
6.9805617 4.3606086 3.6272268 5.6859083 0.31045434 3.2761393 1.0576767 1.2698194
6.8389835 0.37189442 5.9554777 3.0026722 0.6578032 0.6920435 7.959414 2.687885
0.2904692 0.4406415 2.6241972 3.6963303 1.4775767 3.2525175 7.881063 2.5307984
5.1244373 3.837133 0.39348984 2.540939 0.6968447 5.721609 2.2727995 4.4866867

weight f4 [64, 128]
00000000: 03e7 7abd 8a84 0abe 39bc 5e3e 322d 2cbd
00000010: 2634 f03c ab3f f0bc a864 513e 3267 423e
00000020: a93c d3bd 0dda 4fbd 5159 35bd 6bf1 8a3e
00000030: 148a 2a3e 1754 043e e2d7 82bd cf8f 3ebe
00000040: 9977 3e3e 3dc0 6a3e 3cd0 083e 5669 3d3e
00000050: 0bd2 07bc d7c0 7e3b aa2d a13e 0bdc b73d
00000060: 3832 4abe d6b6 0e3e ada1 3f3e 45ca febd
00000070: d981 e9bd e4a1 9bbd ee58 ba3c 979a 1f3e
00000080: ec39 533a 3265 6a3e 5bfd 99bd 53f4 02be
00000090: d8a6 203e cf8d 3cbb 6bcf 14bd 99cf c7bd
000000a0: 2419 fd3d ce01 4cbe 09a7 4f3e 2a7f 373e
000000b0: 99f4 4f3d aea0 183e 12bc 0fbd 0b11 253e
000000c0: d698 a13e 02c4 84bd f33d 343e a0f0 073e
000000d0: fd8f 653d dac3 96bc a8a9 38be dbc8 b33d
000000e0: de1a b9bc 5b5b 3cbe 27a7 13be b50d 4ebe
000000f0: 3eb9 f03d 68f2 4e3e f6ed 38be 6460 7c3e
00000100: 7e19 a2bd 8844 503e 1605 22be 1950 33be
00000110: 8643 03bc b66f 283e 9f5d 5e3d aeed 933e
00000120: 985f 0d3e 315a 08bd ef91 013d 5e68 1c3e
00000130: c22d 17bd fff9 2a3d 2a3c f4bc d6b8 b63d
00000140: 57d8 9e3e 7f15 753e b156 0d3e d5b3 c43c
00000150: 444c 7d3e 2987 3a3e b1ec 19be eb92 1fbe
00000160: f1d3 c23d 372d 733e dd1a 363e da71 9fbd
00000170: 2ef0 fa3d ff89 223e 6f5e cabd 51d3 493e
00000180: 2426 37be ed4e 3abe ee1c 3fbe 9eed 823e
00000190: ed20 d13c a913 4fbe c35f 18bd 99c5 f43d
000001a0: 8545 18be 387e b7bd 449a 933e a8a5 a9bd
000001b0: f674 1ebd ecda 15bd 9151 6a3e a51a 293e
000001c0: fb99 af3d 9a8f 69bd 76cf 83bd 37cd 91bd
000001d0: 7ad2 c8bd 5d78 523e 6655 21be 6cae 5f3e
000001e0: 4167 533e 2ead 00be 2be3 06bd 3f06 573e
000001f0: 9d8b 21bd 1b62 533e 778d 403e ef0e 5ebe
00000200: cb86 10bb 348a 0dbe a58d 0e3e cbae 47bd
00000210: fecb 9b3d 0833 9bbc 572d eb3d f187 0f3e
00000220: 1b34 b1bd c554 613c 356b 923c fb72 4a3e
00000230: 0cbe fa3d 8c91 213e e5f7 c6bc 2ac3 52be
00000240: 2fc1 963e d534 8c3e 3ffc 003e 3810 fc3d
00000250: 36a0 333b 7d9a a33d a5ec a93e 26d1 b83d
00000260: b9dd 32be 9a12 103e 5c85 053e ba4d 3cbe
00000270: 4367 f2bd 01c4 dabd 7ba3 8d3d 835f e03d
00000280: e0b6 e53c 6e40 c43d bdfd b23b b01e 25be
00000290: 81c6 d1bb 334c 8f3d 4f0f a9b9 2e87 9ebd
000002a0: ad10 fa3c 159d 59be 4558 0d3e 3e47 033e
000002b0: 1826 c23d 8dff 213e 7f5d eebd 7410 903e
000002c0: dba8 213e fe3f e9bd 3781 113e 0d4b 0d3e
000002d0: f815 033e e2e9 923c dd55 3dbe 22e0 1f3e
000002e0: 39f8 7cbc ffe4 48be b10f 34be aad5 46be
000002f0: a63a 5a3e fa6f b43e c45b 4dbe 3010 9c3e
00000300: 6432 86bd 1665 a03e 9b5d 36be 3648 31be
00000310: 601d 313d 1fcd 923e 81e2 ab3d 566d 543e
00000320: fb2f 9c3e 7ffa bd3d 0f84 bd3d 9bed 603e
00000330: 8602 d4bd 41e8 963d 7064 643d 8e9b 323e
00000340: ca8d 843e d585 2f3e 1d0e df3c 81ac 973d
00000350: 4ca9 553e 0cac e43d 9819 32be 1f09 55be
00000360: b2f1 463e 00be ec3d effd a63e cfcf 7ebd
00000370: f075 423e b5f0 053e a4bc e0bd 1ea6 253e
00000380: 0eaa 69be d1f8 62be 581e 42be c37f f83d
00000390: 7e7c a73d 2d21 42be 2e9a 0cbe d5b1 593e
000003a0: 1e1c 57be 083b 42bd b748 bb3d 629e 48bc
000003b0: be5d e8bd 1c0a 783d aad5 083e 32a7 803e
000003c0: 360a 923d dfea 10bd 7e1c 373b 592f 93bd
000003d0: 8e4d 40be 5960 6a3e c314 46be cab8 703e
000003e0: 6fc6 233e ab6d d6bd 2ed2 4fbd 6edd 813e
000003f0: 5b0f d8bd 4600 fd3d 1ebc 773e 0fcd 43be
-0.061255466 -0.13527122 0.21751489 -0.04203529 0.029321741 -0.029327234 0.20448554 0.18984678
-0.103143044 -0.05074506 -0.044274632 0.27137312 0.16654235 0.12922703 -0.06388833 -0.18609546
0.1860031 0.22924896 0.13360685 0.18497214 -0.008289824 0.0038872266 0.3148015 0.08977517
-0.1974572 0.13936934 0.18714018 -0.124409236 -0.114017196 -0.075992376 0.022747483 0.15586315
0.0008057642 0.22890165 -0.07519027 -0.12788515 0.15688646 -0.0028771048 -0.03633062 -0.09756393
0.12358311 -0.19922563 0.20278563 0.17919603 0.050770376 0.14905044 -0.035091467 0.16119783
0.31561917 -0.06482698 0.17601757 0.13275385 0.05604552 -0.018403936 -0.18033469 0.087785445
-0.02259582 -0.18394224 -0.14419232 -0.20122416 0.11754082 0.20209658 -0.18059525 0.24646145
-0.079150185 0.20338643 -0.15822253 -0.17511024 -0.008011704 0.16448864 0.054288503 0.28892273
0.13805997 -0.03328914 0.031633314 0.15274188 -0.036908872 0.04174232 -0.029813845 0.089219734
0.3102443 0.23933981 0.13802601 0.024011532 0.24736124 0.18215622 -0.15031697 -0.15583389
0.09513081 0.23747717 0.17783685 -0.07785387 0.12252842 0.15872954 -0.09881293 0.19709517
-0.17885643 -0.1819417 -0.1866338 0.25571913 0.025528396 -0.20222344 -0.0372007 0.11951751
-0.1487027 -0.08959621 0.28828633 -0.082835495 -0.03868576 -0.036585733 0.22882678 0.1651407
0.08574291 -0.057021715 -0.064360544 -0.0711922 -0.0980577 0.20553727 -0.15755233 0.2184388
0.20644857 -0.12566063 -0.032931488 0.20998476 -0.039439786 0.20642893 0.18803965 -0.21685384
-0.0022053 -0.13822252 0.1392122 -0.04875068 0.07607268 -0.018945232 0.11483257 0.14016701
-0.086525165 0.013753121 0.017873386 0.19770424 0.1224328 0.15778178 -0.024288127 -0.20582262
0.29444262 0.27384058 0.12596224 0.12307781 0.0027408726 0.07988451 0.33188358 0.09024267
-0.17467393 0.14069596 0.13039154 -0.18389025 -0.11836102 -0.10681916 0.06915947 0.109557174
0.028041303 0.095826015 0.005462377 -0.16124988 -0.0064018373 0.06996956 -0.00032245598 -0.07740627
0.03052553 -0.21251328 0.13803203 0.12820145 0.09479922 0.15820141 -0.11638927 0.28137553
0.1578707 -0.11389159 0.14209448 0.13798161 0.12801349 0.01793379 -0.18489785 0.15612844
-0.01544004 -0.19618605 -0.17584111 -0.19417444 0.21311435 0.3524168 -0.20054537 0.304811
-0.0655258 0.31327122 -0.17809145 -0.17312703 0.043240905 0.2867212 0.083928116 0.20744833
0.30505356 0.09276294 0.09253704 0.2196564 -0.10352044 0.07368518 0.055759847 0.17442152
0.25889426 0.17140897 0.02722841 0.074059494 0.20865363 0.11165628 -0.17392576 -0.2080426
0.19428137 0.11559677 0.3261561 -0.0622099 0.18990302 0.13080104 -0.1097348 0.1617665
-0.22818777 -0.22165228 -0.18956888 0.121337436 0.08178042 -0.18957968 -0.1373069 0.21259244
-0.2100682 -0.047419578 0.09144729 -0.012244793 -0.11346005 0.060556516 0.13362756 0.2512756
0.07130854 -0.03538024 0.0027940567 -0.07186765 -0.18779585 0.22888316 -0.19343857 0.23507991
0.15993665 -0.10470136 -0.050737552 0.2536425 -0.10549804 0.12353568 0.24192855 -0.19121192

bias f4 [64]
00000000: 8466 b63c ace0 88bc 6f4f c93c 81a8 eabc
00000010: e2b5 6e3d 251f 9abc 7891 a63c eb94 8bbc
00000020: e29f 363b 9b27 043d ccd3 e93a 5f4f 1ebd
00000030: 4c6a a0bc bebb 14bd ce2b 343d 85ad 543c
00000040: 69f2 d03c 4db1 12bd 0515 a2bc 03db a73c
00000050: e3b6 a4bc 5996 1dbc 6509 36bd 9e26 153d
00000060: 6a80 48bd 5de3 bb3b 317b 74bd c074 f2bc
00000070: 4e6e 03bc 6345 abbc a7a0 9f3c 1d26 223c
00000080: b685 2bbd c67f b6bc 68f5 2abc c917 d5bb
00000090: 125c 60bc e859 073d 6eed b039 e2c2 93bb
000000a0: 1c59 0c3d 51f5 dabc 608a 16bc 9ca6 ffbc
000000b0: 35f6 d2bc 0bc8 2bbc 6b04 cb3c 010f a43c
000000c0: ca2b 133c 862a 30bd 92d0 09bd 6b80 fdbc
000000d0: 094b 44bc 9859 dbbc 555c 18bd 2d99 25bc
000000e0: 785b e0ba 8cbe edbc 0476 0439 2238 5b3b
000000f0: d266 1d3d d50d 74bc d249 583c ccd3 95bc
0.02226568 -0.016708694 0.02457401 -0.028644802 0.058278926 -0.018813679 0.020333037 -0.017038783
0.0027866294 0.032264333 0.001783961 -0.038649913 -0.019581936 -0.036311857 0.043987088 0.012980823
0.025506215 -0.03581362 -0.019785414 0.020490175 -0.020106738 -0.009618365 -0.044442553 0.03641378
-0.04895059 0.005733891 -0.059687797 -0.029596686 -0.008021904 -0.02090711 0.019485785 0.009896782
-0.041875564 -0.022277724 -0.010434486 -0.0065030796 -0.013693826 0.033044726 0.00033746235 -0.004509316
0.03426467 -0.026728304 -0.009188265 -0.031207375 -0.025752166 -0.010484706 0.02478238 0.020026686
0.008982608 -0.043009304 -0.033646174 -0.030945024 -0.01198078 -0.02677612 -0.03719743 -0.010107321
-0.0017117104 -0.029021524 0.00012632465 0.0033450206 0.038428135 -0.014895876 0.013201194 -0.01828947

weight f4 [64]
00000000: 655a 1d3e 4cda 403e 7047 c73d 5218 383e
00000010: ee6e 333f 96ea 3d3f ba7a bf3d f667 c53d
00000020: 46a7 303d 0227 b63d b58c d53d cccf 873d
00000030: d252 013f 417a 0d3e 0100 bb3d d4e2 dd3e
00000040: b8c7 043f 0be0 643d 5f3b 103e 3ec5 973d
00000050: f41b 2e3e 51a7 aa3d e4fd 173e f11c d43d
00000060: eaaf 323e 2313 843d c798 9c3d a699 f43d
00000070: 13d8 de3d 1eff be3d d21d c43d da74 b13d
00000080: 4487 9d3d 02bc d03d 9357 b23d f03a bb3d
00000090: 087e 343f 62f6 3a3e 4ccd 233f 6a98 b03d
000000a0: cf23 a43d fbe5 8c3d 1b9e b83d b09c 4f3e
000000b0: 6f85 063e 6fb6 c73d fb82 b73d 93f0 d53d
000000c0: 6317 3a3e 5905 e03d a498 243e d845 f83d
000000d0: ff20 dc3d 589a d53d 53fd eb3e 9521 e43d
000000e0: b4b5 1f3e 2d42 e73d d0ad b13d 45a5 7f3e
000000f0: a430 e23d 07ab cc3d 157c 263f b117 c23d
0.15366514 0.18833274 0.097304225 0.17978027 0.7009114 0.74186075 0.0934958 0.096389696
0.043128274 0.08894159 0.10427228 0.06631431 0.50517 0.13816167 0.0913086 0.4333712
0.51867247 0.055877727 0.14085148 0.07410668 0.17002851 0.08332694 0.14842945 0.10357083
0.17449918 0.064489625 0.076463275 0.119433686 0.10881057 0.093260035 0.09576 0.08664866
0.076918155 0.1019211 0.0870811 0.09142101 0.7050481 0.1825805 0.63985133 0.08622821
0.080146424 0.06879803 0.09014531 0.20274615 0.13136838 0.09751593 0.089605294 0.104462765
0.18172984 0.1093852 0.16073853 0.12122697 0.10748481 0.10429829 0.4609171 0.11139218
0.15596658 0.11291919 0.0867573 0.24965389 0.11044434 0.099935584 0.65033084 0.09477175

bias f4 [64]
00000000: afa6 6d3f 3763 843f 8845 533f 3cc6 813f
00000010: 15f0 c83e a599 d93e e5d4 703f 0573 5d3f
00000020: 4389 673f b6a2 873f d166 8e3f 8a90 863f
00000030: 91b8 0a3f ec03 8b3f 896a 8d3f 5d61 233f
00000040: 782c 063f ae7f 843f 0353 793f 5d87 643f
00000050: 4af0 6f3f 8769 783f a4f1 6a3f fb82 8e3f
00000060: 984b 703f 03f6 803f 36e8 803f 0eda 6d3f
00000070: 8fb0 803f 4076 793f ecbf 683f 1367 873f
00000080: 81cc 883f f275 793f b171 8c3f 2797 793f
00000090: 96fa 083f be89 793f 07cd e23e f09b 8a3f
000000a0: 83dc 723f 7738 6a3f bd69 833f 5c36 743f
000000b0: 4a61 763f 394e 783f a176 833f 591f 773f
000000c0: 3c95 773f 687d 803f bdff 423f 2043 813f
000000d0: 246d 853f ad06 7a3f 2507 3c3f 861a 7e3f
000000e0: bb82 693f 8b48 5c3f 7509 893f ae06 583f
000000f0: f629 8c3f a90e 8b3f d54e cf3e a024 853f
0.92832464 1.0342778 0.8252797 1.0138621 0.39245668 0.42500034 0.9407485 0.8650363
0.9044382 1.059653 1.1125127 1.051286 0.54187876 1.0860572 1.1048137 0.6382044
0.52411604 1.0351465 0.9739229 0.8926905 0.93726027 0.9703602 0.91774964 1.1133722
0.93865347 1.0075077 1.0070865 0.9291085 1.0053881 0.9744606 0.9091785 1.0578331
1.068741 0.97445595 1.0972196 0.97496265 0.53507364 0.974758 0.44297048 1.0828838
0.94867724 0.9149241 1.0266644 0.95395446 0.962422 0.9699436 1.0270578 0.9653221
0.9671209 1.0038271 0.76171476 1.009861 1.0423932 0.97666436 0.734484 0.9925922
0.91215104 0.8604819 1.0706011 0.8438519 1.0950305 1.0863849 0.40489832 1.0401802

running_mean f4 [64]
00000000: 5b97 2e3d 13ee 00be d782 413e 1f6a 83bd
00000010: 6e9f 263f 92a9 f53e 6063 653d 0351 783e
00000020: 33db e6bd d491 11bf a04c bfbe 45b5 dbbe
00000030: a25f 2b3f b94c 4bbf ba96 91be a1c1 193f
00000040: a77e 053f ea27 47bf f483 84be 9457 8f3e
00000050: 5be5 f73c 2fac 923d 8f40 a83c 0239 53bf
00000060: bcf7 0bbe 62a2 81be 19fc 6dbf 687b 613e
00000070: 8ec9 ebbe c380 0bbf 23df 083e f03a 2cbe
00000080: bd45 d0be cf8d 23be 4dcc babe 8e41 d2bd
00000090: abc4 0d3f 0efa a9bd d46d 14bd 2cf5 b5be
000000a0: d1f3 893d 1569 063e ab32 cfbe cf35 05be
000000b0: 0d0c adbe bfe9 57be fda2 2cbf 344c c93c
000000c0: ad15 4dbd 32db 59bf e4bc 1a3e bd97 b5be
000000d0: 9c98 26bf 182a 24bd 90f0 00bf 065a 563c
000000e0: 767a 84bc 1ab1 393e bbfb 26bf 6071 5d3d
000000f0: 0266 cebe 1c45 42bf da10 7c3e 012d 01bf
0.042624813 -0.12590818 0.18897568 -0.06416725 0.6508702 0.47980934 0.056002975 0.24249654
-0.11272278 -0.5686314 -0.37363148 -0.42911735 0.669428 -0.79413944 -0.28435308 0.6006108
0.5214638 -0.7779528 -0.25881922 0.27996504 0.030260732 0.07161748 0.020538596 -0.8250886
-0.13668722 -0.253192 -0.92962795 0.22019732 -0.46052212 -0.5449335 0.1336637 -0.16819358
-0.40678206 -0.15972064 -0.36483994 -0.1026641 0.55378217 -0.08299647 -0.036237553 -0.35538614
0.067359574 0.13126023 -0.40468344 -0.13008808 -0.33798257 -0.21085261 -0.674362 0.02457247
-0.0500695 -0.8510009 0.15111119 -0.3546733 -0.65076613 -0.040079206 -0.5036707 0.013082987
-0.016171675 0.18133965 -0.6522786 0.0540632 -0.403122 -0.758867 0.24615803 -0.50459296

running_var f4 [64]
00000000: 563e 8f3f efcc 7a3f 4ee3 173f 824f 6c3f
00000010: f50b b83e 94ba 973e 98b1 963f 4756 813f
00000020: 5531 623f 42a1 483e f2a6 653f c18b 6d3f
00000030: 6478 c33e 4ba6 9f3e 8cd6 543e 69ba 0e3f
00000040: 5267 cc3e 4c94 fe3d 0fcb 823f 3b37 863f
00000050: 16aa 8b3f 1897 443f 9db9 823f ec73 cc3e
00000060: e154 633f 182f 2b3f 2632 863e ac04 923f
00000070: 3397 1d3e 58f6 f93d b9fa 8a3f 0bcd 063e
00000080: 9a91 633f 9303 763f 10cd 7d3f c3ee 8c3f
00000090: fc31 b73e 649d 723f fdbe c23e 3324 653f
000000a0: 064b 9f3f 5bfe 873f 68c8 0b3e 1732 6a3f
000000b0: f7a6 8b3f cb2d 613f e955 643e 21ad 913f
000000c0: 07e9 863f 7fa6 6d3e 8504 c73e 09ae d83e
000000d0: ab9d 303f 01a9 8f3f c322 2b3f bc49 b63e
000000e0: 7ccf 753f ca89 e63d c970 cd3d a480 f63e
000000f0: 6d01 613f 62a2 333f 4d1e 8f3e b9d0 223f
1.1190898 0.97968954 0.59331214 0.9230882 0.35946622 0.29634535 1.1772947 1.0104455
0.88356525 0.19592765 0.89707863 0.9279137 0.38177788 0.3118156 0.20784968 0.5575319
0.39922577 0.12430629 1.0218219 1.0485605 1.0911281 0.7679305 1.0212895 0.3993219
0.8880139 0.66868734 0.26210135 1.1407676 0.15389709 0.122051895 1.0857764 0.13164155
0.88894045 0.96099204 0.99141026 1.1010364 0.35780323 0.9477141 0.38036337 0.8950836
1.244477 1.0624498 0.13650668 0.9148268 1.0910329 0.879605 0.22298397 1.138096
1.0539864 0.23208044 0.38870636 0.42320278 0.6899058 1.1223451 0.6684992 0.3560313
0.9601972 0.1125675 0.10031278 0.4814502 0.878928 0.7016965 0.27952805 0.63599735

weight f4 [1, 64]
00000000: d374 313f d504 403f 96c4 173f 365e 3d3f
00000010: 8305 e53e 792b ee3e 160d 253f 00d9 193f
00000020: 64f6 2b3f f849 473f 1c08 483f 99a8 4f3f
00000030: 8349 d53e 0990 473f c3ed 4d3f 1452 f63e
00000040: a862 ce3e 3bfa 403f 21e2 373f a3ce 253f
00000050: 900d 2f3f 6215 323f da07 333f 461b 523f
00000060: 6580 303f cc83 383f 1762 443f f428 203f
00000070: 9cb6 3c3f eaf0 393f f848 203f 7113 433f
00000080: 5223 413f 6a85 2a3f cd30 483f 22ee 2b3f
00000090: 1a99 093f bb16 383f 4dba cb3e 77ed 433f
000000a0: ce20 263f 0930 2a3f 94d8 473f ace8 353f
000000b0: 6851 323f 9bad 373f 4aaf 453f 1e69 283f
000000c0: 1776 353f 8b0a 393f 250d 0a3f e64f 3e3f
000000d0: e449 463f 7ab6 2a3f 50b5 213f 8359 383f
000000e0: 7e2f 303f c203 183f df9f 483f 0f4a 303f
000000f0: f95b 413f 9409 523f 4801 d73e 6063 423f
0.69318885 0.75007373 0.5928434 0.7397188 0.44730768 0.46517542 0.6447309 0.6009674
0.6717284 0.7784724 0.78137374 0.81116635 0.41657647 0.77954155 0.8044092 0.48109496
0.40309644 0.7538182 0.7182942 0.6476843 0.6838007 0.6956388 0.69933856 0.82072866
0.68945915 0.72076106 0.76712173 0.6256249 0.7371614 0.7263323 0.6261134 0.7620154
0.7544452 0.66609824 0.78199464 0.67160237 0.5374924 0.71909684 0.39790574 0.7653422
0.64893806 0.66479546 0.78064847 0.71058154 0.69655466 0.71749276 0.77220595 0.65785396
0.70883316 0.7228171 0.53926307 0.74340665 0.774565 0.6668469 0.63167286 0.72011584
0.6882247 0.59380734 0.78368944 0.68863004 0.75530964 0.82045865 0.41993165 0.75932884
