Plots old/naive models/results_1layer/e_60_model.pt (torch, 1907 bytes, 1 tensors)

weight f4 [1, 54]
0	0x39b458e0	0.00034398492
1	0x3d0fbe2d	0.035093475
2	0x3cc79732	0.024364088
3	0x3ce0180d	0.027355218
4	0xbba7ddca	-0.005122875
5	0x3c7f0082	0.015564086
6	0xbd04f150	-0.032456696
7	0xbca6bb84	-0.020353086
8	0xbcc019b1	-0.02344975
9	0x3ce48e61	0.027899923
10	0xb95c3d0d	-0.00021003578
11	0xbd2bdbbb	-0.0419576
12	0x3ee6531c	0.44985282
13	0xbd1477f1	-0.036247198
14	0x3b0cab41	0.002146438
15	0x3cae665a	0.02128904
16	0xbd0cc46a	-0.034367003
17	0xbcbb11f7	-0.022835715
18	0xbd01142c	-0.031513378
19	0x3b65c2fd	0.003505885
20	0x3ad7fcce	0.001647854
21	0x3d2bdcd8	0.04195866
22	0x3cff4355	0.031160036
23	0x3d0d1c88	0.034451038
24	0x3b505c47	0.0031793283
25	0xbb13e66a	-0.0022567757
26	0x3ddc515b	0.10757705
27	0x3ea69e12	0.32542473
28	0xbcd51502	-0.026010994
29	0x3b4c7ea7	0.003120342
30	0xb98d670d	-0.00026970395
31	0xbb0b5917	-0.0021262818
32	0x3ba38246	0.004989895
33	0x3be5cbfc	0.007012842
34	0xbc06fcf8	-0.008239023
35	0xbc644913	-0.013933438
36	0xbd0dbf19	-0.034606073
37	0xbc4eda49	-0.012625285
38	0x3c7acb1f	0.015307217
39	0x3be3b153	0.006948629
40	0xbd223ed9	-0.039610717
41	0xbe67565d	-0.22591539
42	0xbcc07567	-0.023493482
43	0xbc83b2cc	-0.016076468
44	0x3b8b3bf8	0.004249092
45	0x3aaadb49	0.0013035323
46	0xbd00d9e4	-0.031457797
47	0xbc5c2659	-0.013436877
48	0xbb87a787	-0.004139844
49	0x3a8238bb	0.000993512
50	0x3b6f27db	0.0036492262
51	0xbc34c9db	-0.011034454
52	0xbae0b720	-0.0017144419
53	0xbb62fd30	-0.0034635775
