Plots old/naive models/results_FCNN_7L_150E/e_0.220.pt (torch, 214161 bytes, 37 tensors)

weight f4 [200, 54]
0	0xbe0f501c	-0.13995403
1	0xbe8c92a3	-0.27455625
2	0xbe858ca3	-0.2608386
3	0xbe900e4e	-0.28135914
4	0xbed3df4f	-0.41381308
5	0xbe1010d1	-0.14068915
6	0xbe27e3e4	-0.16395527
7	0xbe497649	-0.19674028
8	0x3d2b598e	0.041833453
9	0xbecac0c9	-0.39600208
10	0x3d5ec09d	0.05438291
11	0xbdfb94d6	-0.122842476
12	0x3eecb05c	0.46228302
13	0x3dc4f3f5	0.096168436
14	0xbe2f664e	-0.1712887
15	0xbe699e0b	-0.22814195
16	0xbe0103e3	-0.12599139
17	0xbe5b8b1c	-0.21439785
18	0xbe8894b1	-0.26675943
19	0xbeda54b4	-0.42642748
20	0xbe877cd7	-0.26462433
21	0xbeb9ccef	-0.36289164
22	0xbe3a6984	-0.18204314
23	0xbea2d71a	-0.31804734
24	0xbeb79622	-0.3585673
25	0xbdb45751	-0.08805717
26	0xbe34b51c	-0.17647213
27	0x3cd552f8	0.02604054
28	0xbd9fbc61	-0.07799602
29	0x3c8f58fe	0.01749849
30	0x3caba18e	0.020951059
31	0x3d7037e6	0.05864706
32	0xbe325d61	-0.17418434
33	0xbdf61113	-0.120149754
34	0x3c68d629	0.014211216
35	0xbc95c9e3	-0.018284744
36	0x3c4526c3	0.012033167
37	0xbe297f88	-0.16552556
38	0xbe14ec30	-0.14543223
39	0x3df74905	0.12074474
40	0x3dcafc22	0.09911372
41	0x3da7d4f9	0.08194918
42	0xbd2749e9	-0.04084197
43	0xbd38c49d	-0.04510938
44	0x3bad1183	0.0052816286
45	0x3ddb7987	0.10716539
46	0x3da3a932	0.07991256
47	0x3e565734	0.20931703
48	0x3b13c6d0	0.0022548921
49	0x3c6074e5	0.013699745
50	0x3b9d33b3	0.004797423
51	0xbcb9e301	-0.022691252
52	0xbdcac9b9	-0.09901757
53	0xbdeb1c44	-0.114800006
54	0x3d265093	0.040604185
55	0xbde4d59f	-0.111735575
56	0xbeb72322	-0.35768992
57	0xbdb68d9e	-0.0891373
58	0x3bda4af0	0.0066617653
59	0xbe07b11e	-0.13251159
60	0xbdd9023d	-0.1059613
61	0xbecf59cf	-0.40498206
62	0xbbfad404	-0.0076546688
63	0xbe409946	-0.18808469
64	0x3e89a7bd	0.26885787
65	0xbe39d0ff	-0.18146132
66	0x3efbf53a	0.4921053
67	0xbd666ff1	-0.0562591
68	0xbdbd90df	-0.092561476
69	0x3c43bf79	0.011947506
70	0xbd84812e	-0.064699516
71	0xbe832b92	-0.2561918
72	0xbedf888a	-0.4365886
73	0xbdccb9c0	-0.099963665
74	0x3e3ca25c	0.1842131
75	0xbc37873a	-0.011201674
76	0x3ce6b28c	0.02816131
77	0xbe428e0f	-0.18999504
78	0xbc1cda89	-0.009573587
79	0xbede4864	-0.43414605
80	0xbd95ddf5	-0.073177256
81	0x3c65e198	0.0140308365
82	0x3e322af7	0.17399202
83	0x3daf93da	0.08573122
84	0x3db74925	0.08949498
85	0x3ce29867	0.027660562
86	0xbc5ac246	-0.013351982
87	0x3dd593c6	0.10428576
88	0xbb1bc7c5	-0.0023770195
89	0x3d8db295	0.069188274
90	0x3e55246a	0.20814672
91	0xbda18374	-0.07886401
92	0x3d9fa29d	0.07794688
93	0x3aa07421	0.001224164
94	0xbc6c766e	-0.014432533
95	0xbcfb9159	-0.030708956
96	0xbe12f46b	-0.1435105
97	0xbd566e64	-0.05235137
98	0xbd6bff8d	-0.05761676
99	0xbdeeb693	-0.11655917
100	0xbdc8039c	-0.097663134
101	0x3cade55b	0.02122753
102	0xbd9b67be	-0.075881466
103	0x3db4a5e0	0.08820701
104	0xbddb5053	-0.1070868
105	0xbd23679e	-0.03989374
106	0xbde0192c	-0.10942301
107	0x3d370973	0.044686746
108	0x3e297439	0.16548242
109	0x3dd7d91e	0.10539459
110	0x3d3e33fc	0.046436295
111	0x3dfd64aa	0.12372716
112	0x3e2d161e	0.16902968
113	0xbd3168c2	-0.043312795
114	0xbe91d0b2	-0.28479534
115	0xbd844a77	-0.064595155
116	0xbb2cac0c	-0.0026347665
117	0x3e822101	0.25415805
118	0xbd2fa9af	-0.042886432
119	0xbe1380e9	-0.14404644
120	0xbe157712	-0.14596203
121	0xbc53d5de	-0.012929408
122	0xbd80b273	-0.062840365
123	0xbe041309	-0.12897886
124	0xbeaaa0a5	-0.33325687
125	0xbe87b95b	-0.26508602
126	0xbe829ee7	-0.25511858
127	0x3e16e305	0.14735039
128	0x3cf873d3	0.030328667
129	0x3e0c9d39	0.1373185
130	0x3ddba2c5	0.10724405
131	0x3d993673	0.074810885
132	0x3ea84e42	0.32872206
133	0xbe8ba9a8	-0.27277875
134	0xbe8aa55d	-0.27079287
135	0xbdeda9a9	-0.11604626
136	0xbe1ec9b2	-0.15506628
137	0xbdf71b9b	-0.12065812
138	0xbd7a98c3	-0.06118084
139	0x3c177d07	0.009246117
140	0xbd01f7c4	-0.03173043
141	0x3bfd59fb	0.007731674
142	0xbd575cb8	-0.052578658
143	0xbdbe7cdb	-0.09301158
144	0x3d57727a	0.052599408
145	0xbd5d9baa	-0.05410353
146	0xbc6e93d8	-0.014561616
147	0xbe7bbc98	-0.24583662
148	0xbe5d8272	-0.21631792
149	0xbdd00e2f	-0.10158955
150	0x3d80cbf7	0.06288903
151	0xbd5d53e8	-0.054035097
152	0xbe982e12	-0.2972265
153	0xbeae82b8	-0.34084105
154	0xbeab8e3c	-0.33506954
155	0xbdd413e3	-0.103553556
156	0xbdb55edf	-0.08855986
157	0xbe7fc377	-0.24976908
158	0xbe906204	-0.2819978
159	0xbe8a2a0c	-0.26985204
160	0xbe43da5e	-0.19126269
161	0xbdfd0cbb	-0.12355944
162	0x3d0a8501	0.03381825
163	0x3e00d6f2	0.12581995
164	0xbdd5f2f8	-0.10446733
165	0xbe08726b	-0.13324897
166	0x3e258d12	0.16167095
167	0x3e20c4bf	0.15700053
168	0xbdf0591f	-0.117357485
169	0xbe36fb69	-0.17869343
170	0xbe1bcc0c	-0.15214556
171	0x3d97f64e	0.07420026
172	0x3d476ada	0.048685886
173	0xbe1cf9c7	-0.15329657
174	0xbfb3d724	-1.4050031
175	0x3d8156b6	0.06315367
176	0x3c803d0f	0.015654115
177	0x3e4f9431	0.20271374
178	0xbd498b7e	-0.049205296
179	0xbe8584cc	-0.26077878
180	0xbd8ee49e	-0.06977199
181	0x3e0bb049	0.13641466
182	0xbd9912cf	-0.074742906
183	0x3e25ca3a	0.16190425
184	0x3e440f24	0.191464
185	0x3dab95fb	0.08378216
186	0x3e86eb5b	0.26351437
187	0xbe11067b	-0.14162628
188	0x3ddf6656	0.10908191
189	0xbdb20642	-0.086926
190	0xbdf7d45e	-0.12101053
191	0xbe101956	-0.14072165
192	0xbd92c4f0	-0.07166469
193	0xbd96e30f	-0.07367527
194	0xbe082b2a	-0.13297716
195	0xbdc3a279	-0.095524736
196	0xbd8dcb87	-0.069235854
197	0xbde5fe32	-0.112301245
198	0xbdde7172	-0.10861482
199	0xbdc5357b	-0.09629341
200	0xbe11b4fb	-0.14229195
201	0xbdd594bc	-0.104287595
202	0xbdc69c59	-0.0969779
203	0xbd76bb19	-0.060237024
204	0xbcfc23a4	-0.030778714
205	0xbe320cd4	-0.17387706
206	0xbe38b2b0	-0.18036914
207	0xbe0fd573	-0.14046268
208	0xbe19be85	-0.15014084
209	0xbe6822ec	-0.22669572
210	0xbe380f60	-0.17974615
211	0xbdebe67f	-0.11518573
212	0xbe078d44	-0.13237482
213	0xbe83b53d	-0.2572421
214	0xbe0f094c	-0.1396839
215	0xbd97bcae	-0.07409035
216	0xbebc9e35	-0.36839452
217	0xbe195e3f	-0.14977358
218	0x3ce08ab9	0.027409898
219	0xbe4909c3	-0.1963263
220	0xbe884a0e	-0.26619
221	0x3d4dc887	0.050240066
222	0x3d8f8e03	0.070095085
223	0x3e186ef2	0.14886072
224	0x3dd3ced7	0.10342186
225	0xbe71c571	-0.23610474
226	0xbe456dc4	-0.19280154
227	0xbe0ed5c8	-0.13948739
228	0xbd7523eb	-0.059848707
229	0x3e7c8c99	0.24663009
230	0xbd69f939	-0.057122443
231	0xbea4a711	-0.32158712
232	0xbca4eb96	-0.020131867
233	0x3ab207e8	0.0013582679
234	0xbe489f8e	-0.19592115
235	0xbe0093e4	-0.12556416
236	0xbee6a38d	-0.45046654
237	0xbea5afe0	-0.32360744
238	0xbe7440d4	-0.23852855
239	0xbf0ef81e	-0.55847347
240	0xbec3ce11	-0.38243154
241	0xbd0eafd3	-0.034835648
242	0xbd741511	-0.059590403
243	0x3d95db3e	0.07317208
244	0xbe21f87a	-0.15817443
245	0xbd6499f6	-0.05581089
246	0xbe094d9b	-0.1340851
247	0xbe12d1f9	-0.1433791
248	0xbe921ad5	-0.28536096
249	0xbe81da69	-0.25361946
250	0x3ce54063	0.027984804
251	0xbdf46e1f	-0.119350664
252	0xbdd97413	-0.106178425
253	0xbe28db06	-0.16489801
254	0xbe32b8e3	-0.17453341
255	0xbd33c637	-0.043890204

bias f4 [200]
0	0x3d0e792f	0.03478354
1	0x3c41ae6f	0.011821373
2	0xbd4061cd	-0.04696827
3	0xbc9cc5f4	-0.01913736
4	0x3d3d03b3	0.046146106
5	0x3be76df7	0.0070626694
6	0x3d7e2b7b	0.062053185
7	0xbd8835b8	-0.06650871
8	0xbd4c6414	-0.04990013
9	0x3d3e3ae3	0.046442878
10	0xbc6a4154	-0.014297802
11	0xbd2104b4	-0.039311126
12	0xbc1051e5	-0.008808588
13	0xbd02f844	-0.031975046
14	0xbce4431a	-0.027864028
15	0xbce50dbe	-0.027960654
16	0xbd50b3d1	-0.050952736
17	0x3d12cbec	0.035839006
18	0x3cb6d840	0.022319913
19	0x3d4e248c	0.050327823
20	0x3d1911fb	0.037370663
21	0xbd3965b5	-0.04526301
22	0x3c93f7ce	0.018062498
23	0x3d184e03	0.037183773
24	0xbc7d37b3	-0.015455174
25	0x3be088d5	0.006852249
26	0xbd71d56a	-0.059041418
27	0xbd60731a	-0.05479727
28	0x3cf62d2d	0.030050838
29	0xbc99d3c9	-0.018777745
30	0x3cd652c5	0.026162514
31	0xbbf79e33	-0.0075567006
32	0x3b96cef4	0.0046023075
33	0xbd9e5deb	-0.07732757
34	0x3d83ba59	0.06432027
35	0xbc8cef6c	-0.017204009
36	0x3cab8c89	0.020941036
37	0x3c2f7fe2	0.010711642
38	0xbc8194ab	-0.01581796
39	0x3cd17cd1	0.025572212
40	0x3d07451e	0.0330249
41	0xbd215289	-0.039385352
42	0x3cbfbf48	0.02340664
43	0x3ae31396	0.0017324563
44	0xbd46c830	-0.048530757
45	0xbcd151ae	-0.025551643
46	0xbc986122	-0.018601004
47	0x3ca7139e	0.020395096
48	0xbd12e6fa	-0.035864808
49	0x3d6aa36c	0.057284757
50	0x3d00437a	0.03131435
51	0xbd53e625	-0.051733155
52	0xbbe0b1c3	-0.0068571283
53	0x3bf65542	0.0075174877
54	0x3c9291cf	0.017891793
55	0x3b7ad3b0	0.0038273148
56	0xbd53e56f	-0.051732477
57	0x3d04774f	0.032340344
58	0x3cb5ea8c	0.022206567
59	0xbd2abacd	-0.041682053
60	0xbc46e083	-0.012138489
61	0x3cc8234c	0.024430893
62	0x3d1cc7a6	0.038276337
63	0x3cc82320	0.024430811
64	0xbce6d9b9	-0.02817999
65	0x3a909f0c	0.0011033728
66	0xbbb352da	-0.005472523
67	0x3c2ae0c6	0.010429567
68	0xbd1e9c65	-0.03872337
69	0xbba9b573	-0.005179101
70	0x3ce497a6	0.027904343
71	0xbd58b97c	-0.052911267
72	0xbd03a9c2	-0.032144316
73	0xbd59eac7	-0.053202417
74	0x3d5b1337	0.05348512
75	0x3d9a1b61	0.07524753
76	0xbc9c799c	-0.019100957
77	0x3d6757d4	0.056480244
78	0x3d445f5a	0.047942497
79	0x3d91760d	0.071025945
80	0x3d1ab117	0.037766542
81	0x3c0611a1	0.008182914
82	0x3ca691e8	0.020333245
83	0x3ca87a59	0.020566152
84	0xbc4ee52e	-0.012627883
85	0xbd072b6b	-0.03300039
86	0xbd691576	-0.056905232
87	0x3dd42537	0.10358661
88	0xbd933881	-0.07188512
89	0x3bd068d8	0.0063601546
90	0x3cf2f7c1	0.029659154
91	0xbc235f2c	-0.009971421
92	0xbc631077	-0.013858906
93	0x3c1b0b23	0.009463104
94	0x3cdd8b2d	0.027043903
95	0xbc3e5dad	-0.011619014
96	0x3cca8652	0.024722252
97	0xbd19bf36	-0.03753587
98	0xbcd7d615	-0.0263472
99	0xbcd5a5e9	-0.026080089
100	0xbbf34605	-0.0074241185
101	0x3cc04a60	0.023472965
102	0xbcd29c20	-0.025709212
103	0x3d7b10db	0.06129537
104	0x3c9023ec	0.017595254
105	0xbc11af9f	-0.008891969
106	0x3cbcaf59	0.023032831
107	0x3ca90c72	0.020635817
108	0x3c9a4792	0.018832956
109	0xbd579dba	-0.052640654
110	0xbcc8a55e	-0.024492916
111	0x3a570a7b	0.0008203161
112	0xbcf078ce	-0.02935448
113	0xbd2cac77	-0.042156663
114	0x3af07544	0.0018345495
115	0xbc9dc95d	-0.019261057
116	0x3bd7b9ab	0.0065834126
117	0xbb3596fe	-0.0027708407
118	0x3d76fa1d	0.06029712
119	0x3cb97c5e	0.02264231
120	0x3c8b5b69	0.017011361
121	0xbd0db92f	-0.034600433
122	0xbdbeb3c0	-0.09311628
123	0x3d8d4efb	0.0689983
124	0xbd29c056	-0.04144319
125	0xbd440118	-0.047852606
126	0x3d14ff1c	0.036376104
127	0xbd500464	-0.050785437
128	0xbb959013	-0.004564294
129	0xbd31c0b7	-0.043396678
130	0x3d01d922	0.031701215
131	0x3cbcad9a	0.023031998
132	0xbd4792cf	-0.048723992
133	0x3cb65f3d	0.02226221
134	0xbd225666	-0.039633177
135	0xbd8ea041	-0.0696416
136	0x3caef856	0.02135865
137	0x3c7c5a40	0.015402377
138	0xbd259d0e	-0.040432982
139	0xbd1ac1b2	-0.03778238
140	0x3d422cd7	0.047406044
141	0xbd63b76c	-0.055594847
142	0xbc990392	-0.01867846
143	0xbd250797	-0.04029044
144	0xbd22232a	-0.039584316
145	0xbba10c61	-0.0049148058
146	0x3bcc5c90	0.0062366202
147	0xbb998f1e	-0.0046862504
148	0x3d4b8946	0.04969146
149	0x3d5815bb	0.0527551
150	0xbd290167	-0.041261103
151	0xbd24820c	-0.040163085
152	0x3cee5a49	0.029095786
153	0x3c30e184	0.010795955
154	0x3c86eab9	0.016469346
155	0x3d353124	0.044236317
156	0x3cf1f748	0.029536858
157	0xbcf06908	-0.029346958
158	0x3cd0767c	0.025447123
159	0x3c86ba10	0.016446143
160	0xbd37c553	-0.044865917
161	0xbd03a678	-0.03214118
162	0x3cb7193f	0.022350905
163	0x3d0a7707	0.03380492
164	0xbcda4f1b	-0.026649049
165	0xbc9b55d0	-0.018961817
166	0xbd62b5af	-0.05534905
167	0xbc0f622f	-0.008751436
168	0xbd30916a	-0.043107428
169	0xbbaa26b1	-0.0051926007
170	0x3c92dc0f	0.017927198
171	0xbc63651a	-0.013879085
172	0xbd4f9f4b	-0.050689023
173	0x3ca1cd8e	0.019751336
174	0xbc99e2a6	-0.018784832
175	0x3abdda95	0.0014484698
176	0x3d55e355	0.052218754
177	0x3d1a0e24	0.03761114
178	0xbd00cc7e	-0.03144502
179	0xbd12c669	-0.03583375
180	0x3af38706	0.0018579669
181	0x3cc55dbb	0.024092546
182	0x3c1bcff7	0.009510032
183	0xbc8a053a	-0.016848195
184	0xbd8473c3	-0.06467392
185	0xbc89b664	-0.016810603
186	0xbbb4ff8f	-0.005523629
187	0xbc7c8fa9	-0.015415111
188	0x3cca1ee2	0.02467293
189	0x3cc180c0	0.023620963
190	0xbccc0a23	-0.024907177
191	0x3b19de21	0.0023478346
192	0xbd665c94	-0.056240633
193	0xbd19a3b9	-0.037509654
194	0x3d816242	0.06317569
195	0xbd372503	-0.04471303
196	0x3cfd0395	0.030885497
197	0x3ba52f64	0.00504105
198	0xbb74a006	-0.0037326827
199	0x3d461fbe	0.048370115

weight f4 [200]
0	0x3e96941e	0.2940988
1	0x3e531d7c	0.20616716
2	0x3ebf7329	0.37392548
3	0x3ec17105	0.3778154
4	0x3e4b77f3	0.19869976
5	0x3f347c32	0.70502007
6	0x3e1e17c6	0.15438756
7	0x3e8753e2	0.26431185
8	0x3e2ceb17	0.16886555
9	0x3f00b02f	0.50268835
10	0x3e8edd52	0.2790323
11	0x3e8f9a0c	0.28047216
12	0x3f033d29	0.512652
13	0x3ea4cbde	0.32186788
14	0x3d4d3fec	0.05010979
15	0x3e0b8fc9	0.13629068
16	0x3ec4bdd4	0.38426077
17	0x3eea783f	0.45794865
18	0x3eb462ef	0.3523173
19	0x3e8b69cc	0.27229154
20	0x3e4bf2ed	0.19916888
21	0x3e409a26	0.18808803
22	0x3e90a540	0.28251076
23	0x3e8c1a1e	0.27363676
24	0x3e291beb	0.16514556
25	0x3eb617cb	0.35565028
26	0x3eed1912	0.4630819
27	0x3d9ebd27	0.07750922
28	0x3e40aef2	0.18816736
29	0x3ea05adc	0.3131932
30	0x3f011d0b	0.5043494
31	0x3ec5d7c8	0.3864119
32	0x3e9a471e	0.30132383
33	0x3eda7a5f	0.42671487
34	0x3e3ee28a	0.18641105
35	0x3f9c53f0	1.2213116
36	0x3eb59743	0.35466966
37	0x3e9a4870	0.3013339
38	0x3ea44c90	0.32089663
39	0x3ee60784	0.4492761
40	0x3f049982	0.51796734
41	0x3ef2b1d7	0.47401306
42	0x3eaf1e45	0.3420278
43	0x3e6e1a16	0.23252138
44	0x3e382ba7	0.17985402
45	0x3e9141d9	0.2837055
46	0x3e9fd7c4	0.31219304
47	0x3f908fc0	1.1293869
48	0x3ea4975a	0.32146722
49	0x3ed3f738	0.4139955
50	0x3ea8c1a1	0.32960227
51	0x3e2fa49c	0.17152637
52	0x3ed0737c	0.40713108
53	0x3ea2d246	0.3180105
54	0x3de5e20a	0.11224754
55	0x3edf6777	0.43633625
56	0x3eb96341	0.36208537
57	0x3df820ee	0.12115656
58	0x3eae073b	0.3398989
59	0x3e2c357a	0.16817275
60	0x3e495fb5	0.19665416
61	0x3f053362	0.5203153
62	0x3f172547	0.59041256
63	0x3df827a4	0.12116936
64	0x3e2b6982	0.16739467
65	0x3edd9ac4	0.4328214
66	0x3df8355e	0.12119554
67	0x3eba7cf4	0.36423457
68	0x3eddc367	0.43313143
69	0x3e8ec1b4	0.2788216
70	0x3eb48117	0.35254738
71	0x3ee96a5d	0.4558896
72	0x3e2484f5	0.16066344
73	0x3e84492b	0.25837073
74	0x3e891585	0.2677423
75	0x3ed53daf	0.41648623
76	0x3eebd7b1	0.46062997
77	0x3c5b9160	0.013401359
78	0x3e633b25	0.2219053
79	0x3e8c27c8	0.273741
80	0x3ee8fa3b	0.4550341
81	0x3ea617d2	0.32440048
82	0x3e1907bb	0.14944355
83	0x3e877bf5	0.2646176
84	0x3ee0d07e	0.43909067
85	0x3e3407f9	0.17581166
86	0x3ea6e881	0.3259926
87	0x3f0ab7aa	0.541865
88	0x3ea87153	0.3289896
89	0x3e400b1d	0.1875424
90	0x3eca5546	0.39518183
91	0x3f2b5e8a	0.6694113
92	0x3e81e26b	0.25368056
93	0x3e66d422	0.2254186
94	0x3ee52ad9	0.44759253
95	0x3ea47618	0.32121348
96	0x3fab22e2	1.337002
97	0x3da42ebf	0.080167286
98	0x3e699b36	0.22813115
99	0x3f092bb0	0.53582287
100	0x3eca6dba	0.3953684
101	0x3e37a76c	0.1793496
102	0x3f05efe4	0.5231917
103	0x3e727a74	0.23679525
104	0x3e56f62d	0.20992346
105	0x3e58d8fc	0.21176523
106	0x3e7a4de5	0.24443777
107	0x3e9aa12d	0.30201092
108	0x3efade0d	0.48997536
109	0x3e4a33dc	0.19746345
110	0x3ea069a0	0.31330585
111	0x3eff252e	0.49833053
112	0x3dc371b2	0.0954317
113	0x3e770975	0.24124701
114	0x3e6dfd78	0.23241222
115	0x3ec5418d	0.38526574
116	0x3ef2fc2d	0.4745802
117	0x3e0fcece	0.14043733
118	0x3eb0bdba	0.3451975
119	0x3f1a226c	0.60208774
120	0x3e1a3320	0.15058565
121	0x3d603737	0.054740157
122	0x3edf06fa	0.4356001
123	0x3ee76f3c	0.45202053
124	0x3e393881	0.18087961
125	0x3e2ae882	0.16690257
126	0x3e029315	0.1275142
127	0x3de0ca09	0.10976035
128	0x3ef01016	0.46887273
129	0x3e3831b2	0.17987707
130	0x3dcf31b2	0.101169005
131	0x3ec853d4	0.39126456
132	0x3e9b9471	0.3038669
133	0x3e2a4372	0.16627291
134	0x3ecaa06a	0.3957551
135	0x3eaa24a3	0.33231077
136	0x3eb4158d	0.35172692
137	0x3dc737c5	0.09727434
138	0x3ecba5ba	0.39774877
139	0x3e9e4f7d	0.3092002
140	0x3eba3208	0.36366296
141	0x3e38df51	0.18053938
142	0x3d97d4bd	0.074136235
143	0x3ea11aed	0.31465855
144	0x3ecbb90f	0.39789626
145	0x3ebc39e0	0.36762905
146	0x3e7b80f3	0.24560909
147	0x3e3267d2	0.17422417
148	0x3eac04da	0.3359745
149	0x3e7b5b91	0.24546649
150	0x3e956d9a	0.29185182
151	0x3e96bda9	0.29441574
152	0x3e99e9dc	0.30061233
153	0x3cf038bb	0.029323926
154	0x3d83acdb	0.06429454
155	0x3f078fb3	0.5295364
156	0x3eb1d01a	0.3472908
157	0x3e6e8610	0.23293328
158	0x3ebe263a	0.3713854
159	0x3eb128a4	0.3460132
160	0x3ebea0b6	0.37231988
161	0x3eed29a4	0.46320832
162	0x3e890810	0.26763964
163	0x3e8108b5	0.25201955
164	0x3ee9af2e	0.45641464
165	0x3e554c25	0.20829828
166	0x3e49a6e3	0.19692568
167	0x3e7d945d	0.24763627
168	0x3ec16879	0.3777502
169	0x3ecdaac8	0.40169358
170	0x3e6433bb	0.22285359
171	0x3e5f6372	0.21815279
172	0x3e935773	0.28777656
173	0x3f1c2440	0.60992813
174	0x3e93bcd9	0.28855017
175	0x3e9b363c	0.30314815
176	0x3cfcd21f	0.030861912
177	0x3e950c77	0.29111072
178	0x3d908b9c	0.070578784
179	0x3d4d79cc	0.050164983
180	0x3d7886d9	0.060675476
181	0x3ed31d4c	0.4123329
182	0x3ef2d6be	0.4742946
183	0x3e83c38d	0.2573513
184	0x3ea6c325	0.32570758
185	0x3ee3809c	0.4443406
186	0x3ebcc19c	0.36866462
187	0x3e67b17d	0.226263
188	0x3ed6d1b5	0.4195687
189	0x3ea30f23	0.31847486
190	0x3f058f55	0.5217183
191	0x3eca7265	0.395404
192	0x3ec6d3d2	0.3883348
193	0x3eabf65b	0.33586392
194	0x3e9987c8	0.29986405
195	0x3eced5fb	0.4039763
196	0x3f0ea34d	0.5571793
197	0x3dce37f3	0.10069265
198	0x3e3aefac	0.1825549
199	0x3db136cc	0.0865303

bias f4 [200]
0	0xbe9386ad	-0.28813687
1	0xbe7c7101	-0.24652483
2	0xbefc9df6	-0.49339265
3	0xbed344a5	-0.4126331
4	0xbe4e1495	-0.20125039
5	0x3c54eab9	0.012995415
6	0xbe8d2765	-0.27569118
7	0xbe62a92c	-0.22134846
8	0xbea3f59e	-0.3202333
9	0x3d4f1c50	0.05056411
10	0xbe5c0f91	-0.21490313
11	0xbe7ba2fa	-0.2457389
12	0xbe80a885	-0.2512857
13	0x3e09f5f7	0.13472734
14	0xbe48ce11	-0.19609858
15	0xbe4a30ff	-0.19745253
16	0x3e00d63e	0.12581727
17	0xbea99457	-0.33120987
18	0xbeacd733	-0.33757934
19	0xbe7f4b1e	-0.24930999
20	0xbe466867	-0.19375764
21	0xbe614167	-0.21997605
22	0xbe21e6fc	-0.1581077
23	0xbe48a0a7	-0.19592534
24	0xbe907628	-0.28215146
25	0xbd80b2f2	-0.06284131
26	0x3dfe0f99	0.12405319
27	0xbe5ca537	-0.215474
28	0xbe1d47a1	-0.15359356
29	0xbdcc0a53	-0.09962907
30	0x3d8029bc	0.0625796
31	0xbdb368aa	-0.087601975
32	0xbe952598	-0.29130244
33	0xbde078b1	-0.1096052
34	0xbeb71559	-0.35758474
35	0xbe15785a	-0.14596692
36	0x3e2fe68d	0.17177792
37	0xbe9c0f96	-0.3048064
38	0xbe00971f	-0.12557648
39	0xbe2f9e95	-0.17150338
40	0x3cbe5435	0.023233512
41	0x3e07056f	0.13185667
42	0xbf0ea2bc	-0.5571706
43	0xbeb863c8	-0.36013627
44	0xbe824448	-0.2544272
45	0xbe74fcf1	-0.23924614
46	0xbe44e6c9	-0.19228663
47	0xbe8d2124	-0.27564347
48	0xbe965091	-0.29358342
49	0xbeba9bad	-0.36446896
50	0xbe1fe510	-0.15614724
51	0xbeb63b5d	-0.35592166
52	0xbe843b38	-0.2582643
53	0xbcfc151f	-0.03077179
54	0xbe8428af	-0.2581229
55	0x3cb04eaf	0.021521894
56	0x3d727a54	0.059198692
57	0xbe90ae53	-0.28258
58	0xbe461699	-0.19344558
59	0xbcae68a1	-0.021290125
60	0xbe8bad68	-0.27280736
61	0x3bc57028	0.006025333
62	0x3b4cfd39	0.0031278862
63	0xbe38e2c1	-0.1805525
64	0xbe800e3d	-0.25010863
65	0xbe644ad3	-0.22294168
66	0xbe6cd2ba	-0.23127261
67	0xbe4dc26d	-0.20093699
68	0xbeb20992	-0.34772927
69	0xbde702d8	-0.11279839
70	0xbde0a6de	-0.109693274
71	0xbe264542	-0.16237357
72	0x3b7071e0	0.0036688969
73	0xbe79997d	-0.24374957
74	0xbd175b0c	-0.036952063
75	0xbe3c5fde	-0.18395945
76	0x3be3e9c6	0.006955358
77	0xbd79cea0	-0.06098807
78	0xbe287e61	-0.1645446
79	0xbe733cc5	-0.2375365
80	0x3e26bc77	0.16282831
81	0x3e03b827	0.12863217
82	0xbe47d976	-0.19516549
83	0xbe63d46c	-0.22249001
84	0xbebd597a	-0.36982328
85	0xbe126828	-0.14297545
86	0x3b614bfb	0.0034377563
87	0xbdff275b	-0.12458678
88	0xbdb150ed	-0.086580135
89	0xbe76896e	-0.24075863
90	0xbd35f71b	-0.04442511
91	0xbe20280a	-0.15640274
92	0xbe990012	-0.29882866
93	0xbd179c4a	-0.037014283
94	0xbec1ca80	-0.37849808
95	0x3e16f29a	0.14740983
96	0x3dcf1960	0.10112262
97	0xbe1c8360	-0.1528449
98	0xbebed8c2	-0.37274748
99	0x3d6633f8	0.056201905
100	0x3d56db66	0.05245533
101	0xbd85593b	-0.0651116
102	0x3d3f98e6	0.046776675
103	0x3e314268	0.17310488
104	0xbe11eef0	-0.14251304
105	0xbe18b1d4	-0.14911586
106	0xbe079e61	-0.1324401
107	0xbe839bbc	-0.25704753
108	0x3e59a18c	0.21253031
109	0x3d846d0c	0.064661115
110	0xbee85b6e	-0.45382255
111	0xbde6380a	-0.11241157
112	0xbe43e32d	-0.1912963
113	0x3d53ac2c	0.051677868
114	0x3e20906f	0.15680097
115	0xbeb893a5	-0.36050144
116	0xbd7f614a	-0.06234864
117	0xbec86d5e	-0.3914594
118	0xbe472049	-0.1944591
119	0xbd488fb4	-0.04896517
120	0x3d14a785	0.03629257
121	0xbe4e7480	-0.20161629
122	0x3cfa7d96	0.030577462
123	0xbe12730e	-0.14301702
124	0x3c3b6f5f	0.011440127
125	0x3d57288d	0.052528907
126	0xbe9a0f90	-0.30089998
127	0xbe3f4ca4	-0.1868158
128	0xbd99ff18	-0.075193584
129	0xbe9e1e3a	-0.30882436
130	0xbec8968d	-0.3917736
131	0xbe59bb8e	-0.21262953
132	0xbea38d40	-0.31943703
133	0xbe0bb63e	-0.13643739
134	0xbe77c068	-0.24194491
135	0xbee2bea9	-0.44286087
136	0x3d74825b	0.05969463
137	0xbe431f32	-0.19054869
138	0xbe8529da	-0.26008493
139	0x3e07016d	0.13184138
140	0xbea3d14f	-0.31995627
141	0xbe21b107	-0.15790187
142	0xbe9b809f	-0.30371568
143	0xbeadbfe3	-0.3393546
144	0xbdd50180	-0.10400677
145	0xbdceb808	-0.10093695
146	0xbe373f8b	-0.17895333
147	0xbe9227a7	-0.28545877
148	0xbd7c58af	-0.061608013
149	0xbe8b1713	-0.27166042
150	0x3bcc58a5	0.006236153
151	0xbdebb8f1	-0.11509884
152	0xbe9b7429	-0.3036206
153	0xbe0841a4	-0.1330629
154	0xbe7ea6cd	-0.24868317
155	0xbe38e247	-0.18055068
156	0xbe875932	-0.26435238
157	0x3d743016	0.05961617
158	0x3e0128b2	0.1261318
159	0xbe89330d	-0.2679676
160	0xbe533952	-0.20627335
161	0xbdebdea3	-0.11517074
162	0xbcede4b4	-0.029039718
163	0x3e0fb9f9	0.14035787
164	0xbe206911	-0.1566508
165	0xbcae2a14	-0.021260299
166	0xbec1f75a	-0.37884027
167	0xbd93ed51	-0.07222999
168	0xbe3f6521	-0.18690921
169	0x3da20293	0.07910647
170	0xbe44f4d9	-0.19234027
171	0xbc65ba8f	-0.01402153
172	0xbd71a789	-0.058997665
173	0xbd197f3c	-0.037474856
174	0xbeba6d6c	-0.36411607
175	0xbe69c852	-0.22830322
176	0xbdf4efaf	-0.119597785
177	0xbe522c84	-0.20524794
178	0xbeb04363	-0.34426412
179	0xbe481169	-0.19537891
180	0xbe77bb9d	-0.24192663
181	0xbe8d4fac	-0.27599847
182	0xbed7eb6c	-0.421718
183	0xbeeac24a	-0.45851356
184	0xbe3081f6	-0.17237076
185	0x3e2ecf44	0.17071253
186	0xbe3661dc	-0.17810768
187	0xbe5a4810	-0.21316552
188	0xbd79d310	-0.0609923
189	0xbe09259a	-0.1339325
190	0xbe9b143c	-0.30288875
191	0x3d265fcc	0.040618703
192	0x3bd0a55f	0.00636737
193	0xbe70a890	-0.23501801
194	0xbe3f74bb	-0.18696873
195	0xbec968f4	-0.39337885
196	0xbe5a4b08	-0.21317685
197	0xbe3f51ec	-0.18683594
198	0xbe14216e	-0.14465877
199	0xbea8946c	-0.32925737

running_mean f4 [200]
0	0xbe220ab0	-0.1582439
1	0x3d1f01f8	0.038820237
2	0xbe5801f8	-0.21094501
3	0xbe5050c5	-0.20343311
4	0xbe9a5d8d	-0.301495
5	0xbc9e8110	-0.019348651
6	0x3deb6fa6	0.114959046
7	0x3d56d1bc	0.052446112
8	0xbe0515b5	-0.12996562
9	0xbdbae9e8	-0.09126645
10	0xbd1c3f81	-0.0381465
11	0xbde4fc1c	-0.111808985
12	0xbe9407c6	-0.2891218
13	0xbdacc3a2	-0.084357515
14	0x3e09cd17	0.13457142
15	0x3e9aab1c	0.3020867
16	0xbe07cffc	-0.13262933
17	0xbdb227af	-0.08698975
18	0xbdcfa192	-0.10138239
19	0x3eb11969	0.345897
20	0xbe403408	-0.18769848
21	0x3e712f50	0.23553205
22	0xbe201946	-0.15634641
23	0x3e010f58	0.1260351
24	0x3e3a3ed2	0.18188027
25	0xbca18a30	-0.019719213
26	0xbef23a82	-0.47310263
27	0xbea0d4bf	-0.31412312
28	0xbe625158	-0.22101343
29	0x3d9e2be8	0.07723218
30	0xbd3a46d2	-0.045477696
31	0x3e960a77	0.2930486
32	0x3e2d0b42	0.16898826
33	0x3dec2546	0.11530547
34	0x3bb8a340	0.0056346953
35	0x3dab7753	0.08372369
36	0x3df85514	0.12125602
37	0xbe8bd4cd	-0.27310792
38	0x3d0e2f51	0.034713093
39	0x3d248608	0.040166885
40	0xbe14f646	-0.14547071
41	0xbe09dcfd	-0.13463207
42	0xbe229aa4	-0.15879303
43	0xbe360168	-0.17773974
44	0x3cb311ac	0.021859013
45	0xbec8907c	-0.39172733
46	0x3e496f91	0.19671465
47	0x3dffd542	0.124918476
48	0xbe0f949e	-0.14021537
49	0xbe8e4547	-0.2778723
50	0x3e0bdd34	0.13658601
51	0xbe751647	-0.2393428
52	0x3e2a45b9	0.1662816
53	0xbe53473c	-0.20632643
54	0xbef322f4	-0.47487605
55	0xbdf4da91	-0.11955751
56	0xbde5439a	-0.111945346
57	0x3ebb5e63	0.3659545
58	0xbda0bf84	-0.07849029
59	0xbd1dc71e	-0.03851997
60	0xba6db400	-0.00090676546
61	0x3d4079fc	0.046991333
62	0xbd9ae8de	-0.07563947
63	0xbf31d5f4	-0.6946709
64	0x3d65d002	0.056106575
65	0x3df8866e	0.121350154
66	0xbebab3da	-0.3646534
67	0x3d11cea6	0.035597466
68	0xbe313dc5	-0.1730872
69	0xbf2da151	-0.67824274
70	0x3ddfab93	0.10921397
71	0xbdd48de4	-0.10378626
72	0xbd83e590	-0.0644027
73	0xbe9ba59d	-0.3039979
74	0xbeec1b7c	-0.4611472
75	0x3e2a2ce5	0.16618688
76	0xbf2e9e58	-0.68210363
77	0xbdd29d4e	-0.1028391
78	0x3edbb224	0.42909348
79	0xbd1f1106	-0.038834594
80	0x3dab203c	0.083557576
81	0xbed8ba18	-0.42329478
82	0xbd1abd0d	-0.03777795
83	0xbe566a4c	-0.20938987
84	0xbe19002c	-0.14941472
85	0x3dfd412e	0.12365948
86	0xbda25c87	-0.079278044
87	0xbe8918ff	-0.26776883
88	0xbea5dd51	-0.32395414
89	0x3e194114	0.14966232
90	0xbead0c04	-0.3379823
91	0xbdd08099	-0.10180778
92	0xbe780b77	-0.24223123
93	0xbe75036a	-0.23927084
94	0xbe83fbe6	-0.2577812
95	0xbd30cf56	-0.04316648
96	0xbc7f6bf8	-0.015589707
97	0xbe8ef39e	-0.2792024
98	0xbd49a3ba	-0.049228407
99	0xbe837bf8	-0.25680518
100	0xbe040c4f	-0.1289532
101	0xbc49b960	-0.012312263
102	0xbe5e2893	-0.21695165
103	0x3c635ee8	0.013877608
104	0xbea00a3d	-0.3125781
105	0xbd0a02b6	-0.03369399
106	0xbddc322e	-0.107517585
107	0xbeb1762c	-0.3466047
108	0x3e9126d8	0.28349948
109	0xbea72184	-0.32642758
110	0xbe679e8e	-0.22619078
111	0xbe1f5ee9	-0.15563549
112	0xbccc1aa8	-0.024915054
113	0xbe452f98	-0.19256437
114	0x3dd0b798	0.10191268
115	0xbe834cb5	-0.2564446
116	0xbe15f352	-0.146436
117	0xbdef1afc	-0.11675069
118	0xbd2b4b42	-0.04181982
119	0xbbf12970	-0.007359676
120	0xbd48c74b	-0.049018186
121	0xbe1fb681	-0.15596963
122	0xbcea4d04	-0.028601177
123	0x3eaa7a4b	0.33296427
124	0xbe750f20	-0.23931551
125	0xbeb71b8d	-0.35763207
126	0xbe928e14	-0.28624022
127	0xbe9288ee	-0.28620094
128	0xbe48208e	-0.19543669
129	0xbe11dea4	-0.14245087
130	0x3ed62e2a	0.41832095
131	0x3dab2a3b	0.08357664
132	0xbe2cd3f1	-0.16877724
133	0x3ec5fe08	0.38670373
134	0xbe1408f2	-0.14456537
135	0xbe3f31a1	-0.18671276
136	0xbee05522	-0.4381495
137	0xbe4cd1a2	-0.20001844
138	0xbe2d5680	-0.16927528
139	0x3bd579d0	0.0065147653
140	0xbdace052	-0.08441223
141	0x3e836950	0.25666285
142	0x3ebbc27b	0.36671814
143	0x3d1bddef	0.03805345
144	0x3edf6628	0.43632627
145	0xbd525480	-0.051350117
146	0x3e9a234d	0.30105057
147	0xbd08a74e	-0.03336268
148	0x3e9a948a	0.3019145
149	0xbd77ea20	-0.060526013
150	0xbe6ab72e	-0.2292144
151	0xbe3dbe3c	-0.185296
152	0xbe59087a	-0.2119464
153	0xbe415176	-0.18878731
154	0x3e72335e	0.23652408
155	0x3cbf06b0	0.023318619
156	0xbd84e76d	-0.064894535
157	0xbe534222	-0.20630696
158	0x3d23fdb4	0.040036872
159	0xbde646f7	-0.11244004
160	0x3e6bfc8c	0.23045558
161	0xbdbd41c2	-0.09241058
162	0xbea7b007	-0.32751486
163	0x3ca818fc	0.020519726
164	0x3db136ca	0.08653028
165	0xbdea9b89	-0.11455447
166	0xbe3ff630	-0.18746257
167	0xbe82c616	-0.25541753
168	0xbe8aab8a	-0.27084
169	0xbe5396af	-0.2066295
170	0xbea9d371	-0.3316913
171	0x3c06b6f0	0.008222327
172	0xbe873131	-0.26404718
173	0xbdf2d28b	-0.11856564
174	0xbe61d35d	-0.22053285
175	0xbe7b1300	-0.24518967
176	0x3e3bce5d	0.1834044
177	0x3c8dd994	0.017315663
178	0x3e2fadd9	0.17156161
179	0x3e7ead58	0.24870813
180	0x3d59e91a	0.05320082
181	0xbe55256d	-0.20815058
182	0x3d8f4c61	0.0699699
183	0xbd36c191	-0.044618193
184	0xbe57bc9c	-0.21068043
185	0x3ad9c240	0.0016613677
186	0xbd0b9220	-0.034074903
187	0x3d6114b6	0.054951392
188	0xbeb9272a	-0.36162692
189	0x3e8b79d0	0.27241373
190	0xbe26eb69	-0.1630074
191	0xbe2d2b2c	-0.16911
192	0xbede9f29	-0.43480805
193	0xbd423386	-0.047412418
194	0xbdc2fc80	-0.09520817
195	0xbe99f4d8	-0.30069613
196	0xbd2b2c88	-0.041790515
197	0xbdb3898c	-0.08766469
198	0xbe9b9baa	-0.303922
199	0xbe2d0acc	-0.1689865

running_var f4 [200]
0	0x41d21801	26.26172
1	0x40d8b056	6.7715254
2	0x412230f8	10.136955
3	0x40df8d29	6.9859815
4	0x41a43386	20.525158
5	0x41078bdd	8.471646
6	0x4167f26d	14.496686
7	0x418d72bd	17.681025
8	0x40a624b9	5.1919827
9	0x41473204	12.449711
10	0x40a03a0a	5.007085
11	0x41bd0c56	23.631023
12	0x41a1b439	20.213
13	0x4169c2eb	14.610087
14	0x4069f072	3.6553006
15	0x41bd69c6	23.676647
16	0x40bb67c6	5.8564177
17	0x40c1e056	6.0586348
18	0x40ed2e3b	7.4118934
19	0x40e73b1c	7.2259655
20	0x414a92d6	12.660849
21	0x418a367f	17.27661
22	0x4125a24f	10.352126
23	0x414fcd4e	12.987623
24	0x41ab0e57	21.382002
25	0x40f92d10	7.786751
26	0x4246dfd9	49.7186
27	0x40ff1208	7.970951
28	0x40838216	4.1096296
29	0x40c10f8c	6.033148
30	0x40a50ea8	5.158039
31	0x408424ae	4.1294775
32	0x4129aa58	10.604088
33	0x3fdeaec4	1.7397084
34	0x4129ed06	10.620367
35	0x41d14335	26.157816
36	0x417fe926	15.994421
37	0x41ed54a9	29.666338
38	0x403ef5a6	2.9837432
39	0x41283e43	10.515201
40	0x4190d06b	18.101767
41	0x405d489e	3.4575572
42	0x40b8216e	5.754081
43	0x4100e6d5	8.056355
44	0x41200c12	10.002947
45	0x40e23534	7.0689945
46	0x40fab07d	7.834044
47	0x420c405c	35.06285
48	0x4176dc3a	15.428766
49	0x415b1a3c	13.693905
50	0x4146839e	12.407133
51	0x40b6b08c	5.709051
52	0x4045c3da	3.0900788
53	0x413f7775	11.966664
54	0x4218a8c3	38.164806
55	0x40944f3d	4.6346726
56	0x4104ee20	8.308136
57	0x417deab5	15.8698015
58	0x414d51d3	12.832477
59	0x416a0604	14.626469
60	0x41346144	11.2737465
61	0x40f57189	7.6701093
62	0x413b5c82	11.710085
63	0x427375df	60.86511
64	0x406d3047	3.7060716
65	0x40491266	3.141748
66	0x40d83a5c	6.757124
67	0x414a7bfb	12.655269
68	0x40d81e69	6.753712
69	0x427a7967	62.618557
70	0x40832368	4.098072
71	0x407b7d46	3.929521
72	0x418f47ed	17.91012
73	0x42018932	32.38398
74	0x417c922d	15.785687
75	0x40fe32d0	7.9437027
76	0x428523b8	66.56976
77	0x4101c9d8	8.111778
78	0x415b0017	13.687522
79	0x40c19942	6.049958
80	0x414e6b91	12.901261
81	0x41a23d44	20.279915
82	0x4021f711	2.5307047
83	0x415995c8	13.599068
84	0x41153ef2	9.3278675
85	0x4105cc10	8.36232
86	0x4024c2fc	2.574401
87	0x41e95ad7	29.169355
88	0x41e9c7f0	29.222626
89	0x41678bfc	14.471676
90	0x40ded51c	6.9635143
91	0x413d01d4	11.812946
92	0x41e055bd	28.041864
93	0x40cc44eb	6.383413
94	0x4146ee68	12.433205
95	0x4142e4ce	12.1808605
96	0x41e3d34d	28.478174
97	0x4176686a	15.400492
98	0x40a8a87b	5.2705665
99	0x41ac4043	21.531378
100	0x413cd542	11.802065
101	0x4151514f	13.082351
102	0x4194f496	18.619427
103	0x410832a3	8.5123625
104	0x40d6a609	6.707768
105	0x4025f330	2.592968
106	0x41aa7cba	21.310902
107	0x41d80784	27.00367
108	0x41f09117	30.070845
109	0x414c2a4c	12.760326
110	0x410aa890	8.666153
111	0x41a50cfa	20.631336
112	0x4130f8f7	11.060782
113	0x41187552	9.528643
114	0x419bc54b	19.471334
115	0x41283e1b	10.515162
116	0x4086598f	4.1984324
117	0x40d4bd55	6.648112
118	0x41940d98	18.506638
119	0x40cbbeb8	6.367031
120	0x4130bd1a	11.046167
121	0x40a02f85	5.0058007
122	0x40c9ec22	6.310075
123	0x40745440	3.8176422
124	0x3fe2fc25	1.7733198
125	0x40b5bc59	5.6792417
126	0x418a8fdc	17.320244
127	0x414b90bf	12.722838
128	0x41a27b58	20.310226
129	0x411e3d9c	9.890041
130	0x41883dd3	17.030188
131	0x41940e45	18.506968
132	0x410ed6a0	8.927399
133	0x41c8fec7	25.124403
134	0x41b0998a	22.07497
135	0x40cd7d58	6.4215508
136	0x4185a8c3	16.707403
137	0x40b81879	5.7529874
138	0x41aea764	21.831734
139	0x41906ac2	18.052128
140	0x4097ba63	4.7415023
141	0x413477e0	11.279266
142	0x41350d79	11.315789
143	0x4142af3a	12.16778
144	0x41d01bce	26.013577
145	0x4156889d	13.408353
146	0x41095ab2	8.584642
147	0x4091ee47	4.5603366
148	0x410e22ba	8.883478
149	0x41bc68bf	23.551146
150	0x40be027f	5.9378047
151	0x401a2c59	2.4089568
152	0x4145d17a	12.363642
153	0x417acbd7	15.674766
154	0x417b957a	15.723993
155	0x4107c2c2	8.485048
156	0x41619f32	14.101366
157	0x4112d13b	9.176082
158	0x41855860	16.668152
159	0x40fae1f8	7.840084
160	0x411da129	9.851846
161	0x4107ca34	8.486866
162	0x41215510	10.083267
163	0x41a2d033	20.35166
164	0x40393346	2.8937545
165	0x410f699a	8.963282
166	0x409124b2	4.5357294
167	0x40d3819d	6.609572
168	0x41ad2dc1	21.64734
169	0x4100afff	8.042968
170	0x412dc7d5	10.861287
171	0x413af010	11.683609
172	0x4058f838	3.39015
173	0x417d3cdf	15.827361
174	0x40b7b25d	5.740523
175	0x4110f7a0	9.060455
176	0x41221d21	10.132112
177	0x41925eb9	18.296251
178	0x41b31ced	22.389124
179	0x4158a0d7	13.539268
180	0x412acc4d	10.674878
181	0x41564ca7	13.393714
182	0x41b49c3d	22.576288
183	0x40e30b87	7.095157
184	0x41dd7f71	27.687227
185	0x41944bb8	18.536972
186	0x402ef60a	2.733767
187	0x408215e6	4.065173
188	0x4201c78a	32.444862
189	0x402f3803	2.7377937
190	0x4144b2e9	12.293679
191	0x41677562	14.466158
192	0x41c7e5fb	24.987295
193	0x41a17799	20.183397
194	0x40a09f9f	5.019485
195	0x412be50f	10.7434225
196	0x41436d2b	12.214152
197	0x403d1b14	2.9547777
198	0x40c1deed	6.0584626
199	0x41935b22	18.419498

weight f4 [128, 200]
0	0xbe558e34	-0.20855027
1	0xbdaf9a15	-0.08574311
2	0x3de7413b	0.112917386
3	0x3e61511c	0.22003597
4	0xbe4e2023	-0.20129447
5	0xbeb849fd	-0.3599395
6	0x3e00f24a	0.12592426
7	0xbca27447	-0.019830836
8	0xbda93e31	-0.08263815
9	0xbe161892	-0.1465781
10	0x3d926404	0.07147983
11	0xbebd30f9	-0.36951426
12	0x3e9838f6	0.29730958
13	0x3d9a538a	0.07535465
14	0xbd171a06	-0.036890052
15	0xbd3046c3	-0.043036234
16	0xbe832879	-0.25616816
17	0x3e02d86d	0.12777872
18	0x3c7db711	0.015485541
19	0x3e414753	0.18874864
20	0x3dc113e5	0.09427623
21	0xbdbad9d3	-0.09123578
22	0xbeb27150	-0.34852076
23	0xbcac3ef7	-0.021026118
24	0x3e3bce1c	0.18340343
25	0xbedfc281	-0.43703082
26	0x3f1ca447	0.6118817
27	0x3dddfc1e	0.10839103
28	0xbc0a9e86	-0.0084606465
29	0xbeb46489	-0.35232952
30	0xbd19eaca	-0.037577428
31	0x3d41c8bf	0.047310587
32	0xbe1e0ac0	-0.15433788
33	0x3d9542bd	0.0728812
34	0x3d338cf9	0.043835614
35	0x3f9909a0	1.1956062
36	0x3c636d71	0.013881073
37	0xbe12fe30	-0.14354777
38	0x3e48cad6	0.19608626
39	0xbe69ccee	-0.2283208
40	0xbea0ed4b	-0.3143104
41	0xbbef13fd	-0.007296084
42	0x3e0cf7bc	0.13766378
43	0x3c94bf9e	0.018157776
44	0x3c9e255a	0.01930492
45	0xbb121e11	-0.0022295753
46	0x3dc7a2ba	0.097478345
47	0x3fba4b0d	1.4554154
48	0xbedefe78	-0.4355352
49	0x3d6393de	0.05556094
50	0xbeaaaee3	-0.33336553
51	0x3d9469b4	0.07246724
52	0xbdd48ff7	-0.103790216
53	0x3d02199d	0.031762708
54	0x3e8e19fb	0.27754197
55	0x3d11c670	0.035589635
56	0xbcb355ac	-0.021891437
57	0xbd1a1545	-0.03761794
58	0x3dc198c8	0.09452969
59	0xbe0a9931	-0.13535
60	0x3e6e9957	0.23300682
61	0x3da9bf12	0.08288397
62	0xbef877f1	-0.48529008
63	0xbdfd7fd7	-0.12377899
64	0x3e239173	0.15973453
65	0xbd74940b	-0.059711497
66	0xbce1ba08	-0.027554527
67	0xbf10d7c0	-0.5657921
68	0x3da8fd80	0.08251476
69	0x3dc4b2aa	0.0960439
70	0xbe81d98f	-0.25361297
71	0x3e4c2a21	0.19937946
72	0x3db8235d	0.0899112
73	0xbeb6f8ef	-0.35736796
74	0x3e32fa7b	0.17478363
75	0xbca99dde	-0.02070516
76	0x3e358b4d	0.1772892
77	0xbc3f10a1	-0.0116616795
78	0xbc64c115	-0.01396205
79	0xbd59a71f	-0.053137895
80	0x3dddadae	0.108241424
81	0x3e89509e	0.2681932
82	0x3dea9fa1	0.11456228
83	0xbe554e91	-0.20830752
84	0x3ce90bbe	0.028447982
85	0x3e2a4ec8	0.16631615
86	0xbdec6b46	-0.11543898
87	0x3d102995	0.035195906
88	0xbebcdd4d	-0.3688759
89	0x3d64e408	0.05588153
90	0x3e3da31c	0.18519253
91	0x3d79e9be	0.06101393
92	0xbe0d3807	-0.13790904
93	0xbe1db4c3	-0.15400986
94	0x3d25d721	0.040488366
95	0x3ca065b9	0.019579755
96	0xbe4bb972	-0.1989496
97	0xbc641c5b	-0.013922776
98	0x3cfc7b0a	0.030820388
99	0xbea0a4ae	-0.3137564
100	0xbe2e5ba6	-0.17027149
101	0x3e1ec773	0.15505771
102	0xbe2a77f5	-0.16647322
103	0x3e08aaa3	0.13346343
104	0xbc80248a	-0.015642423
105	0x3d7d6ba7	0.061870243
106	0xbe2bf467	-0.16792451
107	0xbe840cea	-0.25791103
108	0x3d08332c	0.033251926
109	0xbe077256	-0.1322721
110	0x3e2c0a47	0.16800795
111	0xbf1080c6	-0.5644649
112	0xbdb7cedb	-0.089750014
113	0x3dcb770e	0.09934817
114	0x3ca47904	0.020077236
115	0x3d0a2f77	0.033736672
116	0x3e3026de	0.17202327
117	0xbcd38734	-0.025821306
118	0xbed66db4	-0.41880572
119	0x3ca7967b	0.020457497
120	0xbe0f0006	-0.13964853
121	0x3dedc79f	0.1161034
122	0xbdee0cd8	-0.116235435
123	0xbcc6d5e9	-0.024271922
124	0xbdb90258	-0.0903365
125	0x3df62f3f	0.1202073
126	0x3d0d3e2d	0.034483124
127	0xbd0e6e34	-0.034773067
128	0xbee2df3a	-0.44310933
129	0x3d51f2e4	0.05125703
130	0xbdb243cf	-0.0870434
131	0xbee4bcf1	-0.446754
132	0x3e02733f	0.12739275
133	0x3d168cea	0.03675548
134	0xbf05cd6d	-0.5226658
135	0x3db6f93d	0.08934257
136	0x3e9962ff	0.2995834
137	0xbddd43ee	-0.10803972
138	0xbf2589a4	-0.6466315
139	0xbd405893	-0.04695947
140	0x3c4f20e5	0.01264212
141	0x3d551410	0.052021086
142	0xbdf768a6	-0.12080507
143	0xbf0c5b86	-0.54827154
144	0x3db431ce	0.08798562
145	0xbe493522	-0.19649175
146	0x3d082420	0.033237576
147	0xbea2ffee	-0.31835884
148	0xbe1887fb	-0.14895622
149	0xbee8410e	-0.45362133
150	0xbcb18fad	-0.021674955
151	0xbc970be6	-0.01843829
152	0x3ca20cc5	0.01978148
153	0x3ecaabab	0.39584097
154	0xbce76c13	-0.028249776
155	0x3e02207a	0.12707701
156	0xbe5ba896	-0.21451029
157	0xbd5818be	-0.05275797
158	0xbe228ad0	-0.15873265
159	0x3e00d6c7	0.12581931
160	0xbe096f72	-0.1342142
161	0x3dd28985	0.10280136
162	0x3dbee522	0.09321047
163	0x3c2b8f74	0.010471214
164	0x3d2e3290	0.04252869
165	0xbda9d4de	-0.08292554
166	0xbd0d436d	-0.03448813
167	0xbc533a1b	-0.012892271
168	0xbe9535d5	-0.29142633
169	0x3cfd4651	0.030917319
170	0xbcf4e699	-0.029895114
171	0xbd37f8e2	-0.044915088
172	0xbd3d14c9	-0.0461624
173	0x3daeb45d	0.08530495
174	0x3c8279ff	0.015927313
175	0xbe62c061	-0.22143699
176	0x3dfda933	0.12385788
177	0xbe9d9747	-0.30779478
178	0x3dbef77c	0.09324548
179	0xbca57717	-0.020198388
180	0x3ceda996	0.029011529
181	0x3dcfa36a	0.10138591
182	0x3eeb6bee	0.4598078
183	0x3e065489	0.13118185
184	0xbec3d507	-0.38248464
185	0x3d722778	0.05911967
186	0x3dfa5b78	0.122244775
187	0xbd8eb538	-0.069681585
188	0x3eb3df4f	0.35131308
189	0x3e8033f4	0.25039637
190	0x3dd247a3	0.1026757
191	0xbe4a9906	-0.19784936
192	0xbd15058e	-0.03638225
193	0xbef33418	-0.47500682
194	0xbde64019	-0.112426944
195	0x3de58821	0.11207605
196	0xbf4868a5	-0.78284675
197	0x3cd21521	0.02564484
198	0x3d4c9f89	0.049956832
199	0xbd0d1186	-0.03444054
200	0xbe570d82	-0.21001247
201	0xbe66d46a	-0.22541967
202	0x3d8cc680	0.06873798
203	0xbda754f4	-0.081705004
204	0xbe277f7f	-0.1635723
205	0xbe8b6772	-0.2722736
206	0xbdb04787	-0.08607393
207	0xbdef9e9c	-0.11700174
208	0x3de9abec	0.114097446
209	0x3d10e381	0.035373215
210	0xbe4fdfa0	-0.2030015
211	0xbe0a141d	-0.13484235
212	0xbcb419dd	-0.021984989
213	0xbdc206d9	-0.09473962
214	0x3e02e7e7	0.12783776
215	0x3e5e8ad7	0.2173265
216	0xbcd9a0b0	-0.02656588
217	0xbe72b567	-0.23702012
218	0xbdaef73b	-0.08543249
219	0xbd2a0560	-0.041509032
220	0xbb108280	-0.002205044
221	0x3e9179d9	0.28413275
222	0x3e1f3f5f	0.15551518
223	0xbe681dad	-0.2266757
224	0x3d84bfa4	0.06481865
225	0xbe6e5a19	-0.23276557
226	0xbd418d42	-0.047253855
227	0x3d4dbf75	0.050231416
228	0xbdda74ca	-0.10666807
229	0x3e48313e	0.19550034
230	0xbd8a6c78	-0.0675897
231	0xbe77d2ad	-0.2420146
232	0xbe282299	-0.16419448
233	0xbeddb607	-0.43302938
234	0x3dc1fadb	0.09471675
235	0xbe378475	-0.17921622
236	0xbe309faf	-0.17248414
237	0xbe9050c0	-0.28186607
238	0xbe7c1a12	-0.2461932
239	0xbe7d9420	-0.24763536
240	0x3dfcf13f	0.123507015
241	0x3e2ffdee	0.1718671
242	0x3d826043	0.06366017
243	0x3dc7a649	0.09748513
244	0x3e1cdd0e	0.153187
245	0x3c63a511	0.013894335
246	0xbda94fea	-0.082671955
247	0xbd8d812a	-0.06909402
248	0xbd9e772f	-0.07737576
249	0xbc546326	-0.012963092
250	0xbcbfa010	-0.023391753
251	0xbca1005b	-0.01965349
252	0xbea89357	-0.3292491
253	0xbe054b2e	-0.1301696
254	0x39f5ebce	0.0004690573
255	0x3df399c5	0.118945636

bias f4 [128]
0	0x3cb93c04	0.022611625
1	0xbd02a472	-0.03189511
2	0xbc9d356b	-0.01919051
3	0x3ccc4210	0.024933845
4	0x3cb4e8b2	0.022083614
5	0xbd2dd548	-0.04243973
6	0x3d8f82ac	0.070073456
7	0x3c4e2216	0.012581369
8	0xbcb35088	-0.021888986
9	0x3cd415b9	0.025889264
10	0x3cf4b3a8	0.029870823
11	0x3cd6570b	0.026164552
12	0xbcd49f57	-0.025954885
13	0xbc772555	-0.015084584
14	0xbc34b687	-0.011029846
15	0xbb884f0b	-0.0041598133
16	0xbce5815b	-0.028015783
17	0xbb90482f	-0.004403136
18	0x3ce983e7	0.028505279
19	0x3a3e34a9	0.0007255772
20	0xbb98da52	-0.0046646977
21	0x3c67a7d3	0.0141391335
22	0xbc54c60b	-0.01298667
23	0xbc5556e5	-0.013021206
24	0xbd060d00	-0.03272724
25	0xbc9dd138	-0.019264802
26	0xbd40ac91	-0.047039572
27	0xbc8f4f1a	-0.017493773
28	0xbd25bb17	-0.040461626
29	0x3c744a19	0.014910244
30	0x3c9540bc	0.018219344
31	0xbd215184	-0.03938438
32	0xbc1530ee	-0.009105904
33	0x39871374	0.000257637
34	0x39ae03ce	0.000331907
35	0xbcd854c1	-0.026407601
36	0x3d19b359	0.037524555
37	0xbc6331d6	-0.013866862
38	0x3cdbb07e	0.026817556
39	0xba063332	-0.0005119323
40	0x3c492113	0.012275952
41	0xbbddd9f4	-0.006770367
42	0xbd426553	-0.04745991
43	0xbc079c8c	-0.00827707
44	0xbd15e36e	-0.036593847
45	0x3d1b654f	0.037938412
46	0x3c98a513	0.018633401
47	0xb956f896	-0.00020501236
48	0xbc18d944	-0.009329144
49	0xbdab5afc	-0.08366963
50	0x3c2989f0	0.010347828
51	0xbb45cdc9	-0.0030182472
52	0x386bf4be	5.62563e-05
53	0xbb05597a	-0.0020347522
54	0x3cb1eeaa	0.02172025
55	0xbcf5a3b5	-0.029985288
56	0x3b7232e9	0.0036956614
57	0x3d0a1164	0.03370799
58	0x3ba86039	0.0051384238
59	0x3afddcdc	0.0019368189
60	0x3c7cd503	0.015431645
61	0x3d683562	0.056691535
62	0xbc7ceae2	-0.01543686
63	0xbbf0bc35	-0.007346655
64	0x3c3cc9ac	0.011522692
65	0xbc8009f6	-0.01562975
66	0x3c058290	0.008148804
67	0xbca1dd7c	-0.019758932
68	0x3d440745	0.047858495
69	0xbd004511	-0.031315867
70	0xbd18b417	-0.037281122
71	0x3995ebc5	0.00028595157
72	0x3cd16f60	0.025565803
73	0x3ca9a8d2	0.020710383
74	0xbd2e60db	-0.042572837
75	0x3d0cc87c	0.034370884
76	0x3be8c9d6	0.007104139
77	0x3cee323c	0.029076688
78	0x3ceb5edc	0.028731756
79	0xbcc3f182	-0.02391887
80	0x3c82fff9	0.015991198
81	0x39212689	0.00015368512
82	0x3d381527	0.044942047
83	0x3a4480ce	0.0007496
84	0x3c9dc356	0.019258182
85	0x3c48038a	0.012207875
86	0xba0f2c15	-0.0005461586
87	0x3c3aa1e2	0.011391135
88	0x3972ffd1	0.00023174217
89	0x3c5a9535	0.013341238
90	0xbc190f48	-0.009342022
91	0xbc93b26f	-0.01802942
92	0x3c6ee75e	0.014581529
93	0xbc1370bf	-0.008999049
94	0x3a8fc564	0.0010968861
95	0xbd07085c	-0.032966956
96	0xbd47ff17	-0.048827257
97	0x3ca066d4	0.019580282
98	0xbd100afc	-0.035166726
99	0xbc60f2d9	-0.013729774
100	0x3c7b91de	0.015354602
101	0x3cae0b3d	0.021245593
102	0xbc9554f7	-0.018228991
103	0x3ccb2e1b	0.024802258
104	0xb99e14b4	-0.00030151533
105	0xbc89ed20	-0.016836703
106	0xbd389261	-0.045061473
107	0xbce87a0f	-0.028378515
108	0xbced8b32	-0.028997038
109	0xbc341063	-0.010990235
110	0xbd0f69fc	-0.035013184
111	0x3c82521c	0.015908293
112	0xbbe057dd	-0.0068464116
113	0x3c320d06	0.010867363
114	0x3d0edbb3	0.03487749
115	0x3bf9a264	0.0076182354
116	0xbc832310	-0.01600793
117	0x3bd1700c	0.006391531
118	0xbcca2022	-0.024673525
119	0x3d80c3cd	0.06287346
120	0x3b471cf5	0.003038225
121	0x387e2773	6.059506e-05
122	0xbc1b2739	-0.009469801
123	0xbafa53b8	-0.0019098436
124	0x3b1d1187	0.0023966746
125	0xbc34f7a0	-0.0110453665
126	0x3c392562	0.011300417
127	0x3c9df140	0.019280076

weight f4 [128]
0	0x3e84e354	0.25954688
1	0x3e9d76ff	0.3075485
2	0x3d63a240	0.055574656
3	0x3ee472bf	0.44618794
4	0x3ea43098	0.32068324
5	0x3e4716e6	0.19442329
6	0x3e8da51f	0.2766504
7	0x3e25902a	0.16168275
8	0x3e95deaf	0.29271457
9	0x3eae2814	0.34014952
10	0x3e5d933c	0.21638197
11	0x3ecf9127	0.4054043
12	0x3e52b592	0.20577076
13	0x3e451249	0.19245256
14	0x3e4d5ba8	0.20054495
15	0x3ec7c02e	0.3901381
16	0x3e3cba45	0.18430431
17	0x3e2b6d8e	0.1674101
18	0x3deb5165	0.11490134
19	0x3de1801e	0.110107645
20	0x3e3d2d0b	0.18474214
21	0x3e05dde5	0.13072927
22	0x3ebc487c	0.3677405
23	0x3eaece90	0.3414197
24	0x3e5b7796	0.21432337
25	0x3e70f241	0.23529913
26	0x3eac28d0	0.33624887
27	0x3e7be38c	0.24598521
28	0x3ed49fc2	0.41528136
29	0x3e5f7e4d	0.21825524
30	0x3e920d8a	0.28525954
31	0x3f3cebc3	0.73797244
32	0x3e6389b2	0.22220495
33	0x3ea94232	0.33058316
34	0x3e9b0a0e	0.3028111
35	0x3e3e6385	0.18592651
36	0x3ef7e890	0.4841962
37	0x3e2595d7	0.1617044
38	0x3e8f9d3a	0.28049642
39	0x3db70974	0.0893735
40	0x3e380b8a	0.17973152
41	0x3d44e6f9	0.048071835
42	0x3e8ca2a5	0.27467838
43	0x3e497e3e	0.19677064
44	0x3ddb8519	0.10718746
45	0x3ef43dd8	0.47703433
46	0x3eb09430	0.34488058
47	0x3e93515a	0.28773004
48	0x3eb5cba6	0.35506934
49	0x3e886584	0.2663995
50	0x3f0e131b	0.554979
51	0x3c50e695	0.012750288
52	0x3e1fdb1d	0.15610929
53	0x3ea41ac4	0.3205167
54	0x3ec447d7	0.3833606
55	0x3e0db340	0.1383791
56	0x3ea799ab	0.32734427
57	0x3cc1b1fa	0.023644436
58	0x3eb59f09	0.35472897
59	0x3e27d476	0.16389641
60	0x3e1e821a	0.15479317
61	0x3eb92b79	0.3616598
62	0x3ec257a9	0.37957504
63	0x3cce113e	0.025154706
64	0x3dbb93b1	0.09159029
65	0x3ec1bd73	0.3783985
66	0x3e8e9ee0	0.27855587
67	0x3d87d9c6	0.06633334
68	0x3e9067fe	0.2820434
69	0x3e0104ce	0.12599489
70	0x3f2652d7	0.64970154
71	0x3e071001	0.13189699
72	0x3d377609	0.0447903
73	0x3e5a2f7d	0.21307178
74	0x3e67fd8d	0.22655316
75	0x3e9f0111	0.310555
76	0x3ed58838	0.4170549
77	0x3e9031b2	0.28162915
78	0x3e94d6f6	0.29070252
79	0x3f00221f	0.50052065
80	0x3e7cfc01	0.24705507
81	0x3e27e1cb	0.16394727
82	0x3e8ed22d	0.27894726
83	0x3e079efd	0.13244243
84	0x3e04a9ca	0.12955394
85	0x3df750c7	0.12075954
86	0x3e93422d	0.28761426
87	0x3be6b38c	0.0070404466
88	0x3f01e1ef	0.5073537
89	0x3edabdef	0.42723033
90	0x3e349802	0.17636111
91	0x3ea80e1c	0.32823265
92	0x3e8a3a2c	0.26997507
93	0x3d7e91eb	0.062150877
94	0x3e92bec4	0.28661168
95	0x3e1e19f6	0.15439591
96	0x3e3f324e	0.18671533
97	0x3e9e686d	0.30939046
98	0x3e882e3e	0.2659778
99	0x3e843cf8	0.25827765
100	0x3e08df1c	0.1336636
101	0x3ecf89c1	0.40534785
102	0x3ec161ee	0.37770027
103	0x3e9cc8d9	0.30621985
104	0x3e536cac	0.20646924
105	0x3e268308	0.16260922
106	0x3cb0530d	0.021523977
107	0x3e84c868	0.25934148
108	0x3cd5ca7f	0.026097534
109	0x3e1eb8bd	0.1550016
110	0x3d09bf56	0.033629738
111	0x3e89867f	0.26860425
112	0x3e2fb536	0.1715897
113	0x3e9934c6	0.29923075
114	0x3dadd8be	0.08488606
115	0x3e7f6157	0.24939476
116	0x3ec6fd38	0.38865066
117	0x3e7a7985	0.24460419
118	0x3ee12487	0.4397318
119	0x3ef79ef3	0.48363456
120	0x3cb295d6	0.021799963
121	0x3ddb0322	0.10693957
122	0x3eb050fa	0.3443678
123	0x3ee64f46	0.44982356
124	0x3eb8cb87	0.3609278
125	0x3eb107f7	0.3457639
126	0x3f1beff1	0.60912997
127	0x3f1c9701	0.61167914

bias f4 [128]
0	0xbefe70b7	-0.4969537
1	0xbdf30656	-0.11866443
2	0xbe68c357	-0.22730766
3	0xbe04470c	-0.12917727
4	0xbe0058f4	-0.12533933
5	0xbd8f0ca0	-0.0698483
6	0xbed59666	-0.41716307
7	0xbed504e1	-0.41605285
8	0xbe48e52e	-0.19618675
9	0xbdb43fff	-0.08801269
10	0xbe9becce	-0.30454105
11	0xbcb3d260	-0.0219509
12	0xbe46576a	-0.19369283
13	0xbe53ff5c	-0.2070288
14	0xbdcd8a50	-0.10036147
15	0xbe7fbc19	-0.24974097
16	0xbe0f9ea2	-0.14025357
17	0xbf1a14de	-0.6018809
18	0xbeae0f53	-0.33996066
19	0xbe8512ea	-0.25990993
20	0x3e2719c7	0.16318427
21	0x3d04be00	0.03240776
22	0xbecfc1cd	-0.40577546
23	0xbe5bd6ea	-0.21468702
24	0xbec0f8e7	-0.37689897
25	0xbe9c567d	-0.30534735
26	0xbee4befb	-0.44676957
27	0xbf073d19	-0.528276
28	0x3e30fa77	0.17283045
29	0xbec47c79	-0.38376215
30	0xbe94e6f0	-0.2908244
31	0x3dfe05a9	0.12403423
32	0xbe9ae7dd	-0.30255023
33	0xbe122f1a	-0.1427578
34	0xbe59cb6f	-0.2126901
35	0xbe7f2976	-0.2491816
36	0x3e402417	0.18763767
37	0xbee288c7	-0.44244978
38	0xbe47507d	-0.19464298
39	0xbe91e5ad	-0.2849554
40	0x3e1bf367	0.1522957
41	0xbe2149e5	-0.15750845
42	0xbe594517	-0.21217762
43	0xbd513684	-0.05107738
44	0xbebcf2db	-0.36904034
45	0xbc8a537d	-0.016885513
46	0xbc654bdd	-0.013995138
47	0xbdb0ea7d	-0.08638475
48	0xbe5d8522	-0.21632817
49	0xbeeee7c3	-0.46661195
50	0xbe629c73	-0.22129993
51	0xbd85332e	-0.065039024
52	0xbe78f262	-0.24311212
53	0xbef996c1	-0.4874783
54	0xbec538ef	-0.3852
55	0xbef4f2a7	-0.4784138
56	0xbca3f480	-0.020014048
57	0xbda72a67	-0.081623845
58	0xbdae6227	-0.08514815
59	0x3e2d3d21	0.1691785
60	0xbe7e4e2d	-0.24834509
61	0xbe4614f9	-0.19343938
62	0xbe478130	-0.19482875
63	0xbdb203ce	-0.08692132
64	0xbb5fe864	-0.0034165615
65	0xbd7ebdfd	-0.062192906
66	0xbe43182a	-0.19052187
67	0xbe83f694	-0.25774062
68	0xbeb1b81a	-0.3471077
69	0xbdf49819	-0.11943073
70	0x3da8e6b4	0.08247128
71	0x3d471a89	0.04860929
72	0xbe4c1bbe	-0.19932458
73	0xbe1a7bf7	-0.15086351
74	0xbec0b0d7	-0.37634918
75	0xbee8ee9f	-0.45494553
76	0x3e454a0a	0.19266525
77	0xbebe1438	-0.371248
78	0xbee06cb7	-0.43832943
79	0xbd48d4e3	-0.04903115
80	0xbd82d048	-0.06387383
81	0xbe3580a5	-0.17724855
82	0xbccb1349	-0.02478947
83	0xbe9f6a19	-0.31135634
84	0xbe97993e	-0.29609102
85	0xbec2a05f	-0.38012978
86	0xbece6198	-0.40308833
87	0xbcf1f49a	-0.02953558
88	0x3e2bacc5	0.16765125
89	0x3d71987a	0.058983304
90	0x3d221980	0.0395751
91	0xbddc99ca	-0.107715204
92	0xbe7197dd	-0.23593087
93	0xbe4df49f	-0.20112847
94	0xbe044b64	-0.12919384
95	0xbe855cba	-0.26047307
96	0xbefb6b2e	-0.4910521
97	0xbd5ed1bf	-0.05439925
98	0xbc1b5f39	-0.009483152
99	0xbd85c471	-0.06531609
100	0xbde6d4c0	-0.112710476
101	0x3d977417	0.07395189
102	0xbe05a400	-0.13050842
103	0xbee22e08	-0.44175744
104	0xbdf82211	-0.12115873
105	0xbebe6dcc	-0.37193143
106	0xbd9fe4b2	-0.07807292
107	0xbe814770	-0.25249815
108	0xbd8abc51	-0.067742
109	0xbe9a88d9	-0.3018253
110	0xbe15727d	-0.14594455
111	0xbe585949	-0.2112781
112	0xbe1a97d2	-0.15096977
113	0xbe229ce3	-0.1588016
114	0xbe41ff23	-0.18944983
115	0x3ddd712a	0.108126
116	0xbe8008ed	-0.2500681
117	0xbdc9b098	-0.09848136
118	0x3ea467c3	0.32110414
119	0xbdcccf09	-0.10000426
120	0xbd8dc2c5	-0.06921915
121	0xbed61a74	-0.41817057
122	0xbc836a0e	-0.016041782
123	0xbe2f99ae	-0.17148468
124	0xbe8d7b61	-0.27633193
125	0xbde982ad	-0.114018776
126	0x3da7c635	0.08192102
127	0x3b416d3e	0.0029514576
