Plots old/naive models/results_FCNN_3L_100E_D/results_big_boy/e_400_model.pt (torch, 740939 bytes, 25 tensors)

weight f4 [256, 54]
-0.032171026 -0.0014332607 0.06950396 -0.091451146 -0.061574385 0.028375356 0.028024271 0.01602762
0.020189913 -0.025428068 -0.04365751 -0.016323732 1.9550496 0.008100669 0.04167315 0.020216605
-0.013713847 0.034067392 -0.0011580773 0.0022434043 -0.041579682 0.03626163 0.06913239 -0.080563284
-0.042592075 -0.035028417 0.00085938774 -0.019243823 -0.049743425 -0.05766466 0.11355711 0.1287237
0.09698128 -0.12266909 0.09333721 0.13254546 0.19144002 0.03510741 -0.0015039289 0.06060573
0.10517987 0.26308513 0.04082261 0.13114884 -0.07336932 0.014815556 -0.029825332 0.041695286
-0.015503534 -0.25869754 -0.053308412 0.104346424 -0.027022498 -0.17126825 -0.00021268903 0.0002252202
-0.00021893605 0.00039316004 -0.0003082361 8.731023e-05 4.4648823e-05 6.672019e-05 0.000110293324 -0.00020436448
0.0001404693 -0.000284125 0.005717723 0.0001267636 -2.2177408e-05 -0.00031063255 6.437547e-05 0.00030814926
0.00046804585 1.3032433e-05 0.00036586064 8.946884e-05 0.00021721859 0.0004873698 0.004515676 -0.00011855521
-7.811519e-05 3.0100133e-05 -0.0003707498 -0.00013663628 0.00021134184 0.00036105662 0.0005500042 0.00020210574
0.00058167934 -6.984915e-06 0.00063860376 0.0003215644 -0.00040753398 -5.216022e-05 0.0004978038 0.00084881345
0.00061212835 -7.72062e-05 -0.00024122706 0.00020078084 5.8592508e-05 0.00012269003 0.00036869492 0.00017633087
-0.00013585135 -8.895886e-05 0.00060492335 0.00041255855 -0.027715672 0.042474784 0.12840626 0.025770145
-0.069388844 -0.08853304 -0.06084645 -0.00372111 0.046926383 -0.016228553 -0.019057674 -0.076055095
-3.097557 -0.036614187 0.07784139 0.023961065 0.025337394 0.015101342 -0.18268895 0.028086385
-0.016886933 -0.030665036 0.0782451 -0.05583643 -0.02940458 -0.07323553 0.104417 0.018064179
0.049438413 -0.031524077 0.000311255 -0.0390689 0.007497549 0.0076019648 0.014261024 0.03326687
0.027088499 0.0019317066 0.024519322 -0.0029109544 0.016454399 -0.031926174 0.030783243 -0.018325
0.0236771 -0.033942625 -0.009933437 -0.00683663 0.05810941 -0.0020405613 0.038495224 -0.01910172
-0.041474003 0.08759561 3.3080805e-06 1.8187377e-07 -2.1964559e-06 -1.674881e-06 1.5106193e-06 1.4818909e-07
1.9787196e-06 4.02922e-06 -7.7724485e-07 -1.0018354e-05 -1.5866975e-06 -3.9452388e-07 -3.0814863e-06 5.720061e-07
-6.9079333e-06 -4.3418704e-06 -1.567625e-06 -4.988049e-06 -1.7867429e-06 -6.2264558e-06 1.7944114e-06 -2.2444667e-06
-5.7506954e-06 -2.9016653e-06 8.305421e-07 -2.7823537e-06 -3.8310072e-06 -5.355092e-06 -6.807168e-06 -8.101438e-06
-3.538293e-06 -1.978113e-06 -5.980611e-06 -9.177727e-06 -5.8773103e-06 7.520008e-07 5.9634874e-07 -8.474672e-06
-8.816557e-06 -6.7674982e-06 -3.9026945e-06 -1.5080484e-06 -3.4514555e-06 -7.379121e-06 -1.1683823e-05 -1.0592736e-05
-3.8005808e-06 -2.263746e-06 -8.909228e-06 -7.5238695e-06 -9.8739e-06 -6.2261556e-06 -7.71245e-06 -7.930273e-06
0.116781875 0.005048893 -0.013679218 -0.016701642 0.027011076 0.0065589175 0.0420787 -0.0039289836
-0.09481154 0.03177451 -0.030880548 0.11502963 1.9028336 0.034065012 0.036791056 -0.010674216
0.023670604 -0.0017865258 0.049288876 -0.008661214 0.10726309 0.018280063 -0.05182879 -0.037231844
0.0785507 -0.07823952 0.05178108 0.06722652 -0.057313915 -0.0996304 -0.029197635 0.09242492
0.074954025 -0.093650304 0.002129609 -0.014075383 0.06824548 0.047744244 -0.036143217 -0.0133979255
00000000: c4c5 03bd 40dc bbba 1858 8e3d bd4a bbbd
00000010: 6c35 7cbd 6f73 e83c 2893 e53c 5b4c 833c
00000020: 5165 a53c 864e d0bc 38d2 32bd 59b9 85bc
00000030: 113f fa3f abb8 043c 77b1 2a3d 4b9d a53c
00000040: 0bb0 60bc 408a 0b3d a0ca 97ba 1406 133b
00000050: 754f 2abd 1387 143d 4895 8d3d 5dfe a4bd
00000060: 0775 2ebd f579 0fbd 8948 613a 39a5 9dbc
00000070: c3bf 4bbd c731 6cbd a190 e83d 25d0 033e
00000080: 1f9e c63d ef39 fbbd 9427 bf3d ffb9 073e
00000090: da08 443e cacc 0f3d 7b1f c5ba b73d 783d
000000a0: 8b68 d73d 18b3 863e 9c35 273d e24b 063e
000000b0: a742 96bd f2bc 723c 4154 f4bc adc8 2a3d
000000c0: 8902 7ebc 0174 84be ec59 5abd 94b3 d53d
000000d0: 495e ddbc f260 2fbe 4705 5fb9 1629 6c39
000000e0: 3392 65b9 0c21 ce39 c09a a1b9 531a b738
000000f0: 4f45 3b38 21ec 8b38 474d e738 ac4a 56b9
00000100: f14a 1339 9df6 94b9 bd5b bb3b d8eb 0439
00000110: 9f09 bab7 65dc a2b9 5101 8738 188f a139
00000120: 0d64 f539 e0a5 5a37 fcd0 bf39 38a1 bb38
00000130: 2cc5 6339 ab85 ff39 3cf8 933b d8a0 f8b8
00000140: c6d1 a3b8 8b7f fc37 3261 c2b9 0646 0fb9
00000150: a59b 5d39 334c bd39 282e 103a 59ec 5339
00000160: d77b 183a f75f eab6 f967 273a a597 a839
00000170: 49aa d5b9 9cc6 5ab8 0c7f 023a e882 5e3a
00000180: 3d77 203a c3e9 a1b8 e5f1 7cb9 b288 5239
00000190: 3ac1 7538 5ba6 0039 654d c139 75e5 3839
000001a0: 5273 0eb9 6d8f bab8 b893 1e3a ac4c d839
000001b0: fa0b e3bc 0afa 2d3d ee7c 033e e91b d33c
000001c0: bd1b 8ebd cf50 b5bd 213a 79bd dedd 73bb
000001d0: e135 403d bef1 84bc d71e 9cbc c6c2 9bbd
000001e0: 603e 46c0 c2f8 15bd 4f6b 9f3d ff49 c43c
000001f0: 5e90 cf3c 9f6b 773c d012 3bbe 6b15 e63c
00000200: 7756 8abc 3e35 fbbc f83e a03d beb4 64bd
00000210: e0e1 f0bc 82fc 95bd 95d8 d53d 54fb 933c
00000220: ef7f 4a3d 641f 01bd f02f a339 b606 20bd
00000230: 00ae f53b e719 f93b 12a7 693c d742 083d
00000240: b3e8 dd3c 5131 fd3a bfdc c83c b6c5 3ebb
00000250: 60cb 863c 05c5 02bd 242d fc3c 4f1e 96bc
00000260: 7af6 c13c 6c07 0bbd dbbf 22bc cf05 e0bb
00000270: 2204 6e3d f0ba 05bb 2bad 1d3d 367b 9cbc
00000280: a5e0 29bd 5465 b33d 6400 5e36 1549 4334
00000290: d366 13b6 79cc e0b5 7cc0 ca35 e81d 1f34
000002a0: 25ca 0436 bc32 8736 dca3 50b5 8114 28b7
000002b0: 83f6 d4b5 f3ce d3b4 88cb 4eb6 f68b 1935
000002c0: b2ca e7b6 62b0 91b6 2f67 d2b5 045f a7b6
000002d0: 05d0 efb5 d9ec d0b6 82d7 f035 a59f 16b6
000002e0: 19f6 c0b6 3bba 42b6 6bf2 5e35 79b8 3ab6
000002f0: 1a8c 80b6 e4af b3b6 2169 e4b6 69eb 07b7
00000300: 6973 6db6 b9bf 04b6 0fad c8b6 0afa 19b7
00000310: b635 c5b6 1add 4935 c614 2035 702e 0eb7
00000320: d3ea 13b7 5e14 e3b6 e4f3 82b6 2668 cab5
00000330: 8e9f 67b6 2b9a f7b6 a305 44b7 74b7 31b7
00000340: 7b0d 7fb6 dcea 17b6 d878 15b7 8c75 fcb6
00000350: 14a8 25b7 45ea d0b6 b864 01b7 430c 05b7
00000360: 562b ef3d 2f71 a53b cc1e 60bc e2d1 88bc
00000370: 5546 dd3c 30ec d63b b75a 2c3d b4be 80bb
00000380: 8d2c c2bd fd25 023d 34f9 fcbc a894 eb3d
00000390: 0d90 f33f c187 0b3d 38b2 163d e8e2 2ebc
000003a0: dbe8 c13c dc29 eaba 22e3 493d c4e7 0dbc
000003b0: c0ac db3d 12c0 953c 6d4a 54bd 6b80 18bd
000003c0: 30df a03d 0b3c a0bd 6618 543d 0fae 893d
000003d0: ffc1 6abd 060b ccbd e12f efbc 4749 bd3d
000003e0: 7f81 993d bbcb bfbd e990 0b3b 6f9c 66bc
000003f0: 49c4 8b3d 788f 433d e90a 14bd f982 5bbc

bias f4 [256]
-0.0033365758 5.055101e-06 -0.01826081 7.7407265e-08 0.0039215256 0.0045491518 -0.0067395796 -0.003360876
0.006038469 0.011861158 -0.0032641978 7.2936828e-06 -0.015078967 -0.0010013962 5.8965604e-08 -0.008335906
-0.0019836936 0.0018399577 0.0038751187 7.218779e-08 0.0017410303 3.687303e-08 4.1459955e-08 2.7968366e-07
0.0086398665 -0.0020593556 -0.010876476 0.028169086 -0.0067083025 1.0583196e-05 -2.5953518e-06 -8.2862385e-07
-2.853326e-07 -1.2216984e-06 0.0035995932 0.011030829 -0.0006009632 -0.0036851466 -1.0834061e-07 9.0116765e-07
0.008757979 -0.0061414256 0.001982223 -2.0869825e-06 0.004600358 3.175486e-07 -2.612018e-07 -0.003028708
-1.1185942e-05 1.0917803e-07 0.006919845 0.0055271266 0.013598219 0.0014220134 7.4279075e-07 3.9219585e-06
-3.7358845e-07 0.0106326435 -0.00014840311 1.4507127e-06 -0.020069886 0.0077953017 -2.3671026e-07 -0.0055380687
0.005465929 -0.017376479 0.016249776 0.0041772653 9.67638e-05 -0.00957663 0.0061494997 0.000625544
0.009822079 -2.457371e-06 0.00075451756 -3.650715e-05 1.1441984e-06 0.015562273 -5.7065984e-07 -1.0451871e-06
0.0042950083 0.014802553 1.0041672e-05 -8.390238e-07 0.002920457 5.578432e-07 1.6455921e-07 0.001699826
7.5953534e-07 0.0004816415 1.5887362e-06 -0.0196511 -0.005500639 3.2304916e-07 0.0003458581 -0.0012614115
-1.9829223e-08 0.010033553 -0.021473503 -1.3682114e-07 -1.8993408e-07 0.0051496415 -1.7931067e-06 0.0010661889
7.6467654e-07 0.004292143 -0.006150131 -2.5018406e-07 6.03628e-07 1.9371365e-08 2.3820643e-07 -0.0021327576
-7.767063e-07 -0.0014095408 0.0100034885 0.007961731 0.008744795 6.8920104e-05 -0.0015434274 1.4318508e-07
-0.008520138 0.0009987047 -1.5192028e-07 0.019138617 -0.0021362172 0.0028685594 -2.929874e-07 -0.017180862
-0.011365879 0.006130805 -0.0002499639 -6.824718e-07 -0.0010562664 -0.0049075494 -5.516304e-05 -7.2159594e-07
-8.9044295e-07 -0.00064906554 0.00046040726 -1.1968851e-06 -3.9020938e-07 -4.579092e-07 0.0013532026 0.009328408
-0.00023319905 1.811572e-06 2.296844e-07 1.8110708e-06 -5.7922045e-07 0.0075987284 -0.005168517 -0.005710291
-0.0024856478 -0.0015206739 0.017359234 2.233843e-06 -0.00084275194 3.0491943e-08 -0.0041741855 0.000101191305
0.010565949 1.4271967e-06 -0.0028259768 -7.0682506e-07 0.012227759 6.208716e-07 3.739663e-07 -1.8955546e-08
-0.0007938725 6.6301783e-07 -0.00039661452 0.0024023424 6.4690404e-08 0.002474967 0.010442191 -1.3698046e-07
0.01294007 -1.8839943e-07 0.00872728 -2.988907e-06 -4.0239865e-06 8.058774e-07 -0.00092743564 5.978458e-07
-6.518476e-07 -1.2845905e-07 2.863397e-07 -0.0014323621 -7.846538e-07 3.2452417e-07 0.0035845134 0.014667031
0.014178911 0.009768327 0.00012450603 3.546247e-08 2.942923e-07 2.03895e-07 0.0055506374 3.257631e-06
0.005465552 6.884889e-07 -0.00079812435 -5.2670195e-08 0.0058160024 0.0041203564 -0.00011790079 -5.353788e-06
0.005110282 6.616766e-07 -0.008196962 0.000572811 1.5826122e-07 -0.0004246783 -0.012752445 -0.0062973453
-0.0010337866 1.8840093e-07 -6.4123645e-07 -0.0023975212 0.00025505622 0.016090347 0.02177779 -0.00044256006
0.00010454613 3.5139565e-06 4.985806e-07 -0.019132948 0.0017094685 -0.005799073 3.350236e-07 -0.010516557
2.8440283e-05 -1.8093124e-07 -2.5489618e-07 1.6035807e-06 -1.2333659e-07 0.0011989219 0.0033104238 -0.00397185
3.3299406e-05 7.1237105e-07 1.0488594e-06 5.473046e-07 0.0015937517 -2.039693e-06 1.0079797e-07 -7.499291e-07
-2.85154e-07 6.2577055e-07 -7.613043e-07 -2.6571784e-06 -2.3464196e-05 0.0027561206 8.783724e-08 -0.0065067764
00000000: 74aa 5abb fd9e a936 b297 95bc 183b a633
00000010: 2480 803b 0d11 953b b1d7 dcbb 2542 5cbb
00000020: 59de c53b 4d55 423c 27ec 55bb 42bc f436
00000030: c60d 77bc 4841 83ba 5e41 7d33 5393 08bc
00000040: db00 02bb bc2a f13a b4f5 7d3b a805 9b33
00000050: 4833 e43a 535e 1e33 b411 3233 6e27 9634
00000060: 3a8e 0d3c 41f6 06bb 3f33 32bc dbc2 e63c
00000070: 52d1 dbbb 7b8e 3137 ce2b 2eb6 996e 5eb5
00000080: d02f 99b4 3df9 a3b5 27e7 6b3b a6ba 343c
00000090: f589 1dba 8082 71bb e1a8 e8b3 c5e7 7135
000000a0: a07d 0f3c 033e c9bb 2fe8 013b 160e 0cb6
000000b0: 9abe 963b 8c7b aa34 4d3b 8cb4 4a7d 46bb
000000c0: 41ab 3bb7 4275 ea33 debf e23b e61c b53b
000000d0: 10cb 5e3c da62 ba3a 3164 4735 5e99 8336
000000e0: 9b91 c8b4 8a34 2e3c a89c 1bb9 1cb6 c235
000000f0: 9a69 a4bc bb6f ff3b 6c2a 7eb4 b078 b5bb
00000100: 891b b33b 1e59 8ebc 401e 853c 71e1 883b
00000110: abed ca38 4ce7 1cbc be81 c93b 8cfb 233a
00000120: c9ec 203c 50e9 24b6 d1ca 453a 411f 19b8
00000130: 5c92 9935 e7f8 7e3c 722f 19b5 5b48 8cb5
00000140: 24bd 8c3b 6886 723c a778 2837 4739 61b5
00000150: 2365 3f3b b1be 1535 b1b1 3034 b2cc de3a
00000160: dfe2 4b35 d484 fc39 8f3c d535 58fb a0bc
00000170: b43e b4bb 8a6f ad34 4a54 b539 f255 a5ba
00000180: ec54 aab2 c563 243c 33e9 afbc 1ce9 12b4
00000190: aff0 4bb4 53be a83b adaa f0b5 5dbf 8b3a
000001a0: 2c44 4d35 1ba5 8c3b 0a87 c9bb 0951 86b4
000001b0: 0009 2235 1566 a632 afc5 7f34 bcc5 0bbb
000001c0: da7e 50b5 57c0 b8ba ace5 233c ec71 023c
000001d0: 5446 0f3c 3389 9038 d44c caba 6abe 1934
000001e0: 0d98 0bbc f8e6 823a 871f 23b4 97c8 9c3c
000001f0: c7ff 0bbb 71fe 3b3b e24b 9db4 e1be 8cbc
00000200: f437 3abc ebe4 c83b 960d 83b9 1b33 37b5
00000210: 6b72 8aba 82cf a0bb dd5e 67b8 b2b3 41b5
00000220: c606 6fb5 0d26 2aba d162 f139 a9a4 a0b5
00000230: f87d d1b4 90d6 f5b4 f25d b13a 2ed6 183c
00000240: e586 74b9 2425 f335 2b9f 7634 eb13 f335
00000250: ba7b 1bb5 c1fe f83b aa5c a9bb 651d bbbb
00000260: 40e6 22bb 5951 c7ba f434 8e3c 21e9 1536
00000270: 20ec 5cba 3ff6 0233 9bc7 88bb ab36 d438
00000280: cd1c 2d3c 1b8e bf35 0634 39bb a6bc 3db5
00000290: f056 483c f9a9 2635 89c5 c834 b0d3 a2b2
000002a0: e21b 50ba 3dfa 3135 b3f0 cfb9 9e70 1d3b
000002b0: edeb 8a33 0e33 223b b915 2b3c e714 13b4
000002c0: 9602 543c d74a 4ab4 defc 0e3c 0895 48b6
000002d0: c805 87b6 7953 5835 271f 73ba a77b 2035
000002e0: a0fa 2eb5 8eee 09b4 3bba 9934 19be bbba
000002f0: 00a1 52b5 433a ae34 28ea 6a3b fd4d 703c
00000300: aa4e 683c 550b 203c d58d 0239 664f 1833
00000310: 3aff 9d34 3bee 5a34 1fe2 b53b ad9d 5a36
00000320: 6018 b33b 99d0 3835 3839 51ba 7e37 62b3
00000330: 2a94 be3b 0e04 873b 8141 f7b8 b0a4 b3b6
00000340: 2774 a73b 129e 3135 8d4c 06bc b228 163a
00000350: 83ee 2934 5ba7 deb9 a2ef 50bc f659 cebb
00000360: 1f80 87ba 414b 4a34 6f21 2cb5 bb1f 1dbb
00000370: 11b9 8539 e7cf 833c 5667 b23c 6807 e8b9
00000380: c73f db38 50d1 6b36 33d6 0535 b3bc 9cbc
00000390: 3f10 e03a 2606 bebb 4bdd b334 a34d 2cbc
000003a0: 0b93 ee37 0046 42b4 aad8 88b4 9d3a d735
000003b0: 816e 04b4 2525 9d3a b2f3 583b 4b26 82bb
000003c0: f7aa 0b38 c439 3f35 89c6 8c35 7cea 1235
000003d0: 6fe5 d03a a9e1 08b6 4576 d833 bc4e 49b5
000003e0: 4417 99b4 a0fa 2735 6f5c 4cb5 fa51 32b6
000003f0: fad4 c4b7 08a0 343b 09a1 bc33 cc36 d5bb

weight f4 [256]
0.2009384 0.00040545923 0.24413387 1.9182266e-06 0.15800644 0.22844996 0.2059853 0.19490361
0.15460284 0.20721361 0.15850037 2.4234423e-05 0.15404199 0.008810157 1.7974652e-07 0.17388391
0.21624152 0.25925896 0.27256843 2.1697454e-06 0.16571698 1.8492019e-06 1.9816139e-06 1.2305182e-05
0.17376012 0.2167309 0.20383355 0.2516511 0.20621212 3.4088436e-05 8.1264225e-05 2.2135243e-06
2.1039032e-06 2.2595848e-06 0.1745713 0.2443318 0.004783573 0.2007489 4.564415e-06 2.2387544e-06
0.19237295 0.19828065 0.18450485 4.445088e-06 0.22320636 2.2592546e-06 2.1332798e-06 0.17156976
0.00020368643 1.399059e-06 0.009906257 0.18480319 0.1450206 0.025151208 1.533242e-06 2.8382232e-05
1.8863348e-06 0.18375373 0.0022725894 2.18926e-06 0.24999483 0.20759483 2.1455253e-06 0.16461867
0.20055349 0.21142466 0.17340985 0.1460583 0.0005013972 0.08535974 0.17154287 0.091978736
0.19753815 5.619568e-06 0.006020336 0.00040335322 2.5374197e-06 0.15843692 3.9197944e-06 0.00011791309
0.21112174 0.18168148 0.00019469495 2.3848304e-06 0.2200237 1.6216922e-05 1.7906192e-06 0.15476246
2.006474e-06 0.25039276 2.737998e-05 0.16802612 0.18504193 2.486982e-06 0.1853959 0.09840529
1.0301482e-06 0.22365937 0.23716734 6.3509274e-06 2.3217272e-06 0.19588783 4.340577e-06 0.00522557
8.707744e-06 0.19272496 0.15978418 1.6005196e-06 2.4246308e-06 2.330888e-06 2.0309305e-06 0.19872825
1.8665817e-06 0.131938 0.19490415 0.2114524 0.13843861 0.0009118835 0.17612009 1.9029188e-06
0.22273423 0.20016675 2.8255965e-06 0.19055453 0.18457374 0.18468922 2.568363e-06 0.23642892
0.21578361 0.1836052 0.22226393 2.3670157e-06 0.005632606 0.12655169 0.0001538024 2.2554373e-06
2.4873848e-06 0.23356575 0.0024594082 2.699592e-06 1.6091374e-06 4.258062e-05 0.20628133 0.14239033
0.0027540296 4.451921e-05 2.0319612e-06 1.5992977e-05 3.3003712e-06 0.16109 0.09099048 0.21360888
0.20128047 0.017632538 0.17208214 0.00068541657 0.09098107 1.9696747e-06 0.20611626 0.00020988396
0.17081705 1.0218957e-05 0.18748756 1.4995674e-06 0.16629565 2.082694e-06 1.7430742e-06 1.8795643e-06
0.003578896 3.63194e-07 0.0042935736 0.1789397 2.1387725e-06 0.15116888 0.20228325 5.0578024e-07
0.19231023 2.6447117e-06 0.24940285 7.4433206e-06 7.509576e-06 0.0003714165 0.19722505 1.8355045e-06
9.4348013e-07 2.9049174e-06 2.2286326e-06 0.18101443 5.590443e-06 1.663002e-06 0.22140354 0.19308151
0.15577427 0.1967925 0.0005611928 2.091951e-06 1.528363e-05 1.8913154e-06 0.15954965 5.919574e-05
0.15915355 1.8157336e-06 0.10914831 2.352874e-06 0.17579228 0.20623624 0.0008254741 1.5864494e-05
0.19994445 2.0180369e-06 0.21403435 0.18529339 1.6595776e-06 0.15252793 0.1621415 0.17861147
0.19536997 1.8876322e-06 1.7357524e-06 0.16441129 0.2075514 0.19113594 0.23360403 0.14173225
0.0004702591 4.6351277e-05 1.1771601e-06 0.20771682 0.18329148 0.22330919 6.032771e-06 0.20153123
0.00017405425 2.1057078e-06 4.262783e-06 5.0073286e-06 2.597833e-06 0.15127479 0.17029196 0.10202355
0.0007076347 1.637563e-06 6.6952452e-06 4.114033e-06 0.19451016 1.08645945e-05 1.1905593e-06 4.2700435e-06
2.0745526e-06 3.940283e-06 1.6245418e-06 3.642774e-05 0.00039544265 0.2328672 2.3864163e-06 0.14958961
00000000: ccc2 4d3e d193 d439 3bfe 793e e2ba 0036
00000010: 71cc 213e c9ee 693e cfed 523e d094 473e
00000020: 3550 1e3e ce2f 543e ec4d 223e 074b cb37
00000030: 2fbd 1d3e 7a58 103c 5900 4134 a00e 323e
00000040: 6b6e 5d3e 97bd 843e 178e 8b3e f19b 1136
00000050: b6b1 293e 1832 f835 defb 0436 5b72 4e37
00000060: 2cee 313e b4ee 5d3e beb9 503e 6ad8 803e
00000070: 4529 533e 2efa 0e38 666c aa38 0f8c 1436
00000080: c830 0d36 5fa3 1736 d2c2 323e 1e32 7a3e
00000090: 85bf 9c3b 1f91 4d3e 0728 9936 823d 1636
000000a0: 6afd 443e 150a 4b3e d7ee 3c3e 0427 9536
000000b0: 3590 643e b39d 1736 7829 0f36 fcaf 2f3e
000000c0: a994 5539 4dc7 bb35 da4d 223c 0c3d 3d3e
000000d0: 4880 143e e809 ce3c cbc9 cd35 6116 ee37
000000e0: f82d fd35 f029 3c3e b9ef 143b 33eb 1236
000000f0: a5fe 7f3e bd93 543e d8fb 0f36 cc91 283e
00000100: e55d 4d3e b57f 583e 5a92 313e 4f90 153e
00000110: 3270 033a 16d1 ae3d efa8 2f3e 595f bc3d
00000120: 7147 4a3e b98f bc36 3d46 c53b 2779 d339
00000130: 8a48 2a36 4a3d 223e c786 8336 1c48 f738
00000140: 4c30 583e b60a 3a3e 0727 4c39 130b 2036
00000150: e54d 613e 9309 8837 3555 f035 0d7a 1e3e
00000160: f6a6 0636 7b33 803e 0fae e537 0a0f 2c3e
00000170: a27b 3d3e 07e6 2636 6cd8 3d3e b688 c93d
00000180: 9f43 8a35 f606 653e ffdb 723e 0d1a d536
00000190: f8ce 1b36 d296 483e 46a5 9136 423b ab3b
000001a0: 7a17 1237 b159 453e 779e 233e 6fd1 d635
000001b0: d7b6 2236 5a6c 1c36 1f4b 0836 6b7f 4b3e
000001c0: 4287 fa35 c11a 073e f494 473e fa86 583e
000001d0: dac2 0d3e 770b 6f3a d358 343e cb67 ff35
000001e0: 7114 643e 83f8 4c3e 619f 3d36 ba20 433e
000001f0: e600 3d3e 2c1f 3d3e 245c 2c36 6c1a 723e
00000200: 61f6 5c3e 0003 3c3e 2899 633e 05d9 1e36
00000210: b991 b83b c496 013e 0446 2139 1e5c 1736
00000220: f2ec 2636 dc2b 6f3e 062e 213b a32a 3536
00000230: 8af9 d735 9898 3238 6a3b 533e c5ce 113e
00000240: f37c 343b 23ba 3a38 d45c 0836 a828 8637
00000250: f27b 5d36 c7f4 243e 3759 ba3d 49bc 5a3e
00000260: 781c 4e3e 1d72 903c 4d36 303e 87ad 333a
00000270: 4954 ba3d c12e 0436 2410 533e 4c14 5c39
00000280: aaea 2e3e 1672 2b37 bdfc 3f3e be44 c935
00000290: 6849 2a3e 69c4 0b36 93f3 e935 5645 fc35
000002a0: e98b 6a3b 01fd c234 1bb1 8c3b f83b 373e
000002b0: d587 0f36 04cc 1a3e 5723 4f3e f4c4 0735
000002c0: f9ec 443e cd7b 3136 7663 7f3e a3c1 f936
000002d0: c4fa fb36 aeba c239 5df5 493e 745b f635
000002e0: 7643 7d35 1af2 4236 9e8f 1536 d95b 393e
000002f0: 8a95 bb36 5034 df35 9cb7 623e 29b7 453e
00000300: 4a83 1f3e f983 493e 031d 133a 7263 0c36
00000310: 5835 8037 1ad9 fd35 fc60 233e f148 7838
00000320: 26f9 223e 22b4 f335 2689 df3d 11e6 1d36
00000330: e402 343e 982f 533e a164 583a be14 8537
00000340: 3dbe 4c3e 9c6d 0736 d22b 5b3e 8dbd 3d3e
00000350: a7be de35 4830 1c3e 6c08 263e ede5 363e
00000360: 110f 483e 8c5a fd35 00f8 e835 6f5b 283e
00000370: 5b88 543e 24b9 433e e535 6f3e 4222 113e
00000380: 1c8d f639 4e69 4238 eafe 9d35 b8b3 543e
00000390: c3b0 3b3e 2aab 643e 1c6d ca36 345e 4e3e
000003a0: 5582 3639 c94f 0d36 0709 8f36 a004 a836
000003b0: 6e56 2e36 c7e7 1a3e 0461 2e3e b9f1 d03d
000003c0: 9080 393a 3cca db35 b8a7 e036 460b 8a36
000003d0: ac2d 473e 1447 3637 4ecb 9f35 6547 8f36
000003e0: 8b38 0b36 c636 8436 d50a da35 fdc9 1838
000003f0: 6a53 cf39 bd74 6e3e 5226 2036 052e 193e

bias f4 [256]
-0.12391794 -0.0011286022 -0.27831706 -6.765513e-06 -0.04872301 -0.17982648 -0.04418828 -0.15699768
-0.048285447 -0.051385034 -0.053485453 -6.451211e-05 -0.051302165 -0.023470992 -6.747548e-07 -0.04072418
-0.14829989 -0.3080525 -0.2671871 -5.820646e-06 -0.11640293 -5.1682437e-06 -5.2663e-06 -3.3368844e-05
-0.089260615 -0.04926229 -0.11598873 -0.22280566 -0.13706245 -0.00023208882 -0.00024218753 -5.8906776e-06
-5.621267e-06 -5.971728e-06 -0.0596655 -0.2396945 -0.012911614 -0.088767745 -1.3454959e-05 -5.9614026e-06
-0.10650866 -0.07518026 -0.12424942 -1.2544324e-05 -0.064019874 -5.998722e-06 -5.6502545e-06 -0.12701859
-0.0005790689 -3.853224e-06 -0.026891684 -0.08166834 -0.11443983 -0.06889797 -4.327763e-06 -7.601463e-05
-5.0081903e-06 -0.09062059 -0.006398231 -5.816343e-06 -0.2187472 -0.19048566 -6.662216e-06 -0.048965205
-0.1658328 -0.19544365 -0.027851399 -0.0404747 -0.004018423 0.021600718 -0.10304319 0.028948123
-0.13841641 -1.5138186e-05 -0.0159405 -0.0010630639 -7.5885077e-06 -0.06255637 -1.044268e-05 -0.0003716342
-0.13736711 -0.07654247 -0.00051534374 -6.7294727e-06 -0.24475123 -4.3171047e-05 -5.1229804e-06 -0.042410307
-5.535653e-06 -0.2073632 -7.492894e-05 -0.033599425 -0.11263896 -6.609546e-06 -0.089946255 0.026815755
-2.7615374e-06 -0.1648247 -0.26478228 -1.7171224e-05 -5.7975208e-06 -0.10278401 -1.18209655e-05 -0.014290691
-2.3687986e-05 -0.11131094 -0.09897574 -4.464438e-06 -6.4416995e-06 -6.345349e-06 -5.571257e-06 -0.12246687
-5.0150566e-06 -0.07513442 -0.14029056 -0.08062218 -0.051031105 -0.002434151 -0.08913459 -5.104193e-06
-0.07500523 -0.047076844 -3.0883035e-05 -0.08811814 -0.11633754 -0.13545226 -6.8325503e-06 -0.19557147
-0.09835192 -0.08658925 -0.054077435 -6.3358893e-06 -0.014394383 -0.055158317 -0.0005335059 -5.973319e-06
-7.2787434e-06 -0.07578936 -0.0065209614 -7.3071333e-06 -4.3439723e-06 -0.00011463578 -0.13590693 -0.14087905
-0.007719825 -0.00016301163 -5.5317696e-06 -4.4413326e-05 -9.37229e-06 -0.09034091 0.02799076 -0.14421909
-0.043130293 -0.046958156 -0.068777524 -0.002181094 0.026178008 -5.2700916e-06 -0.20409454 -0.0005886642
-0.07650125 -2.9085357e-05 -0.10384899 -4.0347672e-06 -0.07318234 -9.411493e-06 -4.6434925e-06 -4.97431e-06
-0.009504937 -1.0055364e-06 -0.011428442 -0.1088052 -5.5360706e-06 -0.14031756 -0.038359873 -3.0723427e-06
-0.092845894 -7.1097884e-06 -0.22580656 -1.9864206e-05 -2.0000465e-05 -0.0011462326 -0.092336625 -4.382433e-06
-2.4994167e-06 -1.1242438e-05 -6.1467e-06 -0.09084937 -1.5375383e-05 -4.612703e-06 -0.14347222 -0.047817178
-0.18157643 -0.08324221 -0.0016942545 -5.7730495e-06 -4.05656e-05 -5.186768e-06 -0.08813603 -0.0001572668
-0.056536574 -4.802841e-06 -0.06112581 -6.5213585e-06 -0.07360105 -0.10370453 -0.0021806823 -4.8943504e-05
-0.076705225 -5.4473194e-06 -0.059157778 -0.07594376 -4.386837e-06 -0.03829031 -0.067905776 -0.11134213
-0.118954055 -5.820127e-06 -4.6399277e-06 -0.05237854 -0.08942444 -0.083863854 -0.2400849 -0.11618608
-0.0012343072 -0.00012935016 -3.4922607e-06 -0.09742809 -0.07303225 -0.14282921 -1.5978152e-05 -0.15939495
-0.00046396948 -5.6705026e-06 -1.14834575e-05 -1.3532046e-05 -6.9158323e-06 -0.072698824 -0.06669991 0.028751729
-0.001967865 -4.5274373e-06 -1.7866525e-05 -1.3859432e-05 -0.07608581 -2.9041368e-05 -3.3345527e-06 -1.1573047e-05
-5.5231126e-06 -1.1154609e-05 -5.775933e-06 -0.00010467931 -0.0010466392 -0.062928095 -6.387309e-06 -0.058356225
00000000: b0c8 fdbd 9bed 93ba 937f 8ebe 5003 e3b6
00000010: c791 47bd 6f24 38be c5fe 34bd 00c4 20be
00000020: f6c6 45bd 1d79 52bd 9013 5bbd ad4a 87b8
00000030: 3822 52bd 3d46 c0bc cc20 35b5 66ce 26bd
00000040: eddb 17be 0fb9 9dbe bfcc 88be f84e c3b6
00000050: a964 eebd e06a adb6 2cb5 b0b6 86f5 0bb8
00000060: 45ce b6bd 41c7 49bd 808b edbd 2b27 64be
00000070: 195a 0cbe de5c 73b9 b8f3 7db9 89a8 c5b6
00000080: 519e bcb6 c160 c8b6 d063 74bd 7a72 75be
00000090: 3c8b 53bc ddcb b5bd 9cbc 61b7 0f08 c8b6
000000a0: 3621 dabd 1cf8 99bd 7b76 febd 7675 52b7
000000b0: da1c 83bd a148 c9b6 5197 bdb6 2911 02be
000000c0: a8cc 17ba f14a 81b6 f34b dcbc bb41 a7bd
000000d0: 6e5f eabd 611a 8dbd 3337 91b6 0b6a 9fb8
000000e0: 070c a8b6 4a97 b9bd 40a8 d1bb 022a c3b6
000000f0: 44ff 5fbe ac0e 43be 008c dfb6 bd8f 48bd
00000100: 13d0 29be 6122 48be 9e28 e4bc cdc8 25bd
00000110: faac 83bb fdf3 b03c 4f08 d3bd 9d24 ed3c
00000120: 08bd 0dbe 04fa 7db7 a795 82bc 8156 8bba
00000130: c9a0 feb6 8e1d 80bd f832 2fb7 e6d7 c2b9
00000140: f7a9 0cbe 4cc2 9cbd 2218 07ba bbcd e1b6
00000150: 11a0 7abe 8f12 35b8 11e6 abb6 6eb6 2dbd
00000160: e6be b9b6 0557 54be 2b23 9db8 8d9f 09bd
00000170: 41af e6bd 91c7 ddb6 be35 b8bd b7ac db3c
00000180: da52 39b6 cec7 28be 8b91 87be ec0a 90b7
00000190: 5388 c2b6 6c80 d2bd a952 46b7 8123 6abc
000001a0: 90b5 c6b7 fdf6 e3bd cbb3 cabd 3bcd 95b6
000001b0: c725 d8b6 22ea d4b6 bcf0 bab6 e9cf fabd
000001c0: 0247 a8b6 13e0 99bd 54a8 0fbe 3e1d a5bd
000001d0: fe05 51bd 4786 1fbb 328c b6bd af44 abb6
000001e0: 589c 99bd a6d3 40bd 6888 01b8 4977 b4bd
000001f0: 6042 eebd ffb3 0abe 2943 e5b6 e343 48be
00000200: bb6c c9bd b455 b1bd 4d80 5dbd e098 d4b6
00000210: 6bd6 6bbc b0ed 61bd fada 0bba 6b6e c8b6
00000220: ee3b f4b6 7437 9bbd caad d5bb cc2f f5b6
00000230: 70c2 91b6 9e68 f0b8 302b 0bbe 9942 10be
00000240: 96f6 fcbb 1aee 2ab9 8a9d b9b6 7248 3ab8
00000250: ae3d 1db7 a804 b9bd e14c e53c 2bae 13be
00000260: 64a9 30bd 3257 40bd 3bdb 8cbd aff0 0ebb
00000270: 4373 d63c bed5 b0b6 29fe 50be 9650 1aba
00000280: b0ac 9cbd 54fc f3b7 c7ae d4bd 6362 87b6
00000290: 9fe0 95bd 0ee6 1db7 4ccf 9bb6 ffe8 a6b6
000002a0: 98ba 1bbc f8f5 86b5 5c3e 3bbc 43d5 debd
000002b0: 7cc2 b9b6 68af 0fbe 3e1f 1dbd 722e 4eb6
000002c0: fd25 bebd 9e90 eeb6 d639 67be 0fa2 a6b7
000002d0: acc6 a7b7 2f3d 96ba fc1a bdbd d00c 93b6
000002e0: a7bb 27b6 e79d 3cb7 c03f ceb6 3c0f babd
000002f0: 62fa 80b7 d1c6 9ab6 62ea 12be f2db 43bd
00000300: 2cef 39be e47a aabd bf11 deba 1eb6 c1b6
00000310: fb24 2ab8 ff09 aeb6 aa80 b4bd fce7 24b9
00000320: e592 67bd 1728 a1b6 0f5f 7abd 0bd2 dab6
00000330: 26bc 96bd 0a63 d4bd c7e9 0ebb b048 4db8
00000340: a117 9dbd 1ec8 b6b6 6d4f 72bd 6788 9bbd
00000350: a532 93b6 4dd6 1cbd 2f12 8bbd 5807 e4bd
00000360: 2f9e f3bd 834a c3b6 adb0 9bb6 e18a 56bd
00000370: 2924 b7bd d0c0 abbd d1d8 75be f8f2 edbd
00000380: 7ac8 a1ba 2ba2 07b9 955c 6ab6 6188 c7bd
00000390: ef91 95bd d241 12be d208 86b7 6e38 23be
000003a0: ee40 f3b9 3f45 beb6 13a9 40b7 b207 63b7
000003b0: 8c0e e8b6 1fe3 94bd f699 88bd bf88 eb3c
000003c0: 4cf7 00bb 64ea 97b6 12e0 95b7 cf85 68b7
000003d0: e1d2 9bbd dd9d f3b7 2ec7 5fb6 dc29 42b7
000003e0: 2d53 b9b6 ae24 3bb7 e3ce c1b6 4787 dbb8
000003f0: 622f 89ba 72e0 80bd 9152 d6b6 f006 6fbd

running_mean f4 [256]
0.059173405 0.0005331132 -0.13213256 -9.916334e-06 0.12761886 0.034570664 -0.07999675 -0.115476504
0.10962058 0.0056686127 0.032387488 0.0001591619 0.10219871 0.03433412 2.985691e-06 0.010264983
-0.12174614 -0.11202603 0.12555723 3.881397e-06 -0.29853594 3.0809724e-06 6.0532807e-06 3.3331402e-05
0.16526031 -0.039645854 0.09510826 0.14468312 0.09032579 0.00019928045 0.0001888472 2.6386551e-06
-1.4678749e-06 2.6395437e-06 0.09888972 0.0983877 0.010113125 0.044068776 7.2722783e-06 7.1454515e-06
0.09894515 0.075623356 0.420883 1.7373572e-05 -0.0071423603 4.4819653e-06 1.5300803e-06 0.057908863
0.00061812357 4.48135e-06 0.062366586 0.095868036 0.2596147 0.12057606 2.5731606e-06 8.084927e-05
-8.457008e-07 0.13136144 0.007662792 8.033768e-06 0.06277991 -0.097110495 -9.946687e-06 0.1321955
-0.105738595 -0.15228453 -0.034172002 -0.049512736 -0.0027967088 -0.122530796 0.093508646 -0.09978738
0.2650193 8.309249e-06 -0.004137811 0.00020284456 4.608226e-06 0.023192106 7.902412e-06 -8.086567e-06
-0.12794606 -0.008742392 0.00023902796 5.000737e-07 -0.11058721 4.49813e-05 -4.469809e-06 0.10287555
6.248811e-06 0.07983905 5.4458906e-05 -0.0039123995 0.14868304 5.2090645e-06 0.067507 -0.1316886
1.8529138e-06 0.07621967 -0.13798355 3.7912905e-06 -6.897e-06 0.07648199 7.2934263e-06 0.0010931003
-6.819193e-06 0.07272029 -0.015676428 2.3205419e-06 6.208622e-06 -7.3561284e-07 -2.120435e-06 -0.13738577
4.5835186e-06 0.06083342 -0.103969336 0.089917526 0.08859152 0.005134396 0.149571 -8.687812e-06
-0.06903236 0.005545577 3.7970334e-05 0.095632866 -0.12884581 0.012528345 1.0552574e-06 0.07059401
0.06076595 0.08327828 -0.0013389182 4.241911e-06 0.010118037 0.013084391 -5.425619e-05 3.984512e-06
3.8339867e-06 0.0010144897 0.0026543974 -4.415167e-06 2.8749791e-06 0.00019749298 0.114995636 0.18534306
0.0059823357 0.0001566829 3.8753506e-06 -3.6263227e-06 -2.8147028e-06 0.2986835 -0.09609828 0.09663099
-0.005033748 0.08255689 0.05527311 -0.001267812 -0.10007702 4.438784e-06 0.047434095 0.0006994092
0.03613056 4.034575e-05 -0.05283397 8.2598194e-07 0.066693045 -1.3213077e-05 2.506313e-06 3.0633396e-06
0.0033838102 -6.030841e-07 0.006275197 -0.21715812 -4.8942206e-07 0.27337927 0.017292872 -5.121882e-07
0.12751628 6.3180373e-06 0.08553936 8.496459e-06 1.85696e-05 -0.0022928468 0.0830082 -1.6812826e-06
1.6686433e-06 -4.3789005e-06 4.2382235e-06 0.025241394 8.189925e-06 -3.9101724e-06 0.13081996 -0.0050755395
0.39227706 0.08982982 0.0025701558 3.2988473e-06 4.5730576e-05 6.1913765e-06 0.061528906 0.00026972432
0.101894885 5.2398436e-06 0.079232536 1.0805437e-05 0.1038585 0.07527014 0.0007081438 4.2663738e-05
-0.0057566417 4.9233054e-06 -0.014149951 0.05739705 8.839834e-08 -0.16473144 -0.05287149 0.061889976
0.10545028 6.322476e-06 6.280235e-06 -0.20847033 0.08130868 0.11208819 -0.111484945 0.07929599
-0.0004153162 3.1298816e-05 -1.3136246e-06 0.052048914 0.07468578 -0.13224854 3.0062479e-06 -0.13331348
0.00050649734 4.704997e-06 8.040828e-06 1.394045e-05 3.23066e-06 0.11034991 0.10514042 -0.10556323
0.002795058 -1.985664e-06 -9.334975e-06 1.3462e-05 0.09448217 2.6667045e-05 1.706271e-06 1.7683342e-06
-3.6217625e-06 6.425389e-06 -4.2598417e-06 5.6282654e-05 0.0007566148 -0.0041665398 4.1557923e-06 0.06485808
00000000: d05f 723d 9fc0 0b3a c24d 07be 555e 26b7
00000010: 85ae 023e f899 0d3d 56d5 a3bd f27e ecbd
00000020: c180 e03d c5bf b93b bea8 043d b2e4 2639
00000030: 8f4d d13d efa1 0c3d c85d 4836 762e 283c
00000040: 0a56 f9bd e76d e5bd 1392 003e f23c 8236
00000050: b4d9 98be b4c2 4e36 491d cb36 52cd 0b38
00000060: 003a 293e b163 22bd 1fc8 c23d d027 143e
00000070: bafc b83d f0f5 5039 4905 4639 c013 3136
00000080: cc03 c5b5 0423 3136 b286 ca3d 7e7f c93d
00000090: 85b1 253c 7681 343d 6504 f436 f6c2 ef36
000000a0: c1a3 ca3d 6be0 9a3d fa7d d73e 76bd 9137
000000b0: 760a eabb ca63 9636 295d cd35 d831 6d3d
000000c0: 9209 223a 815e 9636 1b74 7f3d 7656 c43d
000000d0: 38ec 843e 95f0 f63d 90ae 2c36 9f8d a938
000000e0: 1e04 63b5 9d83 063e 2918 fb3b c5c8 0637
000000f0: c192 803d dee1 c6bd b2e0 26b7 425e 073e
00000100: 7a8d d8bd 7af0 1bbe f1f7 0bbd decd 4abd
00000110: fd48 37bb 6df1 fabd 7681 bf3d 535d ccbd
00000120: 9cb0 873e f467 0b37 7996 87bb acb2 5439
00000130: 5ca0 9a36 5ffd bd3c 9a94 0437 8aab 07b7
00000140: 4b04 03be 403c 0fbc 94a3 7a39 ce3c 0635
00000150: 8c7b e2bd 4eaa 3c38 5efb 95b6 6bb0 d23d
00000160: e1ac d136 a882 a33d ce6a 6438 9633 80bb
00000170: 5e40 183e 86c9 ae36 1c41 8a3d 60d9 06be
00000180: a2b1 f835 0f19 9c3d 8f4b 0dbe e06d 7e36
00000190: c76c e7b6 97a2 9c3d 0eba f436 5c46 8f3a
000001a0: 6cd0 e4b6 60ee 943d da6b 80bc 9bba 1b36
000001b0: a853 d036 ee76 45b5 cc4c 0eb6 dbae 0cbe
000001c0: 20cc 9936 772c 793d e0ed d4bd ae26 b83d
000001d0: 796f b53d 6f3e a83b 2429 193e dec1 11b7
000001e0: d760 8dbd acb7 b53b 5642 1f38 2adb c33d
000001f0: 28f0 03be b043 4d3c 5ea2 8d35 9893 903d
00000200: b7e5 783d ce8d aa3d a47e afba bd55 8e36
00000210: 20c6 253c ea5f 563c 2491 63b8 b3b2 8536
00000220: b2a5 8036 a0f8 843a 66f5 2d3b ff25 94b6
00000230: c4ef 4036 1e16 4f39 d582 eb3d 92ca 3d3e
00000240: 7807 c43b 3f4b 2439 0209 8236 c05b 73b6
00000250: 3ae4 3cb6 0bed 983e 2dcf c4bd 78e6 c53d
00000260: 24f2 a4bb 9613 a93d 0e66 623d b62c a6ba
00000270: 2ef5 ccbd ddf0 9436 414a 423d 8f58 373a
00000280: a3fd 133d eb38 2938 6f68 58bd 0cb9 5d35
00000290: 5d96 883d bcad 5db7 2132 2836 c693 4d36
000002a0: eac2 5d3b a0e3 21b5 2ba0 cd3b b35e 5ebe
000002b0: d460 03b5 5ef8 8b3e c8a9 8d3c 4e7d 09b5
000002c0: a193 023e 87ff d336 432f af3d 038c 0e37
000002d0: eac5 9b37 9643 16bb 3400 aa3d 6ea8 e1b5
000002e0: 26f6 df35 78ee 92b6 1036 8e36 0ac7 ce3c
000002f0: 7667 0937 2034 83b6 abf5 053e b650 a6bb
00000300: 8ad8 c83e b2f8 b73d 0f70 283b c461 5d36
00000310: d5ce 3f38 85bf cf36 bc05 7c3d c969 8d39
00000320: 44ae d03d ead1 af36 ab44 a23d 0049 3537
00000330: c4b3 d43d 3b27 9a3d baa2 393a d7f1 3238
00000340: 36a2 bcbb df32 a536 32d5 67bc 2b19 6b3d
00000350: 80d5 bd33 5caf 28be c78f 58bd 5880 7d3d
00000360: 51f6 d73d a825 d436 cfba d236 3f79 55be
00000370: 2a85 a63d 7e8e e53d 3852 e4bd f065 a23d
00000380: ccbe d9b9 d946 0338 cc4f b0b5 3e31 553d
00000390: dcf4 983d 296c 07be f2be 4936 5483 08be
000003a0: 76c6 043a 9edf 9d36 18e7 0637 c7e1 6937
000003b0: 51ce 5836 22ff e13d dc53 d73d 8931 d8bd
000003c0: 4b2d 373b 7341 05b6 6a9d 1cb7 dada 6137
000003d0: de7f c13d 0bb3 df37 0603 e535 8057 ed35
000003e0: 680d 73b6 ac99 d736 c3ef 8eb6 0a11 6c38
000003f0: 8f57 463a 7887 88bb fc71 8b36 50d4 843d

running_var f4 [256]
3.719391 3.4500565e-05 9.759038 2.5884088e-08 2.390755 7.002045 0.21016073 12.104778
2.4687116 0.15327752 0.23112878 3.3679712e-06 1.9171304 0.1333826 1.8943527e-09 0.1390242
9.538455 9.0144205 5.410514 2.888621e-09 11.546301 5.219876e-10 8.196866e-09 9.7959855e-08
4.588028 0.14631853 2.2647684 4.776506 4.1329293 2.3795412e-05 2.6885707e-06 1.1933167e-09
6.0335514e-10 2.19276e-09 3.4664514 3.6213014 0.0075696944 0.26580203 1.6855823e-08 5.311261e-09
4.5605464 0.39717016 20.72041 1.2875938e-07 0.13679343 1.9402906e-09 7.759702e-10 1.3076559
0.000134431 1.0706874e-09 0.5130856 1.2565087 17.514803 2.3873827 4.670673e-10 6.282452e-07
1.9529005e-09 3.4431198 0.005382409 7.73738e-09 3.516807 10.030935 2.2589537e-08 4.2519193
9.153716 9.699953 0.21079817 1.1675954 0.0056818505 1.5240126 4.8217254 1.686575
17.846415 1.5627396e-07 0.11436361 5.817087e-05 5.904851e-09 0.32952407 1.7868379e-08 2.2450982e-05
10.368985 0.28284132 2.9842979e-05 1.1486376e-09 10.051951 2.2142667e-07 3.2796035e-09 4.4787974
4.3345145e-09 5.6762953 5.4381144e-07 0.1355546 4.0327973 9.608719e-09 0.20655951 1.9178287
1.1051551e-09 3.76151 9.353023 7.564961e-08 6.0698917e-09 0.20906276 4.4049212e-08 0.0042304597
8.506846e-08 3.9048758 0.38992336 9.097024e-10 9.431276e-09 1.841941e-09 1.1025134e-09 10.240286
2.943087e-09 1.6430379 10.158821 0.24410647 1.164996 0.0068363864 3.4783077 1.0325913e-08
0.24121541 0.14582586 1.110685e-07 0.2382605 1.6257154 1.0214024 5.6956484e-10 5.128214
0.23839535 0.33611327 0.127873 1.1117365e-08 0.023114769 0.96136343 9.507587e-06 4.798514e-09
2.2954292e-09 0.15134546 0.0006956845 8.11142e-09 2.5346603e-09 4.0520454e-06 5.1667757 4.6829495
0.0025717209 3.3953606e-06 3.4309748e-09 1.621848e-07 6.3862426e-09 30.150331 1.8473961 4.5377774
0.13659574 0.36196494 0.24299173 0.0015662297 1.3608966 4.296969e-09 2.691812 5.7978075e-05
0.3400338 9.862787e-08 1.083276 6.394052e-10 0.26392692 5.561767e-09 4.3665196e-10 1.100089e-08
0.0009155609 6.9461353e-10 0.040272947 9.151518 2.7500728e-09 16.025713 0.14334838 5.8493377e-10
4.5005746 1.36378615e-08 3.2514002 6.6937616e-08 9.4567355e-08 0.0010697208 0.21555816 3.8087546e-09
1.8238657e-09 2.0728708e-08 4.6596087e-09 0.363243 3.969581e-08 4.2929105e-09 3.7352674 0.17679864
22.127474 0.27123165 0.0006831255 1.5871688e-09 6.2851495e-07 4.74394e-09 3.9644997 7.4645573e-06
3.1175342 2.8311422e-09 1.3205663 2.2797893e-08 4.1855645 1.0879793 0.0002954682 8.019796e-07
0.14954932 5.6294494e-09 0.14015429 0.26145864 1.259006e-09 1.3985598 0.2954829 6.230545
5.3181396 3.9197543e-09 8.000814e-09 1.6353644 0.270621 0.26609495 9.5867815 1.3547453
0.00059961725 7.5368035e-07 2.105259e-09 0.23031896 0.22987236 9.841494 1.5579392e-08 10.175879
0.00010269943 3.2470029e-09 3.3990798e-08 1.4933755e-07 1.933374e-09 0.47117114 4.413261 1.8735099
0.0020575582 1.6968944e-09 4.8447873e-08 1.635066e-08 5.135728 3.1489267e-07 1.4225242e-09 4.6571465e-08
4.1275454e-09 8.554621e-09 2.4737612e-09 8.259291e-07 5.143238e-05 0.12898023 4.090446e-09 0.26576662
00000000: 810a 6e40 b3b4 1038 0525 1c41 b657 de32
00000010: 2102 1940 c110 e040 6034 573e 2cad 4141
00000020: 5fff 1d40 c8f4 1c3e 06ad 6c3e 4e05 6236
00000030: 8764 f53f 7395 083e ce2d 0231 5c5c 0e3e
00000040: 839d 1841 113b 1041 ee22 ad40 2881 4631
00000050: a6bd 3841 9d7b 0f30 33d2 0c32 005e d233
00000060: 20d1 9240 86d4 153e f7f1 1040 23d9 9840
00000070: f540 8440 429c c737 4b6d 3436 1902 a430
00000080: 58d9 2530 71af 1631 57da 5d40 67c3 6740
00000090: 330b f83b 3417 883e 59ca 9032 597e b631
000000a0: ffef 9140 e359 cb3e 66c3 a541 1c41 0a34
000000b0: 9413 0c3e f455 0531 0c4c 5530 4561 a73f
000000c0: 0cf6 0c39 7727 9330 9459 033f 47d5 a03f
000000d0: 511e 8c41 e1ca 1840 f062 0030 aea4 2835
000000e0: ca33 0631 135c 5c40 eb5e b03b 5bed 0432
000000f0: 5e13 6140 b67e 2041 eb0a c232 b90f 8840
00000100: 9f75 1241 0233 1b41 7adb 573e c473 953f
00000110: d12e ba3b d812 c33f 934b 9a40 b1e1 d73f
00000120: 75c5 8e41 42cc 2734 7837 ea3d 7ffc 7338
00000130: 9ee3 ca31 61b7 a83e fb7c 9932 1e55 bc37
00000140: 5de7 2541 94d0 903e 4f57 fa37 18de 9d30
00000150: cbd4 2041 4dc1 6d34 655f 6131 4f52 8f40
00000160: cbee 9431 36a4 b540 70fa 1135 d3ce 0a3e
00000170: ad0c 8140 9813 2532 5684 533e 697b f53f
00000180: 30e4 9730 94bc 7040 fba5 1541 d074 a233
00000190: 558f d031 8c14 563e 9f30 3d33 ab9f 8a3b
000001a0: e1ae b633 7ce9 7940 09a4 c73e 9e0e 7a30
000001b0: 3107 2232 8a27 fd30 3e87 9730 36d8 2341
000001c0: 563f 4a31 114f d23f 888a 2241 0cf7 793e
000001d0: 971e 953f c403 e03b 989c 5e40 d865 3132
000001e0: 2c01 773e 6053 153e 8e84 ee33 8ffa 733e
000001f0: 7117 d03f 50bd 823f 908f 1c30 541a a440
00000200: e91d 743e 0a17 ac3e 24f1 023e b0fe 3e32
00000210: 2f5b bd3c ea1b 763f c682 1f37 2de0 a431
00000220: 9ebd 1d31 4efa 1a3e 995e 363a 675a 0b32
00000230: 372e 2e31 cef6 8736 3a56 a540 b9da 9540
00000240: 518a 283b dadb 6336 59c6 6b31 0525 2e34
00000250: fc6d db31 e133 f141 7a77 ec3f 7935 9140
00000260: c1df 0b3e 7853 b93e d3d2 783e f349 cd3a
00000270: dc31 ae3f 8aa4 9331 a646 2c40 7c2d 7338
00000280: e918 ae3e 3fcd d333 caa8 8a3f 24c2 2f30
00000290: 6e21 873e d219 bf31 4d0d f02f 6dfe 3c32
000002a0: 4002 703a 15ef 3e30 3ff5 243d 9e6c 1241
000002b0: cbfb 3c31 a934 8041 ebc9 123e 0ec9 2030
000002c0: b504 9040 f34b 6a32 f116 5040 58bf 8f33
000002d0: f414 cb33 e035 8c3a 47bb 5c3e 29de 8231
000002e0: 92ab fa30 e90e b232 5a1a a031 fdfa b93e
000002f0: 017e 2a33 d780 9331 9f0e 6f40 b40a 353e
00000300: 1105 b141 e0de 8a3e c713 333a 8a23 da30
00000310: 38b7 2835 2300 a331 5dba 7d40 0f78 fa36
00000320: ae85 4740 fb8d 4231 5108 a93f 19d5 c332
00000330: 25f0 8540 e842 8b3f 12e9 9a39 9e47 5735
00000340: 7523 193e 296d c131 9b84 0f3e e8dd 853e
00000350: 5609 ad30 0204 b33f 8949 973e a060 c740
00000360: 332e aa40 86ae 8631 f473 0932 9f53 d13f
00000370: d68e 8a3e 993d 883e 7563 1941 4b68 ad3f
00000380: a22f 1d3a 8550 4a35 1cac 1031 bcd8 6b3e
00000390: a963 6b3e c276 1d41 72d3 8532 66d0 2241
000003a0: 5660 d738 e121 5f31 47fd 1133 9859 2034
000003b0: 46dc 0431 583d f13e 6f39 8d40 2ccf ef3f
000003c0: 19d8 063b 2a38 e930 0015 5033 7b73 8c32
000003d0: e257 a440 850e a934 9f82 c330 de05 4833
000003e0: 46d2 8d31 9ff7 1232 defe 2931 6ab5 5d35
000003f0: 19b9 5738 6513 043e f28b 8c31 9012 883e

weight f4 [256, 256]
0.010639802 -0.0023348841 0.09388083 -1.3619151e-06 0.006794866 0.3387137 0.35249543 0.063583165
-0.043819908 0.14068802 -0.3312026 -4.90148e-06 0.027584985 -0.017776003 6.0899083e-07 -0.090867355
-0.009038177 0.2439307 -0.057658438 1.3315146e-06 0.09933383 2.3461453e-07 -2.4377673e-06 1.1843327e-05
0.08881681 0.12087564 0.006204769 0.026184205 -0.043318287 -0.0004333671 3.1339056e-05 -1.7853812e-06
-5.5060264e-06 5.869189e-07 0.0077538043 0.09277379 -0.034043692 -0.56636494 7.7871355e-06 1.0188843e-06
0.069499925 -0.52024496 0.10691219 2.5782117e-06 0.23969513 -6.4234763e-07 1.6452752e-07 0.29254055
0.00016452046 1.5873554e-06 -0.0017754305 -0.13061789 -0.108211614 0.08955176 -1.1879271e-06 9.591522e-06
1.7363512e-06 -0.14479694 -0.0018907628 -3.9709573e-07 0.065152735 0.12668778 1.2966084e-05 -0.005876257
0.11724139 0.080251075 0.07123823 0.024260445 -0.010152753 -0.04850774 0.0048159324 0.09244496
-0.092919864 7.732225e-06 -0.017340265 -0.0026373197 -7.0683217e-07 0.14265172 3.1922248e-06 0.00049285643
0.17591994 0.1601012 0.00011284385 3.1360196e-07 0.12023256 1.3019249e-05 -5.945109e-06 0.0011885028
6.7200666e-08 -0.03728221 -1.1989811e-05 -0.026585242 -0.0031534627 1.5108053e-06 -0.31593007 0.024469405
1.496401e-06 0.06853811 0.10645923 1.7526105e-05 3.0381818e-07 -0.5080418 -4.1499945e-07 -0.031873964
3.9738352e-05 0.0060949507 0.0020176184 1.503407e-06 5.2011305e-06 1.4988093e-06 -4.612978e-07 -0.047427185
-9.942861e-07 -0.20367408 0.064065814 -0.36974865 -0.17774662 0.0014309307 -0.0057339454 2.5230554e-06
0.12964918 0.04633507 1.5447544e-05 -0.468772 0.17782559 -0.05530294 9.188074e-07 0.030537015
-0.36800438 -0.48173428 0.021034662 -1.7071994e-06 -0.022271816 0.17639391 -0.0024438673 2.0359948e-06
4.2435767e-07 0.120810956 -0.012912761 1.1780908e-05 2.5443853e-06 -0.0001526797 0.0868991 0.26138145
0.0039927685 0.00018174821 3.8081666e-06 3.5110304e-05 6.5185377e-06 -0.03531186 0.0076911254 0.08432049
0.1461389 0.025038363 -0.20740825 -8.6202366e-05 -0.0723928 -2.1491073e-06 0.18072812 0.00016552203
0.10591914 4.1483966e-07 0.12055399 9.5103655e-07 -0.3392403 -1.7318928e-06 -4.5177237e-07 4.928088e-06
-0.026420137 2.5976503e-06 0.0057672686 0.085131265 7.6876466e-07 -0.09801217 0.06403721 2.4977792e-06
-0.0047645303 -4.5026343e-07 -0.05517181 5.917637e-06 1.611856e-05 0.00013401067 -0.30151954 7.971344e-07
2.3339821e-06 4.555266e-06 1.0360777e-06 0.07199409 1.3510769e-05 5.059215e-06 0.07560771 0.12720157
0.0669535 -0.40496776 0.00034460143 -3.7558987e-06 1.4241676e-06 -5.787476e-07 -0.005537095 0.00016549526
0.041056853 -4.1157127e-06 -0.17218359 1.3576317e-06 -0.056672044 -0.06053177 0.001032973 1.6675231e-06
0.18583007 2.7343594e-06 0.1134901 -0.5152106 -5.8904214e-07 0.049021635 0.10764295 0.09204648
-0.10616222 3.3219103e-06 8.5212633e-07 0.0039444673 -0.468516 -0.46259904 0.1767911 0.18061058
-0.0030666585 0.00019192169 -1.9895376e-06 -0.40629658 -0.4367712 -0.07913895 9.293382e-06 0.103635974
0.0002921586 -3.5281556e-07 7.247229e-06 -7.4694017e-06 1.4011956e-06 -0.32586372 -0.0069516096 -0.028011886
-0.0017947431 3.525533e-10 7.2630787e-06 -6.7281053e-06 0.027908403 8.797046e-06 -2.5293714e-06 7.686579e-06
-4.38066e-06 9.307459e-06 3.2750813e-06 -0.00011590668 7.535493e-05 0.23488812 -2.1684096e-07 -0.37982067
00000000: 9052 2e3c db04 19bb 9844 c03d 0ccb b6b5
00000010: 78a7 de3b e26b ad3e 487a b43e e437 823d
00000020: 817c 33bd 8510 103e 6393 a9be 6577 a4b6
00000030: e8f9 e13c fb9e 91bc 8879 2335 aa18 babd
00000040: dd14 14bc f8c8 793e 412b 6cbd 7eb6 b235
00000050: 896f cb3d 5aea 7b34 8698 23b6 b4b2 4637
00000060: 96e5 b53d a68d f73d 6051 cb3b 4280 d63c
00000070: 846e 31bd 8c35 e3b9 0e72 0338 3ba1 efb5
00000080: 68c0 b8b6 c28c 1d35 a013 fe3b 2f00 be3d
00000090: 6671 0bbd 4bfd 10bf 7ea5 0237 99c0 8835
000000a0: fa55 8e3d c62e 05bf c7f4 da3d 5705 2d36
000000b0: a472 753e cb6d 2cb5 fba8 3034 e0c7 953e
000000c0: 2083 2c39 1e0d d535 90b5 e8ba b2c0 05be
000000d0: 0d9e ddbd ea66 b73d dd70 9fb5 46eb 2037
000000e0: 930c e935 a645 14be 79d3 f7ba 6c30 d5b4
000000f0: cc6e 853d 71ba 013e e888 5937 9e8d c0bb
00000100: 411c f03d ad5a a43d 59e5 913d d7bd c63c
00000110: bc57 26bc 0db0 46bd f8ce 9d3b c853 bd3d
00000120: c54c bebd a7b9 0137 2c0d 8ebc e2d6 2cbb
00000130: 23bd 3db5 4b13 123e 013a 5636 0933 013a
00000140: 5b24 343e 92f1 233e 95a6 ec38 205d a834
00000150: 7d3c f63d 406d 5a37 197c c7b6 89c7 9b3a
00000160: f54f 9033 3bb5 18bd d927 49b7 4bc9 d9bc
00000170: 53aa 4ebb e0c6 ca35 96c1 a1be 1074 c83c
00000180: f2d7 c835 b55d 8c3d 4c07 da3d 0605 9337
00000190: 741c a334 070f 02bf 17cd deb4 468e 02bd
000001a0: bbac 2638 27b8 c73b 053a 043b acc8 c935
000001b0: 5f85 ae36 b22a c935 49a8 f7b4 0243 42bd
000001c0: 6973 85b5 f08f 50be f034 833d b24f bdbe
000001d0: 3603 36be 118e bb3a d2e3 bbbb c351 2936
000001e0: c1c2 043e d8c9 3d3d 5995 8137 e202 f0be
000001f0: e917 363e 5685 62bd f7a3 7635 c328 fa3c
00000200: 126b bcbe e0a5 f6be e250 ac3c ed22 e5b5
00000210: 6273 b6bc 9ba0 343e 4a29 20bb 20a2 0836
00000220: 46d3 e334 bc6b f73d 0c90 53bc 9da6 4537
00000230: 35c0 2a36 a518 20b9 28f8 b13d cad3 853e
00000240: c5d5 823b aa93 3e39 ce8f 7f36 6743 1338
00000250: d0b9 da36 2ba3 10bd d605 fc3b 39b0 ac3d
00000260: 70a5 153e 411d cd3c d462 54be 8bc7 b4b8
00000270: ad42 94bd 6239 10b6 cb10 393e fb8f 2d39
00000280: 22ec d83d 21b7 de34 03e5 f63d bc4a 7f35
00000290: e8b0 adbe 6273 e8b5 1f8b f2b4 f45b a536
000002a0: 0b6f d8bc 4b53 2e36 5bfb bc3b 4d59 ae3d
000002b0: 1b5d 4e35 9bba c8bd f125 833d 859f 2736
000002c0: c71f 9cbb bcbb f1b4 d6fb 61bd 1d90 c636
000002d0: 5836 8737 3785 0c39 c560 9abe a9fa 5535
000002e0: 82a1 1c36 70d9 9836 5c0f 8b35 a371 933d
000002f0: 50ac 6237 53c2 a936 37d8 9a3d 2141 023e
00000300: eb1e 893d ef57 cfbe 9fab b439 d90d 7cb6
00000310: 0726 bf35 3b5b 1bb5 8570 b5bb cc88 2d39
00000320: 3b2b 283d b419 8ab6 e550 30be df37 b635
00000330: f220 68bd 29f0 77bd d364 873a a8cf df35
00000340: 3d4a 3e3e f07f 3736 7f6d e83d d8e4 03bf
00000350: ab1e 1eb5 e9ca 483d e873 dc3d dd82 bc3d
00000360: 946b d9bd fced 5e36 adbd 6435 9740 813b
00000370: 54e1 efbe c8d9 ecbe ba08 353e fbf1 383e
00000380: fef9 48bb 963e 4939 ff83 05b6 1b06 d0be
00000390: 7aa0 dfbe 9a13 a2bd c6ea 1b37 193f d43d
000003a0: dd2c 9939 9a6a bdb4 392d f336 aca1 fab6
000003b0: b710 bc35 9cd7 a6be 54ca e3bb 2f79 e5bc
000003c0: 963d ebba 77d1 c12f 5fb5 f336 fcc1 e1b6
000003d0: 2aa0 e43c 0697 1337 45be 29b6 9bf5 0037
000003e0: 95fd 92b6 3b27 1c37 78c9 5b36 ed12 f3b8
000003f0: df07 9e38 8386 703e cad4 68b4 db77 c2be
