Plots old/naive models/results_FCNN_3L_40ED_no_sched/e_10_model.pt (torch, 71019 bytes, 13 tensors)

weight f4 [128, 54]
000000 ba a5 bd bd 1d 03 0f be da 60 b0 be 1a fd 2d be
       -0.092601255 -0.13966031 -0.34448892 -0.16991082
000010 ec 1c b7 3c c0 fe 11 be 3e 3e 26 be 77 98 48 3e
       0.022352658 -0.14257336 -0.16234681 0.1958941
000020 be 2c 1c 3c ee 4c ba bd 5d 34 0f be 54 c4 96 3c
       0.009532152 -0.090967044 -0.13984819 0.018404163
000030 03 e8 8e 3e d7 e4 95 3e 9c 13 05 be 7c 95 0d be
       0.27911386 0.29276153 -0.12995762 -0.13826555
000040 94 28 e5 3d fc c9 94 3d 72 ae ac 3e fd a9 29 be
       0.1118938 0.07265088 0.3372684 -0.16568752
000050 9b f4 20 3d bf ee 88 bd 96 aa 80 bd 06 39 66 bd
       0.039295774 -0.06686162 -0.06282537 -0.056206726
000060 ac 60 2d bb ce 2d e4 3d ba 62 a3 bd e0 2b 5e 3d
       -0.0026455326 0.11141549 -0.07977815 0.05424106
000070 cc 33 2d 3d e3 4e a2 ba 7d c1 fb bc 7b 42 8b 3d
       0.042285725 -0.0012383129 -0.03073191 0.067997895
000080 11 a3 98 bd b6 b1 3d 3a 24 ae e1 bb ee 58 36 bc
       -0.074529774 0.0007236259 -0.0068872143 -0.011129601
000090 69 35 08 3d 89 a5 9d 3c 07 8a d4 bc 11 21 d5 bc
       0.03325406 0.019243972 -0.025944723 -0.026016744
0000a0 59 5a 96 3d 16 0d 5f 3d 58 db db 3c 1f 83 89 3d
       0.07341451 0.05445584 0.02683799 0.067144625
0000b0 11 bf 97 3c da 42 d1 bc 24 52 9d 3d cc cc 75 bc
       0.018523725 -0.025544573 0.07681683 -0.015002441
0000c0 14 5f f9 bc 3f 47 47 3d f6 9b ef bc 02 5b 21 3c
       -0.030440845 0.04865193 -0.029249173 0.009848358
0000d0 bc ad 3d bd 7d ff 70 bc cc 9b b7 bd 33 a0 d9 bd
       -0.046308264 -0.014709351 -0.08965263 -0.10626259
0000e0 5b dc 0a bd cc 6e 42 bd 7d 70 74 bd a3 f0 ca bd
       -0.033901554 -0.047468945 -0.05967759 -0.09909179
0000f0 cc 02 14 be 4a ea 3c 3c 71 31 4f be e5 72 75 bd
       -0.14454192 0.011530468 -0.20233704 -0.059924025
000100 97 d2 81 be d3 a3 92 bc 33 9b 4f 3f 0b 39 89 3c
       -0.2535598 -0.017900383 0.8109619 0.016750833
000110 d2 5d a8 bd 3c 95 7c be 7d 56 b0 bd 19 5e 10 bd
       -0.0822102 -0.24666303 -0.08610246 -0.03524599
000120 93 15 b1 bd 55 c2 87 3c 84 8e b9 bd 29 e2 66 bd
       -0.08646693 0.016572157 -0.09060386 -0.056368027
000130 1e fd 41 bd ff e1 9d 3b 32 8f 2b 3d 19 2d 16 3e
       -0.047360532 0.0048182006 0.04188461 0.14665641
000140 78 ee c9 bb df 76 99 bc 9c 4e 41 3d 46 90 53 3d
       -0.006162461 -0.01873344 0.04719411 0.05165126
000150 7a 46 08 bd 02 95 47 bc 0c 0e 3d bc 4d d6 d9 3d
       -0.033270337 -0.012181522 -0.011538994 0.10636578
000160 97 57 57 3d d3 84 02 3d c3 20 ab bd 30 ac 93 3c
       0.052573767 0.031864952 -0.08355858 0.018026441
000170 43 86 b6 bc 60 49 03 3d 62 25 fa bd c2 d9 28 bd
       -0.022280818 0.032052398 -0.122141615 -0.041223295
000180 64 67 3f bc 75 de 17 3d 29 56 a4 3c 26 d7 f4 bc
       -0.011682365 0.037077386 0.020060616 -0.029887747
000190 98 1c a1 bc e6 77 c7 3c eb af 89 bb e8 64 91 3d
       -0.019666955 0.024349164 -0.0042018793 0.070993245
0001a0 2e 70 83 3d a2 0a 0b be 4c c0 82 bd 47 ac e7 3d
       0.06417881 -0.13578275 -0.06384334 0.11312156
0001b0 1e 2a 18 3e 0a e4 5f bd 3d 22 8b 3d 19 51 40 bc
       0.14859816 -0.054660834 0.0679364 -0.011738085
0001c0 49 fc 0c 3a b4 10 1e bd 5a d6 90 bd a7 d5 37 3d
       0.00053781696 -0.038590148 -0.07072134 0.04488149
0001d0 5d 67 8a bd d8 04 d4 bd 30 12 91 bc 2b 2d 0c bc
       -0.06757996 -0.10352486 -0.017708868 -0.008555691
0001e0 04 5f 89 3f c3 f0 63 bc c5 33 59 bc 7c 14 2f 3d
       1.0732121 -0.013912383 -0.013256972 0.042744145
0001f0 f3 e3 5c bd 51 f9 0a 3c c5 f5 83 bd 7a 40 26 bc
       -0.053928327 0.008482293 -0.06443361 -0.010147208
000200 38 e6 87 3c da 8e 22 bc 29 24 0e 3d 26 df 81 3b
       0.016589269 -0.009921754 0.034702454 0.003963369
000210 33 ba 60 3d 9e 90 1d 3e 0a 24 29 bd 3e 90 98 bd
       0.054865073 0.15387198 -0.041294135 -0.07449387
000220 6a 81 47 bc 80 05 0d 3d fa cb 56 3d 75 60 8f bb
       -0.012176851 0.034429073 0.05244062 -0.0043755122
000230 80 af a7 3c 3c 7c c7 bc 04 be 73 3d b0 e2 c4 bd
       0.020469427 -0.024351232 0.059507385 -0.0961355
000240 a4 d1 5a bd 1e f5 0d bd 6a 22 41 3d 66 b1 6f bd
       -0.053422585 -0.03465759 0.04715196 -0.05851879
000250 30 6d 5a bc 15 f1 35 be 92 61 cb bd a0 64 80 bd
       -0.013331696 -0.17767747 -0.099307194 -0.06269193
000260 ef 20 c9 3d 3d 58 b3 3c c8 be a3 3d bb 00 38 3d
       0.09820735 0.021892661 0.07995373 0.04492257
000270 60 36 15 bd 14 ca 52 3d 92 f0 90 bd 7c 80 0a 3c
       -0.03642881 0.051462248 -0.07077135 0.008453485
000280 8a 06 76 bd 86 e2 8b 3d 4d ae c4 bd a8 ec e1 bd
       -0.06006483 0.06830315 -0.09603558 -0.11031467
000290 88 92 ac bd 75 2a b3 be 18 90 3b be b4 d6 4d bd
       -0.08426386 -0.3499333 -0.18316686 -0.050253585
0002a0 62 9f 25 bd 64 ee 8c bd 27 16 76 be 07 bb 80 be
       -0.040435202 -0.06881407 -0.24031888 -0.2514269
0002b0 ad 73 18 3d 0c 57 66 3e bf 40 37 bd 5f 07 0e be
       0.037219692 0.22494143 -0.04473948 -0.1387
0002c0 7b 96 30 be db e7 9b bd 5f d0 74 3e c4 3f 21 bc
       -0.17244904 -0.07612582 0.23907612 -0.009841863
0002d0 45 cb c0 bd 42 94 05 be 01 c4 85 be 01 9e 6c bd
       -0.094137706 -0.13044837 -0.26126102 -0.05776787
0002e0 0b 38 c6 bd 58 80 46 be 26 53 b1 bd cd a0 f9 3c
       -0.09678658 -0.19384897 -0.086584374 0.030472184
0002f0 86 bd 22 be 1d 01 23 bd 8c cc 66 3d 6e b5 32 bc
       -0.1589261 -0.039795984 0.056347415 -0.010907514
000300 41 52 10 bb dd 63 21 3c e6 a8 cd 3d 3a ea 67 3d
       -0.0022021683 0.009850469 0.100419804 0.05661986
000310 94 25 9e 3d e7 e5 a5 bc 25 b8 85 bd bf bf d1 3c
       0.07722011 -0.020251228 -0.065292634 0.025604127
000320 20 99 91 3b 78 ee 7d bd bb dc e0 bc f5 b0 41 bd
       0.0044433028 -0.061995 -0.027449002 -0.0472879
000330 c2 51 db bd 43 22 a7 bc a5 c5 db bc 8b 0e 91 bc
       -0.107089534 -0.02040208 -0.026827643 -0.01770713
000340 61 40 e2 3c 94 e7 3d bd 09 80 4b 3d 1f 70 fa 3d
       0.027618589 -0.04636343 0.04968265 0.12228417
000350 d3 bf 81 bd 7d 55 1c bd 56 55 c5 3c db fe d6 3d
       -0.06335416 -0.038167465 0.024088543 0.104978286
000360 02 9b 1d be 10 f6 08 3e 59 2c 84 bd ba 27 71 3c
       -0.15391162 0.13375115 -0.06453771 0.014718944
000370 10 88 d8 bd 90 7e 36 3d 59 58 13 bd 76 c0 89 bd
       -0.10572827 0.044554293 -0.035972927 -0.06726162
000380 01 c7 4c 3d 6a 6a 69 bd 0b f8 5d 3d 5a 81 e8 3b
       0.049994472 -0.05698625 0.05419163 0.007095498
000390 fa a4 2c 3f 6d b4 91 3c 29 bf dc bb b7 10 a5 bd
       0.67439234 0.017786229 -0.0067366553 -0.08059829
0003a0 da d2 c5 3d 2a 93 79 bc a2 12 ae ba 0e f1 77 bd
       0.09659357 -0.015232841 -0.00132807 -0.060532622
0003b0 6c c3 e5 bd 98 d0 74 bc f0 6f b5 3c 6a ce 9c bd
       -0.112189144 -0.014942311 0.022148103 -0.07656558
0003c0 b7 4e ed be ba 66 06 3e 6d c3 d0 3c f0 c0 4a be
       -0.46349117 0.13125125 0.025483811 -0.19800162
0003d0 75 a6 60 3e 46 f5 0c 3d 92 ef 5b 3c e6 2d c4 bd
       0.21938498 0.0344136 0.013423817 -0.09579067
0003e0 19 a9 0c bd 5c 8d 12 3e f3 43 bb 3c a4 7f 14 3d
       -0.03434095 0.14311737 0.02285955 0.03625454
0003f0 bc 67 d6 bd cf ca 54 3d 31 d7 9e 3d 2a e2 20 3d
       -0.104690045 0.051951226 0.07755888 0.039278187

bias f4 [128]
000000 db 17 c3 bd e5 a9 08 3e e8 b8 9f bc 1e 4f 3c 3c
       -0.095260344 0.1334606 -0.01949735 0.011493472
000010 f2 76 f5 3c 2c 77 1c 3d 7a 3c 05 be 4e 2b 57 bd
       0.029963944 0.03819959 -0.13011351 -0.052531533
000020 f4 a8 79 3c 2d 59 33 bd 3e b5 74 3a 68 c6 4c 3d
       0.0152380355 -0.043786217 0.00093348685 0.049993902
000030 52 e9 85 3d 1a 1a 04 be 75 71 26 3e 75 c2 f8 3d
       0.06538643 -0.12900582 0.16254218 0.12146465
000040 4c c6 ef 3d 0a 7e b2 3c de 88 0b be 4d 99 80 bb
       0.11707744 0.021788616 -0.1362643 -0.003924525
000050 ee 75 91 bd 50 8b c5 3d 2c e0 0c bd e9 40 aa bb
       -0.071025714 0.096457124 -0.034393474 -0.005195726
000060 d0 64 a1 bd 86 6c 9d 3b 05 f1 4f 3d f6 a5 d6 bd
       -0.078805566 0.004804197 0.050766964 -0.10480873
000070 59 0b 7a 3d d8 73 c1 bc 30 f1 5f bd ae 69 4e 3d
       0.06104598 -0.023614809 -0.054673374 0.050393753
000080 bd 82 d6 3b 49 21 7d bd 28 99 ce 3d 0a 01 6f 3d
       0.006546347 -0.06179932 0.10087806 0.0583506
000090 09 c6 19 3e 41 a1 87 3d 88 cc 30 3d 08 d8 87 3c
       0.1501695 0.066225536 0.043163806 0.016582504
0000a0 39 4f c6 bd ea f8 3f bd f9 a1 35 3d 23 6f 8b bd
       -0.09683079 -0.046868242 0.044343922 -0.06808307
0000b0 68 9b bf bd bf da d8 bd bc 7d f6 bd 4c 23 8f bc
       -0.09355813 -0.105885975 -0.12035701 -0.017472886
0000c0 be 54 5e bc 3f ad a0 3d 7c 32 8c bd cc 3b a6 39
       -0.013570009 0.07845544 -0.06845567 0.0003170654
0000d0 cb 96 a3 3d 02 43 c4 3d 6c 9b 97 bd c7 36 ff bc
       0.07987746 0.09583093 -0.07402691 -0.03115405
0000e0 2a 24 e1 bd 97 b5 28 3d 1e c6 2e 3d fd af a8 3d
       -0.10993226 0.041188803 0.042669408 0.08236692
0000f0 c5 c2 4f 3c fc 52 45 bd b0 b9 ce bd 55 60 96 3b
       0.012680714 -0.048174843 -0.10094011 0.0045891204
000100 21 2b 88 3d 13 7e 96 bd c3 0b d8 3c ce 1f cc bc
       0.06648851 -0.073482655 0.026372796 -0.02491751
000110 89 8d 96 bd 1e a8 f3 bd 3a 1c b7 3d c2 d7 db 3d
       -0.073512144 -0.118973 0.08940931 0.10734512
000120 ec c3 6e bd 22 6e f0 3d 43 57 97 3c 82 30 f2 3d
       -0.058292314 0.11739756 0.018474227 0.118256584
000130 96 68 41 bd 70 c2 f3 bd dd d7 a9 3b 6a b9 ca bb
       -0.04721888 -0.119023204 0.0051832036 -0.006186654
000140 b6 20 6b 3d 38 83 ee 3d d0 cc da bd 6f 55 cf 3c
       0.057404242 0.11646122 -0.10683596 0.025309293
000150 30 92 2e 3e 04 ca fa 3b 90 6a e3 bc 3f d4 80 3c
       0.17047954 0.0076534767 -0.027760774 0.015726207
000160 68 54 dd bc 98 12 f1 3c ea 0b 38 bd ab cd 16 3e
       -0.027017787 0.029427812 -0.044933237 0.14726894
000170 c6 6a 35 3d 95 1f da bd d7 67 4e 3d fa b7 14 be
       0.04429128 -0.10650555 0.050392 -0.14523306
000180 8e 70 fc 3d b4 20 8e bd 0d fc 04 bb ed 04 80 bd
       0.123261556 -0.069398314 -0.0020291836 -0.062509395
000190 3e 89 97 bb 3a df 87 bd d2 bd dc bd 64 83 9d 3d
       -0.004624515 -0.06634374 -0.10778393 0.076910764
0001a0 54 22 c2 3c cb 6b 2e 3c 3e f9 2b 3d 76 8d a5 bd
       0.02369801 0.010645817 0.041985743 -0.08083622
0001b0 3e bd 87 3d 65 9c 89 3c 7d b5 0e 3e 6d 22 84 bc
       0.06627892 0.016798208 0.1393642 -0.016129697
0001c0 f3 75 3a bd 0e 54 ac bc a5 49 09 3c 94 b7 fb 3c
       -0.04552264 -0.021036174 0.008379375 0.030727185
0001d0 37 d7 d9 3c 18 af 0a 3c 1d 4d e7 3d 34 34 26 3d
       0.02659188 0.008464597 0.11294005 0.04057713
0001e0 9a ff 2e bb 05 59 a1 3d 44 e5 a9 bd f4 8c f2 bd
       -0.0026702643 0.07878307 -0.08295682 -0.11843291
0001f0 09 0e 63 bd 29 f7 d9 3c 40 40 a2 3d 96 4a f8 bd
       -0.055433307 0.026607113 0.07922411 -0.12123601

weight f4 [128]
000000 c9 71 75 3f 60 41 67 3f ff f0 28 3f d8 ab 45 3f
       0.9587675 0.9033413 0.6599273 0.7721534
000010 dc 4a 58 3f 5e 76 18 3f b9 89 15 3f 8d 6d 14 3f
       0.84489226 0.59555614 0.58413273 0.5797966
000020 06 23 35 3f 45 09 46 3f 8a 20 50 3f 68 3e 40 3f
       0.70756567 0.77357894 0.8129965 0.75095224
000030 80 12 63 3f a3 99 f5 3e 26 66 25 3f 8c 81 5c 3f
       0.88700104 0.47968778 0.6460899 0.8613517
000040 b0 69 29 3f 17 81 66 3f 17 f7 4d 3f ad 22 11 3f
       0.6617689 0.90040725 0.80455154 0.56693536
000050 62 4c 47 3f a5 c7 1a 3f 7e 5b 52 3f 83 fe 35 3f
       0.77850926 0.60460883 0.82170856 0.7109148
000060 46 64 4c 3f 05 e2 5a 3f 28 5f 31 3f 84 9d 4b 3f
       0.79840505 0.8550113 0.6928582 0.79537225
000070 4f 14 34 3f 8a 8d 51 3f e2 5b 5b 3f 13 e3 10 3f
       0.7034349 0.81856596 0.8568708 0.5659649
000080 5d 19 00 3f cf ef 36 3f df 0c 30 3f 00 ba 53 3f
       0.500387 0.7145967 0.6876964 0.8270569
000090 af e3 29 3f 03 68 5f 3f 5d 67 33 3f d6 d0 53 3f
       0.6636304 0.87268084 0.70079595 0.82740533
0000a0 0c ba 1c 3f ef 32 53 3f ed 8c 59 3f 89 53 2e 3f
       0.61221385 0.82499593 0.8498066 0.68096215
0000b0 bc 5c 4a 3f a6 1f 3e 3f c8 17 11 3f f3 eb 5e 3f
       0.7904775 0.7426704 0.5667691 0.8707878
0000c0 8b 22 62 3f c8 12 48 3f 63 db 32 3f 8c 6b 55 3f
       0.8833396 0.7815366 0.6986601 0.8336723
0000d0 05 39 50 3f d1 fd 40 3f cb fc 3b 3f df 7b 27 3f
       0.81337005 0.75387293 0.73432606 0.6542339
0000e0 1f e6 3a 3f b4 f3 62 3f 8f 82 51 3f d9 1e 55 3f
       0.73007387 0.8865311 0.8183984 0.83250195
0000f0 01 1b 28 3f 03 5e 38 3f bd 66 24 3f a1 b2 47 3f
       0.65666205 0.7201845 0.64219266 0.7800694
000100 f7 20 24 3f 35 08 36 3f 61 a3 5a 3f b1 5e 0e 3f
       0.641128 0.7110627 0.85405546 0.5561324
000110 31 14 3c 3f 78 f8 44 3f 67 77 46 3f e2 eb 2f 3f
       0.7346831 0.76941633 0.77525944 0.68719304
000120 2b b6 26 3f f4 4f 43 3f d5 c5 23 3f 12 63 5c 3f
       0.65121716 0.76293874 0.6397374 0.8608867
000130 0f 72 0f 3f 84 16 4e 3f fd b1 38 3f 70 5b 3f 3f
       0.56033415 0.80503106 0.7214659 0.747489
000140 06 00 71 3f 50 31 14 3f 68 1a ff 3e cf 5c 51 3f
       0.9414066 0.57887745 0.49824834 0.8178224
000150 ae 69 08 3f d6 58 59 3f 82 f0 6b 3f a3 14 ea 3e
       0.53286254 0.8490118 0.9216386 0.4571887
000160 bf 16 3d 3f b4 ad 49 3f bf 0b 32 3f c5 a7 4f 3f
       0.7386283 0.78780675 0.69549173 0.8111537
000170 cc c3 59 3f fe 3e 58 3f ff 0d 19 3f ee 7a 35 3f
       0.8506439 0.8447112 0.5978698 0.708907
000180 c1 06 5a 3f 89 c0 5a 3f f8 4d 70 3f e5 21 4d 3f
       0.85166556 0.85450035 0.9386897 0.80129844
000190 7e 61 46 3f 10 3e 4e 3f 64 0e 59 3f 1e cd 5e 3f
       0.7749251 0.8056345 0.84787583 0.87031734
0001a0 24 78 4c 3f 5d e6 11 3f 98 ca 38 3f 12 23 b9 3e
       0.7987082 0.5699213 0.72184134 0.3615957
0001b0 90 86 3c 3f 7e b9 56 3f 72 18 29 3f cb 81 3a 3f
       0.73642826 0.8387679 0.66052926 0.728543
0001c0 e1 0d ff 3e 68 f7 5e 3f df 1c 4f 3f b1 4f 3e 3f
       0.49815276 0.8709626 0.8090343 0.7434035
0001d0 49 f2 4b 3f ee c0 1e 3f 68 e5 3b 3f c8 22 25 3f
       0.7966657 0.6201314 0.7339692 0.64506197
0001e0 37 5b 54 3f bd 88 23 3f 72 e2 15 3f db 2c 09 3f
       0.8295168 0.6388052 0.58548653 0.5358407
0001f0 4c ed 1f 3f 2c 8e 57 3f be e6 19 3f 1e 32 4b 3f
       0.6247146 0.8420131 0.6011771 0.7937335

bias f4 [128]
000000 ca 50 09 be cf 62 96 3b 7d 3b b7 be 68 a7 02 be
       -0.13409725 0.0045894156 -0.35787573 -0.12759173
000010 d7 96 34 3d 80 7b c9 be 3d 0c 39 be 78 90 25 be
       0.044089165 -0.39352036 -0.18071075 -0.16168392
000020 3c 9b b7 3d c0 9d 17 3e 5f 4c fe bd 5d 1d 52 3d
       0.089651555 0.1480627 -0.124169104 0.051297534
000030 1a 4b ef 3c 37 50 7f be b2 b8 ca be fb 0a 49 bd
       0.029210616 -0.24932943 -0.39594036 -0.049082737
000040 c5 9c 83 be 62 74 2c bd 6a 15 9d 3d 3b 24 57 be
       -0.25705543 -0.04210318 0.076701 -0.21009915
000050 87 e4 19 be 84 5d ef be 6f 0e 45 be 1f 2a 35 3c
       -0.15028583 -0.46751034 -0.19243787 0.011057406
000060 28 50 2c 3e 0a 14 1e be 68 aa 35 be c8 79 78 be
       0.16827452 -0.15437332 -0.17740786 -0.24265206
000070 49 01 d1 be 6f b2 87 3c 5b 35 22 3d a8 f2 f2 be
       -0.40821293 0.016564576 0.039601665 -0.47450757
000080 f4 41 b3 be dc c2 1e 3e 65 66 80 3d 99 c3 5d be
       -0.35011256 0.1550402 0.0626953 -0.21656646
000090 3e 78 af be ca 6a 89 3d b4 2e 28 be 55 a2 48 3d
       -0.34271425 0.067098215 -0.16424066 0.048982937
0000a0 a9 57 e0 3d b2 d2 2a 3e 74 2f 89 bd 99 81 c8 be
       0.1095422 0.16681936 -0.06698504 -0.39161375
0000b0 66 44 a6 3d 96 cb 8c 3d 2f e7 cb be 76 ce 8f 3d
       0.08118515 0.068747684 -0.39824817 0.07021801
0000c0 55 72 eb 3c 59 3d 10 be 9c 76 2b 3e 2f 84 ac bd
       0.028741041 -0.14085902 0.16744465 -0.084236495
0000d0 25 27 d8 3d 66 fc 88 be af 90 73 be c5 8c 3a be
       0.10554341 -0.26755065 -0.23785661 -0.18217762
0000e0 96 af 42 3d ab 9c 6d be 68 78 cb 3c 15 1d 98 3d
       0.047530733 -0.23204295 0.024837688 0.07427422
0000f0 77 90 36 bd 39 f3 96 bc 3f 3b b3 3d 45 42 2b be
       -0.044571366 -0.018426524 0.08751535 -0.16724499
000100 80 9c 01 be 3e 93 3a be 94 6b 39 3e 2f 4d 0c bf
       -0.12657356 -0.18220231 0.18107444 -0.5480527
000110 4b fc 12 3e bf f6 0a 3e 9e f8 e6 3d 6a e5 eb be
       0.14354055 0.13570689 0.11277889 -0.46073467
000120 27 a1 cb be 94 c9 c7 3d 95 00 d5 bd 70 b7 24 bd
       -0.39771387 0.09755245 -0.10400502 -0.040214002
000130 6c e7 bf be fa e1 0d ba 98 36 9d 3d 81 6b c7 be
       -0.37481248 -0.0005412396 0.076764286 -0.38949206
000140 40 8e 61 bd 7c 9e 70 be a1 81 dc be 91 1e 02 bd
       -0.0550673 -0.23497957 -0.4306765 -0.03176743
000150 62 91 25 bf 87 e1 49 3d fe 94 dd bc 82 e7 4c bf
       -0.6467496 0.049287345 -0.027048584 -0.8004075
000160 7b 55 1d bd 90 02 d6 bd 4c 93 21 be 04 f7 d4 bd
       -0.0384116 -0.104497075 -0.15778846 -0.10398677
000170 14 54 12 be c7 1a 33 be c0 4e 7a be 42 53 2f 3e
       -0.14289886 -0.17490683 -0.24444103 0.17121604
000180 7d b9 fd bd bc dc df bc 39 55 07 3e 37 1d 28 3e
       -0.12388895 -0.027326934 0.13216104 0.16417395
000190 9a 24 e7 3d 4f 1b 58 3e 9d 09 83 bc 22 9b f6 bd
       0.11286278 0.21104167 -0.015995795 -0.12041308
0001a0 6d 53 4a bd 67 e0 16 bf 48 34 dd bd fa 8f 36 bf
       -0.049395967 -0.5893616 -0.108009875 -0.7131344
0001b0 a2 4f 92 bd 72 df e1 3d 5c 90 21 bd 22 cd e3 be
       -0.07144095 0.11028947 -0.039444312 -0.4449244
0001c0 84 56 ac be a1 9f 78 3d ac a6 53 bd f4 4e af be
       -0.33659756 0.06069911 -0.051672623 -0.34239924
0001d0 05 63 c6 3d 85 80 78 bd b9 a0 5a be 21 52 6a be
       0.09686855 -0.06066944 -0.21350373 -0.22882892
0001e0 86 7e 92 be 33 ff 5d be 48 88 d7 be b6 cf 36 bf
       -0.28612155 -0.21679382 -0.42096162 -0.7141069
0001f0 45 50 6f be 06 bb 4a bc e9 4f 48 be e0 d2 39 3e
       -0.23370464 -0.012373691 -0.19561733 0.18146849

running_mean f4 [128]
000000 42 f0 3c be 23 06 d0 3d 06 a1 1e bd d4 37 0f bd
       -0.18451026 0.101574205 -0.038727783 -0.03496535
000010 72 8d 32 bd b6 58 19 3e ee 7f 17 be af f0 ee 3c
       -0.043591924 0.14975247 -0.14794895 0.029167501
000020 24 ef c2 bd d2 72 1c be f0 d2 53 be 8d a9 9b bd
       -0.09518269 -0.15278175 -0.20685935 -0.076006986
000030 00 d2 ac b8 5e f1 93 bd 6a c5 26 3e 2b 06 9c bc
       -8.240715e-05 -0.072237715 0.16286245 -0.01904591
000040 49 27 52 3e c2 1e a8 bc 10 b5 8c be 14 57 0c 3e
       0.20522799 -0.020522479 -0.2748189 0.13705093
000050 e6 72 80 be 8a bb f0 3d d1 96 c7 bd c6 f8 ab 3d
       -0.2508766 0.1175452 -0.09745563 0.08397059
000060 60 65 08 be be fd c7 bd 58 e0 4a bd 52 5f 30 be
       -0.13319921 -0.09765194 -0.049530357 -0.17223862
000070 10 b4 16 3d a0 38 a0 bd 71 51 86 bd 94 66 29 3e
       0.036792815 -0.078233 -0.065585025 0.16543037
000080 53 2e a0 3d 5f d6 11 be fe 51 15 3e a8 f3 6c bc
       0.07821336 -0.14241932 0.14582059 -0.014462389
000090 12 53 1f 3e bc 13 8d 3d d0 d1 98 3c 6e 45 84 3d
       0.15559033 0.0688853 0.018654734 0.06458555
0000a0 f3 30 56 bd 7a f0 3c be c9 e4 ba 3d 9e 8e e9 3c
       -0.052292775 -0.1845111 0.091256686 0.028510388
0000b0 74 4c 7b be 4d 25 b7 bd c0 05 59 bb 76 7a c5 bd
       -0.24540883 -0.089426614 -0.0033115 -0.09642498
0000c0 aa 7f e5 bd 51 d4 8d be 1a d5 67 bd b0 fc 3b bd
       -0.112059906 -0.27701047 -0.056599714 -0.04589528
0000d0 1e e5 fa bd 37 d7 d4 3d b4 cb 99 bd 1c af e3 bd
       -0.12250732 0.103926115 -0.075095564 -0.11117384
0000e0 8b b4 31 be 55 6b f8 bd 78 db 5b bc 7a fe 1b bd
       -0.17354028 -0.12129847 -0.013419025 -0.038084485
0000f0 62 bb ea bd db 97 1d 3d b2 b9 e7 bd c0 f7 31 be
       -0.11461522 0.0384749 -0.113147154 -0.17379665
000100 9d c2 ee 3d 22 0a 95 be 1e e6 0c be d3 f6 34 bd
       0.11658213 -0.29109293 -0.13759658 -0.044180702
000110 62 6e 78 be a5 ab 80 be b1 9d a6 3d 85 31 9b 3d
       -0.24260858 -0.25130954 0.08135546 0.075778045
000120 f8 e0 00 bc 5d 54 25 3e ba 8a f8 3d 40 b4 31 bc
       -0.007866137 0.16145463 0.12135835 -0.010846198
000130 ec 07 da 3d 27 ad be be 2c 1b 9e bd b4 48 5b bd
       0.10646042 -0.3724148 -0.077200264 -0.053536132
000140 8b 4e 77 bd b3 c3 5f 3d f9 3d d4 bd 28 27 45 be
       -0.06037764 0.054629993 -0.10363383 -0.19253218
000150 8a 31 9c 3e 2a f0 b3 bd cf 59 13 be 52 ed d5 3d
       0.30506545 -0.08786042 -0.14389728 0.10445656
000160 16 c7 15 be b9 69 b9 3c a7 9f 63 be 03 77 e9 3d
       -0.14626727 0.02263342 -0.22228871 0.11399653
000170 94 1e f1 3d c9 08 96 be 34 28 e2 3d 3d 0d 68 be
       0.117734104 -0.29303578 0.110428244 -0.226613
000180 e0 05 12 bb 4f 78 a5 bd f8 a7 22 be f8 15 6d bd
       -0.0022281334 -0.08079588 -0.15884387 -0.05788228
000190 12 3d ee bd 18 db ec bd 15 47 b2 bd 1f 33 9d 3d
       -0.11632742 -0.11565226 -0.08704964 0.07675766
0001a0 29 d9 5f be e7 06 1d 3e 4a aa bd bc 54 26 fe 3c
       -0.21860184 0.15334664 -0.02315249 0.031024136
0001b0 bc e6 b8 bd 2a f4 c4 be b8 36 59 3e d8 2c 90 bd
       -0.09028384 -0.38467532 0.2121228 -0.07039803
0001c0 93 2b dc 3b 7d 8d ec bd dd 45 60 be d1 42 30 3d
       0.0067190616 -0.11550424 -0.2190165 0.04303247
0001d0 47 99 57 be bd a0 03 3d c0 e7 5c 3d 51 8b d7 3c
       -0.21054564 0.032135714 0.05393195 0.026311548
0001e0 d4 5f 52 bd 51 1c ce 3d ac 46 9d bd 05 06 48 bd
       -0.05136092 0.10063995 -0.07679495 -0.048833866
0001f0 bc 99 e1 bc 99 54 12 bd 30 72 de 3d 36 37 82 be
       -0.027539127 -0.03572521 0.10861623 -0.25432748

running_var f4 [128]
000000 09 12 09 40 29 80 96 40 59 94 df 3f 49 22 96 40
       2.1417258 4.7031446 1.7467147 4.691685
000010 16 a9 f0 3f 9f ea 9d 40 3f 4e d2 3f a2 3e 82 40
       1.8801601 4.9348903 1.6430129 4.0701456
000020 cf a6 51 40 b7 3a 09 41 54 d4 07 40 5c 73 08 41
       3.2758062 8.576835 2.1223345 8.528164
000030 e7 8b 30 40 5a ea 94 3e a8 c3 1e 3f c3 af b8 3f
       2.758539 0.29085046 0.620173 1.4428638
000040 9e 99 45 41 53 6a b8 3f 45 f1 b8 40 6d 6b da 40
       12.350004 1.4407448 5.779452 6.8256135
000050 6b e3 d1 3f da 8b 17 3f f4 5d 91 3f b4 3b 4a 40
       1.6397527 0.5919777 1.1356797 3.159894
000060 74 2e 6f 40 9d d4 1b 41 af 42 2c 41 12 8e 03 40
       3.7372103 9.739408 10.76628 2.0555463
000070 81 75 df 3f 6c f6 c6 40 ae 7f 2e 3e 5d 7e d0 40
       1.7457734 6.217581 0.17040893 6.515425
000080 ab 12 28 40 94 cd a3 40 c2 6b 13 40 39 fe 03 41
       2.6261394 5.118845 2.303452 8.249566
000090 af 4b 83 3f 11 81 26 40 e3 d8 11 41 16 42 9d 40
       1.0257472 2.6016276 9.115451 4.914317
0000a0 71 bc 83 40 3f 8b c3 40 3f ce 9e 40 a1 e9 e1 40
       4.116753 6.110748 4.9626765 7.059769
0000b0 76 0b c5 40 2d f0 cb 40 9d 40 c4 40 29 d8 c6 3f
       6.157649 6.3730683 6.1328874 1.5534717
0000c0 ca 6c c6 40 c5 c3 95 40 ea cc 16 3e 18 30 8a 3f
       6.20078 4.6801476 0.14726606 1.0795927
0000d0 87 0f 12 41 9f e8 9d 3e 43 38 56 40 78 2d 32 41
       9.128791 0.30841538 3.347184 11.136101
0000e0 3e 56 7b 40 65 f2 14 40 ad d9 f6 40 96 a9 84 40
       3.9271388 2.3272946 7.7140718 4.1457014
0000f0 14 48 f0 40 44 24 51 40 4d 03 cc 40 c1 47 a2 3f
       7.5087986 3.2678385 6.375403 1.2678148
000100 33 8b 1c 41 dd 26 c4 3f 7c 32 90 40 38 4d 6a 40
       9.783984 1.532436 4.5061626 3.660963
000110 63 b0 1f 41 61 4b a7 40 c9 5f 89 40 1e 54 f0 3f
       9.980563 5.2279515 4.2929425 1.877567
000120 7e f9 ed 40 d2 56 9b 40 55 cf 65 40 90 df 39 41
       7.4367056 4.854348 3.5907795 11.617081
000130 2c f0 c2 40 17 2a 04 41 88 5c 1b 40 cd 2e 1d 40
       6.091818 8.260276 2.4275227 2.4559815
000140 12 16 8b 40 38 a9 b3 40 79 de 0d 3f f8 39 e7 40
       4.346444 5.6144066 0.5541759 7.2258263
000150 aa 4e eb 40 bb 15 a9 40 00 37 de 3f 0f cd c2 40
       7.3533525 5.2839026 1.7360535 6.0875316
000160 d1 34 11 41 1f 21 6b 40 a1 10 06 40 01 8e e6 3f
       9.075395 3.6738966 2.094765 1.8012086
000170 54 48 9b 40 82 37 23 40 71 1f e4 40 33 a2 97 40
       4.852579 2.550263 7.128838 4.7385497
000180 59 11 87 40 21 f1 c7 40 0f be 25 40 74 74 9d 40
       4.2208676 6.2481847 2.5897253 4.9204655
000190 5b 01 85 40 58 ea 4a 40 94 5e a0 40 9f 58 c8 40
       4.1564155 3.1705532 5.011545 6.260818
0001a0 77 ce 96 40 2f 75 03 41 13 46 21 41 10 c8 05 41
       4.712703 8.216109 10.079608 8.361343
0001b0 99 21 a6 40 e6 35 9e 41 80 90 60 40 76 53 c4 3f
       5.1916013 19.776318 3.5088196 1.533797
0001c0 24 a8 0d 3f 1c 04 c1 40 3e 7b 71 40 26 4e 7d 3f
       0.5533469 6.0317516 3.773147 0.9894737
0001d0 f1 b7 ed 40 86 f6 f1 40 03 d7 82 40 f3 f9 ac 40
       7.428704 7.561343 4.0887465 5.4055114
0001e0 86 ed 96 3f eb a5 8d 40 fa e9 f6 40 2e f0 9d 40
       1.1791236 4.4265037 7.7160616 4.935569
0001f0 3b 68 a4 40 bd 63 8e 40 bc dd 51 40 4d 60 c6 40
       5.1377234 4.449675 3.2791586 6.1992555

weight f4 [64, 128]
000000 a9 63 73 bd 35 e8 11 be ab 12 03 be 79 18 b0 bd
       -0.059421215 -0.14248736 -0.1280009 -0.08598418
000010 9f e1 fa bd 61 6b 69 3e b0 88 a0 bc 9e 40 62 bd
       -0.12250065 0.22794868 -0.019596428 -0.055237405
000020 f9 01 9d 3d f3 02 14 3d 88 d1 8b bd ff 7c 00 3d
       0.07666392 0.036135625 -0.06827074 0.031369206
000030 c7 15 6e be 40 4d 82 3c b8 dd a6 bc b7 ad a7 3d
       -0.23250495 0.015905976 -0.020369396 0.0818743
000040 67 87 ff 3d fc 36 d5 bd 66 6d 8f 3d 66 50 4c 3e
       0.12476998 -0.10410878 0.07003288 0.19952545
000050 70 f7 96 3c 9a 20 94 3e 62 d6 c6 bd 82 6c 15 bd
       0.018428534 0.28931123 -0.09708859 -0.036480434
000060 57 72 f9 3c ec 82 a6 bd 7f 04 4b 3e 60 bc 0b be
       0.03045003 -0.0813044 0.19825934 -0.13646078
000070 82 5d 54 bd 7b 97 0a be 25 11 0e 3d 0f f3 98 3e
       -0.05184699 -0.13534348 0.03468432 0.2987294
000080 41 4a 23 bd 8e db 9f 3d 5f 75 b5 3d 5c ab cd bd
       -0.039865736 0.078055486 0.088602774 -0.1004245
000090 b3 d3 4f bd ea b7 35 be ff de 13 3e 80 50 dd 3c
       -0.050739 -0.17745939 0.14440535 0.027015924
0000a0 6b 05 51 3d fc 83 0b be 2b d6 c7 bd 42 c3 9a 3e
       0.051030558 -0.13624567 -0.09757646 0.30227095
0000b0 ad e8 8c 3d 28 75 58 3d 8e 3f 2f 3e 37 7f f6 bd
       0.06880317 0.052846104 0.17114088 -0.12035983
0000c0 dc 4d e3 bd 17 bd ad bc ca 02 b7 3d 61 00 ee bd
       -0.11098835 -0.02120833 0.08936079 -0.11621166
0000d0 51 93 c8 3d f2 27 98 3c a9 a7 53 bd dd 92 27 3e
       0.097937234 0.018573735 -0.051673565 0.16364618
0000e0 36 e6 f6 3d 92 6c 9d 3b cf f8 dc 3d 97 77 a8 3d
       0.12055628 0.0048042024 0.10789644 0.08225935
0000f0 62 c9 6b 3e 1c be 95 bd 3d c0 1f 3d 68 b4 a8 3d
       0.2302604 -0.07311651 0.039001692 0.08237535
000100 60 46 d3 bd 68 de 09 bd 81 0b 0c be 83 a6 2a bd
       -0.10316157 -0.03365937 -0.13676263 -0.041662704
000110 d1 66 ef 3d 54 17 35 3d 28 6a 2e 3d c3 a6 c6 bc
       0.116895325 0.0442117 0.042581707 -0.02424944
000120 a8 2e 90 3e ce 2c a3 3d 4f a8 3f bd 69 fa dc 3c
       0.28160596 0.0796753 -0.04679137 0.026974874
000130 84 98 5b 3e 09 5d bb bd 03 ea dc 3d 71 20 35 be
       0.21444899 -0.091486044 0.10786822 -0.17688157
000140 a9 91 e7 bd 61 9b 59 3e ad 76 7a 3e 17 82 da bc
       -0.11307079 0.21250679 0.24459334 -0.02667336
000150 16 63 ac 3e 3c 72 58 be c4 2c 2f bd b7 4a 44 3e
       0.33669347 -0.21137327 -0.0427673 0.19169126
000160 22 d2 72 3d 30 1c d9 bd 1b e7 14 bd 6b 2c aa bd
       0.05928243 -0.106010795 -0.03635321 -0.08309253
000170 3a 74 cc bd b3 37 e4 bd d3 dc 6b 3e 8b 06 a7 3c
       -0.09983106 -0.11143436 0.23033457 0.020388862
000180 5d 93 17 be a1 99 c8 bd 39 ac b3 bd cb 23 a6 3b
       -0.14802308 -0.097949274 -0.08773083 0.005070185
000190 cd 5a 20 be 3e 8d fd bd 5c 1a fe bd ba 4d 0a be
       -0.15659638 -0.123804554 -0.124073714 -0.13506213
0001a0 fd a5 42 bd 3c 29 a1 3e 74 4d 18 3e 81 dc ff 3d
       -0.04752158 0.31476772 0.14873296 0.1249323
0001b0 ce 71 14 3e 20 ea 87 bd f1 77 9d bd 34 ee af 3d
       0.14496538 -0.06636453 -0.07688893 0.085903555
0001c0 66 3a a2 3d c6 6b 63 be 31 a0 0b 3d c6 21 45 bd
       0.07921295 -0.22209081 0.034088317 -0.048127912
0001d0 d9 eb 8b 3d 49 5e 72 3d e7 6d d6 bd 18 00 32 bd
       0.06832094 0.05917195 -0.10470181 -0.04345712
0001e0 53 63 c6 bd b6 00 85 bd 43 cc a3 3e 98 5c 8b 3e
       -0.09686913 -0.06494276 0.31991777 0.2721908
0001f0 96 13 8b bc 48 7f 08 be 13 3b 90 bd 8a bd de 3d
       -0.016977113 -0.13329804 -0.070425175 0.108759955
000200 0d 62 e0 bc 85 f9 7b bd b6 46 a6 3d 8f 79 c9 3b
       -0.027390504 -0.061517257 0.08118956 0.006148524
000210 2e 46 dc bb 62 bb e1 bb 3c fc 82 3c d1 10 e7 3b
       -0.0067222333 -0.006888793 0.015989415 0.007051565
000220 de bb 66 3d af 76 69 be 68 41 52 3b 6a dd 96 be
       0.056331508 -0.2279918 0.0032082442 -0.294658
000230 b1 c9 0d bd 09 ff 4b 3d bb 1c a5 3d 84 01 f0 bd
       -0.034616176 0.049803767 0.080621205 -0.11719039
000240 6e b9 2d be da ed 52 3d cd f4 90 be b5 b6 94 bc
       -0.16965267 0.051496364 -0.28311768 -0.018153528
000250 12 0c e0 3c 64 f0 cc bd 38 e9 c6 bb ca b6 ee 3c
       0.027349506 -0.100067884 -0.0060702823 0.029139895
000260 61 bf 4c be 17 f6 a5 bd 0c ce 5b be 21 f5 e1 bb
       -0.1999488 -0.081035785 -0.2146532 -0.0068956767
000270 b6 2f 77 bb 1d a0 d5 3b 14 10 8d 3d ec d0 b6 bc
       -0.0037717647 0.006519331 0.06887832 -0.022316419
000280 bc f1 e3 3c 00 f6 4d be f5 9f b9 bd 1e a1 61 bd
       0.027825229 -0.20113373 -0.090637125 -0.055085294
000290 cd 73 f1 bc f5 42 8e bc f5 50 82 be b3 ce 47 be
       -0.029474163 -0.017365912 -0.2545239 -0.19512443
0002a0 39 15 97 bd 48 04 89 3d c6 b9 2e bd 84 15 42 be
       -0.07377095 0.0669027 -0.042657636 -0.1895352
0002b0 01 0f aa be c3 5f a4 be ba 3b 07 be 7c ee 92 bc
       -0.33214572 -0.3210431 -0.13206378 -0.017935984
0002c0 07 f6 06 bd 2e 28 30 3d 4b ca c6 bd 45 2a ee bc
       -0.032949474 0.04300707 -0.09706553 -0.02907289
0002d0 aa a3 36 be f5 87 de 3d f4 2d 07 bc 70 51 2b be
       -0.1783587 0.108657755 -0.008250702 -0.16730285
0002e0 64 2b 4c be e1 2b 46 3d ea 9a 24 be 80 18 25 be
       -0.19938427 0.04838169 -0.1607472 -0.16122627
0002f0 4d 39 4c be cc 9f 32 bb 99 95 57 be 8a 62 5d 3d
       -0.19943734 -0.002725589 -0.2105316 0.054049052
000300 36 ab a3 3b 7f 1d 0a 3e c8 e1 14 3d ab 46 80 bc
       0.004994775 0.13487814 0.036348134 -0.015658697
000310 e5 60 b6 bd a3 a1 8c be d7 bf b5 bd fd a9 3c 3d
       -0.089052 -0.2746707 -0.08874481 0.04606055
000320 a9 2a 0d be 53 99 82 be 7c 43 b2 3c 5d 0c 9a be
       -0.13785805 -0.25507602 0.021760695 -0.30087557
000330 3d 76 17 be 2f 27 09 3c 76 d7 c0 be 8b 78 60 bd
       -0.14791198 0.0083711585 -0.37664384 -0.05480246
000340 7c bf 1f bd 10 ec 61 be 0c 8e b7 bd 42 32 0a 3d
       -0.039000973 -0.22062707 -0.0896264 0.033739336
000350 e9 bd e5 bd 3c 70 e2 bc 74 8b 13 3c 4d b6 2a 3d
       -0.11217863 -0.027641408 0.009005416 0.04167776
000360 0b f6 85 be 1d 36 9e bc 62 de 6f bc 50 b7 f1 3d
       -0.26164278 -0.019312913 -0.014640423 0.11802542
000370 e9 a2 91 bd c0 28 a4 bd 87 19 a2 be 97 ad 4a be
       -0.07111151 -0.08015585 -0.316601 -0.19792782
000380 76 ff 7d 3d 8d 6f 29 3c 7a 13 a4 3d 29 43 14 be
       0.062011205 0.010341537 0.08011527 -0.14478745
000390 68 eb 23 bc c8 65 fa 3b 11 2d 8d bd 7a d1 28 3d
       -0.010004856 0.007641528 -0.06893361 0.041215397
0003a0 4c 1f cb 3c c1 ff 19 bc 31 32 89 be 17 ef 61 3d
       0.024795197 -0.009399355 -0.26796106 0.055159654
0003b0 5a 5b 28 be fd 2f b7 bb 0c 0b 55 3b 82 ea 99 3d
       -0.16441098 -0.0055904374 0.0032507805 0.07515432
0003c0 ff 9a 8f bd fb 7a eb bc 74 bc 5c be 11 68 01 bc
       -0.07011985 -0.028745165 -0.21556264 -0.0078983465
0003d0 cc cf 89 3c 05 96 8a be a8 cc a0 3d 78 bd 9d 3d
       0.016822718 -0.2706758 0.07851535 0.07702154
0003e0 16 2b 7d b9 82 28 ce 3b f2 f4 0f be 75 e7 72 bc
       -0.00024144011 0.00629145 -0.14058283 -0.0148256915
0003f0 b4 f3 44 3c 2c 4b 40 3b 5f 1b e9 bc b2 f5 ef bc
       0.012020994 0.002934168 -0.028455434 -0.029291961

bias f4 [64]
000000 fb d8 25 bd 3f cf 85 3c 1f c3 b3 bc 75 7d c6 bc
       -0.04049013 0.016334174 -0.021943627 -0.024229744
000010 d7 73 a1 3d 6c 1c c5 bd 32 a1 30 3e c7 72 1d 3d
       0.07883423 -0.09624562 0.17248991 0.03843954
000020 fd ba c0 bd 3b 58 7c 3d ef 2b af 3c 52 b1 92 bd
       -0.09410665 0.06160758 0.021383254 -0.071627274
000030 06 42 f1 bd ad 51 c5 bd 88 41 89 bb 09 a5 b9 bd
       -0.11780171 -0.09634719 -0.00418872 -0.09064681
000040 ca c0 f9 bd 79 a3 06 3d f7 40 d3 3d 52 8b 7a bb
       -0.12194975 0.032870743 0.103151254 -0.0038230014
000050 a1 d8 ec bb 65 ee 16 3d 05 7d e0 3d 3d 71 17 bd
       -0.0072279726 0.036848444 0.109613456 -0.036973227
000060 1e a8 ad 3d 06 29 21 3e b5 91 12 be 3c e5 a2 3c
       0.084793314 0.15738305 -0.14313395 0.019884698
000070 22 f6 13 3d f4 21 e4 bc 39 f5 c4 bd 67 15 4a 3c
       0.036123402 -0.027848221 -0.09617085 0.012334204
000080 b9 07 9c bc bb 2a 9e bd 89 f4 e6 3d fc a6 0f bd
       -0.019046651 -0.07722994 0.1127711 -0.035071358
000090 6f 03 3d bc a8 69 08 3d c2 24 36 3d 73 7f e4 3d
       -0.011536463 0.033303887 0.04446865 0.111571215
0000a0 67 06 e7 3c 16 15 66 3d 3d 68 45 bd 0c f4 ac bc
       0.028201295 0.056172453 -0.048195112 -0.021112464
0000b0 00 a5 95 bd ad cb be 3d 52 c9 cf 3c 85 73 81 3c
       -0.07306862 0.09316192 0.025364552 0.015802154
0000c0 85 80 cb 3c db 68 86 3d a2 5f 2f 3d 51 74 88 3d
       0.024841556 0.06562968 0.042815812 0.066628106
0000d0 94 66 cc bb 43 1e a2 3b 33 0f 0d 3d 86 11 f5 3c
       -0.006237814 0.004947455 0.034438323 0.029915582
0000e0 4a 92 fe 3d ba ac 78 bd 13 1d a0 bd 61 b6 2a 3d
       0.12430246 -0.0607116 -0.078180455 0.041677836
0000f0 a5 ef 1d 3d 9a aa 85 bc ed af c5 bd 4f 61 1f bd
       0.03855862 -0.0163167 -0.09652696 -0.03891116

weight f4 [64]
000000 3c 18 46 3f 23 9d ec 3e b5 f8 25 3f 70 cd 19 3f
       0.7738073 0.46213636 0.6483262 0.600791
000010 b6 47 d0 3e db e9 d8 3e c6 ab 17 3f e9 68 82 3f
       0.4067971 0.42365918 0.5924648 1.0188266
000020 80 d4 43 3f f3 3d 2d 3f 45 c3 23 3f 6a 80 63 3f
       0.76496124 0.6767265 0.6396983 0.8886782
000030 25 e4 70 3f 72 5b 45 3f 6b a1 62 3f c3 f7 fc 3e
       0.9409812 0.7709266 0.88527554 0.49407777
000040 8e 2e 17 3f 43 b4 ee 3e a8 25 5c 3f 19 e4 f7 3e
       0.5905541 0.46621904 0.8599496 0.48416212
000050 2c 2d 16 3f 86 ae a3 3e 10 c9 80 3f e1 33 0f 3f
       0.58662677 0.31969088 1.006136 0.55938536
000060 f6 6a 02 3f f0 71 0a 3f 1b 69 05 3f cb dd 6b 3f
       0.5094446 0.54080105 0.52113503 0.92135304
000070 79 21 bc 3e dd bc 7a 3f 1f 87 22 3f 02 1f 6d 3f
       0.36744288 0.9794443 0.6348743 0.9262544
000080 41 88 37 3f 93 b9 27 3f fc 12 3d 3f 36 1d 01 3f
       0.7169228 0.6551754 0.7385709 0.504352
000090 71 50 76 3f ac 1c 15 3f ff f7 3b 3f 50 8d cf 3e
       0.96216494 0.58246875 0.73425287 0.405375
0000a0 4a 25 94 3e 39 a8 74 3f 88 cb 75 3f fd 9d 7c 3f
       0.289347 0.9556919 0.9601369 0.9867857
0000b0 f7 a2 78 3f 23 1c 0b 3f 22 da 48 3f 04 f2 5a 3f
       0.97123665 0.5433981 0.78457844 0.85525537
0000c0 21 a0 64 3f e3 5b 18 3f 53 39 62 3f 5b ad 14 3f
       0.8930684 0.5951521 0.8836872 0.5807702
0000d0 c3 05 31 3f ad c9 77 3f f0 cb 68 3f 74 c8 27 3f
       0.69149417 0.9679211 0.90936184 0.6554024
0000e0 06 63 ed 3e 09 07 3a 3f af 3a 65 3f 42 2c 27 3f
       0.4636461 0.72666985 0.8954267 0.6530191
0000f0 a1 e6 6f 3f 41 2d 59 3f f7 f1 3c 3f 95 06 7a 3f
       0.93711287 0.84834677 0.7380671 0.97666293

bias f4 [64]
000000 d2 13 b6 3f 95 d8 c5 3f aa ad 9f 3f 4b cc b5 3f
       1.4224799 1.545672 1.2474873 1.420297
000010 71 39 b4 3f 24 ab c3 3f 8f 14 c9 3f e2 10 4c 3f
       1.408003 1.5286603 1.5709399 0.7971326
000020 3c e3 82 3f 4a 44 9b 3f df 54 95 3f dc 3d 4c 3f
       1.0225596 1.2130215 1.1666526 0.7978189
000030 7f ed 25 3f 44 51 8a 3f be 4d 96 3f 7b 5d c2 3f
       0.64815515 1.080605 1.1742475 1.5184778
000040 72 2c c2 3f 46 23 c2 3f a5 96 a8 3f 17 14 d6 3f
       1.5169814 1.5167015 1.3170973 1.6724881
000050 45 e9 e1 3f 1e 2a a9 3f aa 55 57 3f ac d2 c0 3f
       1.7649313 1.3215978 0.8411509 1.5064292
000060 b9 58 cf 3f e6 5d c7 3f 36 f8 ad 3f 59 6b 47 3f
       1.6198951 1.557553 1.3591373 0.77898175
000070 84 40 a5 3f 32 55 0d 3f 62 0b ca 3f 19 18 71 3f
       1.2910314 0.5520812 1.5784724 0.94177395
000080 12 6f 96 3f 48 c0 b3 3f 62 d7 80 3f d9 f0 8d 3f
       1.1752646 1.4043055 1.006573 1.1089126
000090 66 86 37 3f 69 97 8f 3f 7c 5b 9a 3f 75 ad c1 3f
       0.7168945 1.1218082 1.2059169 1.513106
0000a0 22 89 db 3f 76 c0 77 3f 5a ef 31 3f 84 a8 1e 3f
       1.7151225 0.9677805 0.69505847 0.61975884
0000b0 7d 61 5b 3f 4c 7b ae 3f f1 ec 8b 3f 43 37 55 3f
       0.8569563 1.3631377 1.0931684 0.8328745
0000c0 d8 32 78 3f b4 8d af 3f ba 7d 31 3f ff 96 af 3f
       0.9695258 1.3715119 0.6933247 1.3717955
0000d0 24 84 8f 3f ce 97 81 3f e5 a5 2b 3f 27 07 9b 3f
       1.1212201 1.0124452 0.6705001 1.2111558
0000e0 73 38 d7 3f b1 47 8a 3f f7 24 98 3f ec 95 9d 3f
       1.6814102 1.0803128 1.1886281 1.2311378
0000f0 b3 ea 86 3f 47 6f ac 3f b2 95 7b 3f 21 ee 0d 3f
       1.0540375 1.3471459 0.9827529 0.5544148

running_mean f4 [64]
000000 49 b7 f1 be 7b f5 24 c0 48 0d 5e 3f 61 5b 57 c0
       -0.47210148 -2.577483 0.86739016 -3.3649523
000010 d9 f0 0c c0 ac 53 2f c0 3c e2 4c c0 86 c9 17 40
       -2.2022002 -2.739482 -3.2013083 2.371675
000020 92 8a 3a 40 be 9e dc 3f 07 57 8f 3f 8c 33 84 3f
       2.9147077 1.7235944 1.1198434 1.0328231
000030 5e 6d 8d 3f b9 a5 2d 3f 5a 1d fb 3f 51 9b 62 c0
       1.1049001 0.67831 1.9618332 -3.5407298
000040 30 db 5e c0 52 70 d1 bf 4a 08 a0 3e 8f 54 bc bf
       -3.4821281 -1.6362402 0.31256324 -1.4713305
000050 d3 07 26 c0 85 be 3a c0 ca 5c 39 40 bc 48 65 c0
       -2.5942276 -2.9178784 2.8962884 -3.5825644
000060 56 ed 3a c0 fb 70 2d c0 4e c8 3b c0 fa 1f e0 3f
       -2.9207358 -2.7100208 -2.9341006 1.7509758
000070 79 61 1f c0 07 d7 c2 3f bb 13 2a c0 cb f5 cc 3f
       -2.4903243 1.5221871 -2.6574543 1.601251
000080 e8 bc ff 3f 41 84 e2 3e fa 4c 1d bf df 8e a5 3f
       1.9979525 0.44241527 -0.6144558 1.2934226
000090 b3 a9 b2 3f ff 90 ab 3f e5 56 06 40 f8 38 05 c0
       1.3958038 1.3403624 2.0990536 -2.081602
0000a0 51 80 5b c0 fe b6 f2 3f 00 21 33 40 5a c7 af 3f
       -3.4297068 1.8962095 2.7988892 1.3732712
0000b0 99 25 79 3f 28 21 3f c0 9d bf 2f 40 3f e3 1f 40
       0.97322994 -2.9863987 2.7460701 2.498245
0000c0 53 18 c8 3f c8 88 49 3d da 8c d9 3f 2a 0a d5 3f
       1.5632423 0.04920271 1.699611 1.6643727
0000d0 63 7d 30 40 e7 68 04 40 78 8a 0b 40 31 65 2c 40
       2.757653 2.0689027 2.1803265 2.6936762
0000e0 3f 5e 59 c0 e8 bd eb 3f 3d 91 f6 3f 6a 95 b4 3f
       -3.3963773 1.841733 1.9263073 1.4108098
0000f0 1a 7d 4e 40 a5 d9 3b 3f 40 d3 05 3f 7c 36 15 40
       3.2263856 0.73378974 0.52275467 2.3314505

running_var f4 [64]
000000 d8 7b 31 41 c9 84 18 41 10 c7 26 41 3c 16 a9 40
       11.092735 9.532418 10.423599 5.283964
000010 68 27 5f 40 47 79 03 41 05 9c 00 41 c8 91 06 41
       3.4867802 8.217109 8.038091 8.410591
000020 5b de 89 40 6d 48 03 41 5e 10 d2 40 67 43 09 41
       4.308393 8.205182 6.564498 8.578956
000030 ea ff 33 41 85 54 e2 40 d3 b2 47 41 74 13 93 40
       11.249979 7.0728173 12.481158 4.5961246
000040 58 b4 11 41 47 1f 50 40 aa 5f 2a 41 60 f0 ad 40
       9.106529 3.251909 10.6483555 5.4355927
000050 e9 a6 ec 40 79 3d d6 3f d5 e0 f6 40 d2 42 8b 40
       7.395375 1.673751 7.7149453 4.351907
000060 05 07 9a 40 8d ee d6 40 dc 7d 8b 40 88 24 ea 40
       4.813357 6.71662 4.3591137 7.3169594
000070 d5 40 eb 40 7b 46 15 41 5c 70 17 41 56 3d 2e 41
       7.351664 9.329707 9.4649315 10.889975
000080 8a fe 14 41 7d 81 38 41 07 a3 f6 40 80 7c 04 41
       9.312143 11.531613 7.707401 8.2803955
000090 87 0c 9b 40 ce 25 01 41 4f 8f ae 40 ea 57 20 41
       4.845279 8.07173 5.4549937 10.021463
0000a0 6b e3 9e 3f 42 0c e7 40 fc ba d3 40 6b 05 50 41
       1.2413152 7.2202463 6.6165752 13.001323
0000b0 11 55 2f 41 eb ac 34 40 5d ef c7 40 a9 0a c5 40
       10.958268 2.823054 6.247969 6.1575513
0000c0 1a 76 e9 40 a9 70 63 40 05 a9 70 40 26 39 08 41
       7.2956667 3.5537512 3.7603161 8.513952
0000d0 ad 94 a6 40 6a 1a ff 40 8d 20 89 40 de 9e b4 40
       5.205649 7.9719744 4.2852235 5.644393
0000e0 87 f8 c0 40 1a e6 d4 40 29 37 45 41 7b 50 1a 41
       6.030338 6.6530886 12.325967 9.644649
0000f0 35 22 f6 40 e7 9c 34 41 56 a1 f7 40 c9 1c c8 40
       7.6916757 11.288306 7.7384443 6.253514

weight f4 [1, 64]
000000 13 a2 12 3f 09 9a 3b 3f f1 22 e5 3e b7 77 1f 3f
       0.57278556 0.73281914 0.4475322 0.62292045
000010 fc dc 18 3f 72 95 3a 3f f0 b6 34 3f a4 c3 ee 3e
       0.59712195 0.72884285 0.7059164 0.46633637
000020 0a 50 b9 3e 8d 7b de 3e 09 04 ca 3e a3 49 a8 3e
       0.36193877 0.43453637 0.39456204 0.3286868
000030 e4 09 b3 3e 71 90 cb 3e fa 6f e2 3e 38 95 23 3f
       0.34968483 0.39758638 0.44226056 0.63899565
000040 50 99 37 3f 6a b1 25 3f 8d e5 06 3f 74 b7 3f 3f
       0.7171831 0.6472384 0.52694017 0.748893
000050 20 27 58 3f 82 ad 26 3f 4f cf d4 3e 3a 74 13 3f
       0.844347 0.651085 0.41564414 0.5759922
000060 91 74 39 3f 1d 51 31 3f 59 d3 1f 3f 11 73 aa 3e
       0.7244349 0.69264394 0.62431866 0.33290914
000070 be 36 23 3f b1 09 c2 3e 73 b7 22 3f df 28 ed 3e
       0.63755405 0.3789802 0.6356117 0.46320245
000080 b0 cc d7 3e 23 f3 04 3f 43 57 dc 3e eb 01 dc 3e
       0.42148352 0.519335 0.43035325 0.42970213
000090 57 68 d1 3e 9b 21 c1 3e b1 fd d7 3e ea 7c 2e 3f
       0.40899917 0.3772095 0.4218574 0.68159354
0000a0 53 70 55 3f d0 cf c2 3e c6 1e 98 3e 31 5a ac 3e
       0.8337452 0.38049173 0.29710978 0.3366256
0000b0 f0 6c e8 3e 9b 6e 05 3f a7 36 c4 3e 0d 47 9b 3e
       0.45395613 0.52121896 0.38322946 0.30327645
0000c0 03 13 cd 3e 92 cb 02 3f 97 23 8e 3e d5 15 0a 3f
       0.40053567 0.51091874 0.27761528 0.53939563
0000d0 8a f4 cf 3e bf 6b e2 3e e6 0e 8d 3e 1c 31 f4 3e
       0.40616256 0.4422283 0.2755043 0.47693717
0000e0 3f 7b 4a 3f a8 14 c7 3e 2a b9 ff 3e 1f 21 e2 3e
       0.7909431 0.38882947 0.49945956 0.44165894
0000f0 cb e3 d2 3e c7 f2 08 3f 75 86 ac 3e 95 7d c1 3e
       0.41189417 0.5349545 0.33696333 0.37791124
