Plots old/naive models/results_FCNN_3L_40ED_no_sched/e_20_model.pt (torch, 71019 bytes, 13 tensors)

weight f4 [128, 54]
-0.12130539 -0.14591376 -0.14497316 -0.123452805 -0.12422331 -0.036157794 0.009012257 0.041108623
0.050301738 -0.15568797 -0.03851783 0.06719175 0.537217 0.39009547 -0.089482054 -0.055696785
0.20618448 0.16569293 0.013490075 -0.15324396 0.0037694206 -0.050835803 -0.15606448 -0.11473063
-0.015195142 0.0046050693 -0.6007035 0.07996991 -0.104607515 -0.06389032 -0.036552824 0.051660795
-0.11992378 -0.106775776 0.010595121 0.030135822 0.0024011123 0.048166104 -0.009374887 -0.011460768
0.07309285 0.20570256 0.020252243 0.10181844 -0.00783229 -0.03241005 0.11666475 0.076671384
-0.029767295 -0.046295263 -0.10194338 0.008622426 -0.06406505 -0.066644 -0.014446007 -0.022286467
0.03926122 0.0033894232 -0.07622089 -0.016690785 -0.013283923 0.03474665 0.018750967 -0.091614485
0.0035561789 0.10019973 1.8561054 0.055625923 -0.03191452 -0.020595709 0.024437528 0.0006466811
0.06882655 0.027559591 -0.0132444035 0.0014345652 0.017654011 0.011029111 0.010408718 -0.018898852
-0.10767311 0.00040481286 -0.10376285 -0.09634623 -0.043995406 -0.003292918 0.0041723256 0.0032922341
-0.008282486 0.047343872 0.025204742 0.0717481 -0.03231564 -0.04156697 -0.07852149 0.030298382
-0.02747738 -0.015110837 -0.038714446 0.021583775 0.110352434 0.0010839829 -0.07016701 -0.054185804
0.0866392 -0.10357944 -0.066066265 -0.01692285 0.05889676 -0.02325357 0.066308886 0.002490062
-0.0058826464 0.020954449 -0.057485953 -0.010418748 0.0028480345 -0.11012045 0.027020948 0.034119554
1.7528955 0.010078045 0.040799428 -0.034705896 -0.040840972 -0.04566295 0.031356227 0.0021575943
0.037636157 0.02323148 0.004964735 -0.02117004 0.06703841 0.00911814 -0.076368906 -0.019929852
-0.13279526 -0.11135342 0.0153336935 -0.020664822 -0.0009984634 -0.14626329 0.041852433 0.017422508
0.01953209 0.031195626 0.03291872 -0.07044938 -0.010625205 0.05617118 -0.021433128 -0.017888144
0.0085709095 -0.003046829 0.07193439 0.13458934 -0.004642592 -0.06649129 -0.11432722 0.0037489643
-0.07039907 0.02068754 -0.33867556 -0.1597012 -0.23830651 -0.48791483 -0.32987863 -0.07110834
-0.122943535 0.06908212 -0.17248894 -0.43319646 -0.111866914 0.27017313 0.21524826 0.13424763
-0.20698832 -0.048034113 0.10108006 0.016215367 -0.11614612 -0.42461118 -0.5161678 -0.18048608
-0.25466198 -0.26432973 -0.11363696 0.100066185 -0.16557702 0.028359964 -0.12807068 -0.1089433
-0.078879766 0.014230671 0.061816737 -0.063992426 0.056405637 0.079234496 -0.04853499 0.11666536
0.051770676 0.010068239 0.06608121 0.07525391 0.12112108 0.07403326 -0.023142967 0.05633434
0.15825488 0.03685193 0.07271131 -0.07362385 -0.11808812 -0.051303558 0.010323241 -0.027065292
-0.044537056 -0.018522426 -0.0317919 -0.031336077 -0.065334976 0.003502913 0.046647996 0.0092822425
0.09898779 -0.084606506 -0.020991774 0.014319996 1.4316392 0.038580492 -0.016290562 -0.008324704
0.12171231 0.02079329 0.11053643 -0.044957917 -0.04184444 -0.032365367 0.006395792 -0.04119095
-0.07800421 0.036497757 -0.03578501 -0.12608525 0.11193475 -0.012066813 0.022884998 -0.038933396
-0.030512657 0.039921205 0.018037742 0.035075836 -0.030044341 0.053897686 0.040214576 0.03478745
00000000: f66e f8bd 6b6a 15be d873 14be d3d4 fcbd
00000010: ca68 febd 321a 14bd 25a8 133c 8461 283d
00000020: 3209 4e3d ab6c 1fbe dfc4 1dbd d49b 893d
00000030: 0e87 093f 98ba c73e 5e42 b7bd 5022 64bd
00000040: 0622 533e 68ab 293e 7a05 5d3c fceb 1cbe
00000050: 6208 773b 3439 50bd 5ecf 1fbe e4f7 eabd
00000060: 0bf5 78bc 1fe6 963b b4c7 19bf 44c7 a33d
00000070: 773c d6bd eed8 82bd 6ab8 15bd 459a 533d
00000080: 999a f5bd 42ad dabd 2997 2d3c 66df f63c
00000090: fb5b 1d3b d249 453d 2099 19bc f2c5 3bbc
000000a0: b4b1 953d b1a3 523e 08e8 a53c 3086 d03d
000000b0: 0153 00bc 67c0 04bd eeed ee3d e305 9d3d
000000c0: 8bda f3bc 1aa0 3dbd b1c7 d0bd 1345 0d3c
000000d0: 8934 83bd a67c 88bd f2ae 6cbc 1c92 b6bc
000000e0: 5fd0 203d 1621 5e3b b319 9cbd 1dbb 88bc
000000f0: d0a4 59bc 8152 0e3d a19b 993c 60a0 bbbd
00000100: c80e 693b 8435 cd3d dd94 ed3f 02d8 633d
00000110: cdb8 02bd 55b8 a8bc 3631 c83c 0986 293a
00000120: eff4 8c3d a7c4 e13c 0eff 58bc 0508 bc3a
00000130: 259f 903c 72b3 343c 5489 2a3c c4d1 9abc
00000140: b883 dcbd 103d d439 9e81 d4bd 2c51 c5bd
00000150: 8734 34bd ffcd 57bb 01b8 883b 86c2 573b
00000160: 44b3 07bc a6eb 413d 2d7a ce3c abf0 923d
00000170: 685d 04bd 2142 2abd e0cf a0bd 5034 f83c
00000180: 3e18 e1bc 7293 77bc 0a93 1ebd 75d0 b03c
00000190: 7500 e23d 6e14 8e3a b9b3 8fbd eff1 5dbd
000001a0: e56f b13d 7521 d4bd c04d 87bd caa1 8abc
000001b0: bb3d 713d 457e bebc f4cc 873d 4f30 233b
000001c0: 37c3 c0bb aaa8 ab3c 6476 6bbd 65b3 2abc
000001d0: 17a6 3a3b d586 e1bd 095b dd3c f2c0 0b3d
000001e0: e15e e03f 621e 253c 4d1d 273d c527 0ebd
000001f0: dd48 27bd 1309 3bbd 636f 003d 6d66 0d3b
00000200: 5f28 1a3d f24f be3c 37af a23b cb6c adbc
00000210: 6f4b 893d 4064 153c 4d67 9cbd ee43 a3bc
00000220: 7bfb 07be 430d e4bd 2c3a 7b3c 4649 a9bc
00000230: dfde 82ba 0bc6 15be 756d 2b3d a6b9 8e3c
00000240: c301 a03c f88d ff3c c8d5 063d c447 90bd
00000250: 5715 2ebc c013 663d 8794 afbc 288a 92bc
00000260: 006d 0c3c 4fad 47bb 5652 933d cad1 093e
00000270: e220 98bb 962c 88bd 6424 eabd 2fb1 753b
00000280: 632d 90bd ea78 a93c e266 adbe b688 23be
00000290: 9f06 74be f9cf f9be dae5 a8be 40a1 91bd
000002a0: d2c9 fbbd ed7a 8d3d f1a0 30be edcb ddbe
000002b0: 7b1a e5bd 2254 8a3e 0a6a 5c3e 3678 093e
000002c0: bff4 53be 6bbf 44bd 1003 cf3d 17d6 843c
000002d0: 04de edbd a366 d9be 9323 04bf 58d1 38be
000002e0: 0e63 82be 3a56 87be 7fba e8bd 80ef cc3d
000002f0: 068d 29be 2853 e83c f624 03be aa1d dfbd
00000300: b78b a1bd c327 693c 8c33 7d3d 760e 83bd
00000310: 9909 673d b245 a23d a0cc 46bd 40ee ee3d
00000320: 7d0d 543d 41f5 243c 9655 873d b91e 9a3d
00000330: 540e f83d c09e 973d 5296 bdbc d6be 663d
00000340: 910d 223e 0df2 163d abe9 943d 1ac8 96bd
00000350: 2fd8 f1bd ae23 52bd d022 293c 08b8 ddbc
00000360: 7d6c 36bd 58bc 97bc 3938 02bd 425a 00bd
00000370: 58ce 85bd 2191 653b f811 3f3d 8c14 183c
00000380: 1cba ca3d 2d46 adbd f1f6 abbc 6b9e 6a3c
00000390: f43f b73f 9406 1e3d c973 85bc 5764 08bc
000003a0: 4e44 f93d b156 aa3c ec60 e23d cb25 38bd
000003b0: 1365 2bbd 8c91 04bd cb93 d13b d7b7 28bd
000003c0: acc0 9fbd ac7e 153d 4d93 12bd 7e1c 01be
000003d0: 0c3e e53d e2b3 45bc 5279 bb3c a078 1fbd
000003e0: aef5 f9bc 6b84 233d e3c3 933c aeab 0f3d
000003f0: 8d1f f6bc d2c3 5c3d 0ab8 243d 497d 0e3d

bias f4 [128]
-0.07182305 0.11208403 -0.018351078 0.008129146 0.020844905 0.030854965 -0.09889434 -0.039603654
0.012107777 -0.033474468 0.00066625146 0.038837034 0.045267243 -0.102956265 0.13311265 0.09286294
0.08848923 0.022536905 -0.105425425 -0.0023535192 -0.053905178 0.06951623 -0.024054393 -0.0033098662
-0.06024636 0.005290882 0.03812292 -0.07840692 0.059616983 -0.016885929 -0.055989776 0.034926064
0.0073295943 -0.04717531 0.07650181 0.042997267 0.11482466 0.051541414 0.032458253 0.012680541
-0.07355445 -0.04004624 0.032624897 -0.042739503 -0.07245933 -0.08070291 -0.09050552 -0.0060664727
-0.010137448 0.05983542 -0.038230635 -0.0023111776 0.061425082 0.08457235 -0.058867857 -0.022821886
-0.0820577 0.03188978 0.032381654 0.06249576 0.00947226 -0.03775144 -0.075021446 0.0071531553
0.049551588 -0.057308488 0.01726651 -0.019254152 -0.054892294 -0.09081402 0.06796529 0.092252955
-0.04437329 0.09032503 0.013010453 0.089571096 -0.04370218 -0.09041197 0.006450453 0.0017854474
0.041300934 0.08933743 -0.093746364 0.01522435 0.13838017 0.0106036095 -0.023200694 0.016273767
-0.019959826 0.019722803 -0.031814214 0.113143936 0.032232586 -0.0843304 0.03826666 -0.11123682
0.096827865 -0.044580426 -0.0148 -0.04621714 -0.005823491 -0.0539239 -0.08363181 0.05979846
0.017140828 0.011136221 0.032475792 -0.060609438 0.048261978 0.011660285 0.105000235 -0.020597385
-0.03185039 -0.01888592 0.007914405 0.026234655 0.02021356 0.0067751743 0.08733435 0.029838992
-0.005098902 0.0632617 -0.063255824 -0.085720375 -0.04419104 0.015245421 0.059618954 -0.09265579
00000000: f717 93bd 508c e53d 0055 96bc 1c30 053c
00000010: efc2 aa3c 8dc3 fc3c 1e89 cabd 7137 22bd
00000020: b35f 463c 861c 09bd 61a7 2e3a 9513 1f3d
00000030: 256a 393d bcda d2bd af4e 083e ed2e be3d
00000040: d739 b53d 519f b83c 49e9 d7bd 803d 1abb
00000050: adcb 5cbd 865e 8e3d b80d c5bc 57ea 58bb
00000060: e3c4 76bd 235f ad3b c726 1c3d cf93 a0bd
00000070: f030 743d 5c54 8abc 8955 65bd a20e 0f3d
00000080: 182d f03b e63a 41bd fbac 9c3d e71d 303d
00000090: 3129 eb3d 171d 533d f2f2 043d 0bc2 4f3c
000000a0: b7a3 96bd 8707 24bd afa1 053d 9e0f 2fbd
000000b0: 8f65 94bd 9147 a5bd f55a b9bd 43c9 c6bb
000000c0: 8a17 26bc fc15 753d ba97 1cbd 2077 17bb
000000d0: de98 7b3d 4534 ad3d 6c1f 71bd f7f4 babc
000000e0: de0d a8bd dc9e 023d a0a2 043d 8efb 7f3d
000000f0: 8a31 1b3c 41a1 1abd d8a4 99bd 0465 ea3b
00000100: 9bf6 4a3d 4ebc 6abd 7f72 8d3c e2ba 9dbc
00000110: bed6 60bd b3fc b9bd 6331 8b3d 1eef bc3d
00000120: c4c0 35bd 54fc b83d cc29 553c 0d71 b73d
00000130: 0f01 33bd e929 b9bd 525e d33b ac05 ea3a
00000140: 2b2b 293d 8bf6 b63d 18fe bfbd 8d6f 793c
00000150: 88b3 0d3e c3ba 2d3c 620f bebc 9050 853c
00000160: ca82 a3bc b791 a13c 9f4f 02bd 02b8 e73d
00000170: 5106 043d 6bb5 acbd 80bd 1c3d 21d0 e3bd
00000180: b04d c63d f799 36bd b37b 72bc 2f4e 3dbd
00000190: fcd2 bebb 4fdf 5cbd 2847 abbd 3bef 743d
000001a0: ec6a 8c3c b274 363c 5605 053d 9a41 78bd
000001b0: 5aae 453d c80a 3f3c 5d0a d73d d9bb a8bc
000001c0: 8e75 02bd a5b6 9abc 6cab 013c 0fea d63c
000001d0: e896 a53c 4802 de3b 5adc b23d e770 f43c
000001e0: b114 a7bb 5a8f 813d 458c 81bd 2a8e afbd
000001f0: aa01 35bd eec7 793c 0133 743d 52c2 bdbd

weight f4 [128]
0.88821083 0.5218191 0.49738318 0.6188619 0.78980774 0.49016455 0.4221671 0.48890942
0.34965962 0.6512725 0.4761583 0.5860907 0.53241706 0.62026197 0.44412032 0.5123625
0.5064801 0.505649 0.51426125 0.3799936 0.44297153 0.5527192 0.68246764 0.40744254
0.53967357 0.5023966 0.51291317 0.505939 0.4778217 0.58433306 0.48682225 0.47245327
0.40388137 0.5342945 0.41117853 0.5795296 0.5021194 0.71389776 0.49268824 0.62833697
0.41029704 0.54810715 0.776922 0.57256573 0.63825953 0.5481285 0.40254238 0.7049551
0.7955275 0.47509408 0.5928266 0.5253612 0.6396657 0.82353616 0.5213611 0.51673675
0.45068094 0.58855367 0.55874425 0.4544882 0.4120032 0.7028669 0.41884562 0.5161778
0.44166476 0.4388345 0.73447585 0.4931612 0.4110524 0.63006055 0.69546217 0.48735717
0.53941387 0.55354327 0.48376927 0.68022394 0.4391841 0.49201596 0.37346435 0.5084417
0.8847703 0.44631562 0.49514458 0.42350098 0.485077 0.66962796 1.0069735 0.4607316
0.59799653 0.7195152 0.4380571 0.4596354 0.66735196 0.5662041 0.42627847 0.4477729
0.75834715 0.8440708 0.690849 0.6109267 0.60561323 0.61896926 0.66920066 0.68874764
0.4975044 0.43172228 0.57736593 0.3842655 0.5745636 0.76140726 0.56446713 0.5473855
0.48591134 0.59746826 0.5055015 0.47198465 0.49239227 0.4419884 0.53984183 0.5519129
0.5703343 0.41036022 0.509012 0.43778872 0.47827613 0.45097473 0.46793428 0.5949684
00000000: c961 633f f095 053f 02a9 fe3e bc6d 1e3f
00000010: d730 4a3f d9f6 fa3e 4926 d83e 5652 fa3e
00000020: 9606 b33e cbb9 263f 05cb f33e 0a0a 163f
00000030: 7c4c 083f 7dc9 1e3f bd63 e33e 302a 033f
00000040: aea8 013f 3672 013f a0a6 033f 858e c23e
00000050: 2acd e23e 017f 0d3f 33b6 2e3f 4f9c d03e
00000060: 0c28 0a3f 109d 003f 474e 033f 3885 013f
00000070: 0ca5 f43e da96 153f c440 f93e 65e5 f13e
00000080: 8ac9 ce3e 86c7 083f fe85 d23e 0d5c 143f
00000090: e68a 003f 01c2 363f a241 fc3e b1da 203f
000000a0: 7412 d23e c050 0c3f 5ce4 463f ab93 123f
000000b0: fa64 233f 2652 0c3f 091a ce3e f077 343f
000000c0: b1a7 4b3f 883f f33e 7cc3 173f 127e 063f
000000d0: 22c1 233f 44d3 523f ec77 053f dc48 043f
000000e0: a7bf e63e 74ab 163f dd09 0f3f adb2 e83e
000000f0: 15f2 d23e 16ef 333f ef72 d63e 3a24 043f
00000100: e221 e23e eaae e03e 9c06 3c3f a07f fc3e
00000110: 7675 d23e a64b 213f cf09 323f e186 f93e
00000120: 0717 0a3f 03b5 0d3f 9bb0 f73e 2823 2e3f
00000130: bddc e03e 84e9 fb3e b836 bf3e 3c29 023f
00000140: 4e80 623f 7b83 e43e 9783 fd3e 1fd5 d83e
00000150: 035c f83e bd6c 2b3f 82e4 803f 03e5 eb3e
00000160: 4d16 193f 2632 383f 0549 e03e 5555 eb3e
00000170: 94d7 2a3f c0f2 103f 2c41 da3e 7d42 e53e
00000180: 0a23 423f 0615 583f 7bdb 303f b165 1c3f
00000190: 7809 1b3f c574 1e3f bc50 2b3f c451 303f
000001a0: e6b8 fe3e b40a dd3e 41ce 133f 73be c43e
000001b0: 9a16 133f 96eb 423f eb80 103f 7521 0c3f
000001c0: 5fc9 f83e aef3 183f 8c68 013f f9a7 f13e
000001d0: d71a fc3e 4e4c e23e 1333 0a3f 2a4a 0d3f
000001e0: 6e01 123f bc1a d23e 9c4e 023f d825 e03e
000001f0: 9ce0 f43e 29e6 e63e 1595 ef3e d94f 183f

bias f4 [128]
-0.05422242 -0.22888954 -0.25168404 -0.19227502 0.27692202 -0.32915965 -0.19747435 -0.021959826
-0.046778686 0.07309658 -0.24473217 0.069604926 -0.24877806 -0.26440656 -0.24203968 0.05658446
-0.3423474 -0.20364256 0.013901069 -0.37517264 -0.119825326 -0.26880333 -0.08356719 -0.10301796
0.1935235 -0.16373065 -0.43964833 -0.29948932 -0.28319526 -0.20474665 0.049225893 -0.47491977
-0.26226944 0.14466663 -0.03555725 -0.2660979 -0.22634439 0.2643562 -0.26603365 0.042895332
-0.057174638 -0.15211236 0.09721884 -0.3565683 0.10978256 -0.01434955 -0.48184606 0.14908104
0.21731609 -0.250714 0.05330746 -0.24047862 0.11860991 -0.38995332 -0.21890643 -0.34363317
-0.092498384 -0.29308864 -0.11646225 -0.057586387 -0.27386874 0.13519552 0.09776161 -0.15789236
-0.24433297 -0.21530315 0.22448361 -0.40733424 0.027737452 0.15903102 0.103873506 -0.47300434
-0.40101352 0.004208866 -0.17967501 -0.06621723 -0.35923958 -0.15133862 -0.04337692 -0.31706393
0.026780518 -0.3507643 -0.2396592 -0.16488649 -0.5655391 0.18115197 -0.2053375 -0.57781875
-0.12682 0.061995134 -0.15308422 -0.26165795 -0.1848028 -0.2397162 -0.36013904 0.21411702
-0.067846 0.21030511 0.089587994 0.10441964 0.12635483 0.23520638 0.009803177 0.016772395
-0.11076312 -0.60976595 -0.2948894 -0.5350465 -0.40342778 0.17960553 -0.01704283 -0.4014707
-0.23738769 0.2048505 -0.1471826 -0.2670595 0.02393789 -0.11335332 -0.22883986 -0.17290255
-0.26020917 -0.2787652 -0.41378826 -0.67201823 -0.26109803 -0.19128013 -0.25924712 0.15472516
00000000: 5418 5ebd 0562 6abe bbdc 80be bee3 44be
00000010: b9c8 8d3e 9d87 a8be b736 4abe 18e5 b3bc
00000020: 029b 3fbd a9b3 953d 129b 7abe 078d 8e3d
00000030: adbf 7ebe 4c60 87be 40d9 77be 1bc5 673d
00000040: 2948 afbe ad87 50be 4fc1 633c a116 c0be
00000050: fb66 f5bd 97a0 89be 4625 abbd 15fb d2bd
00000060: 062b 463e 02a9 27be 9619 e1be aa56 99be
00000070: f8fe 90be 1ba9 51be 17a1 493d af28 f3be
00000080: 2e48 86be 7d23 143e 7ba4 11bd fc3d 88be
00000090: d3c6 67be b259 873e 9035 88be 04b3 2f3d
000000a0: f42f 6abd 58c3 1bbe ac1a c73d 1f90 b6be
000000b0: aed5 e03d 601a 6bbc 87b4 f6be b3a8 183e
000000c0: 1c88 5e3e 965d 80be ec58 5a3d 0740 76be
000000d0: c1e9 f23d f6a7 c7be 0229 60be b0f0 afbe
000000e0: cb6f bdbd b70f 96be c383 eebd b4df 6bbd
000000f0: 8638 8cbe b270 0a3e 3d37 c83d 89ae 21be
00000100: 6c32 7abe 6e78 5cbe 08df 653e 1d8e d0be
00000110: a739 e33c 07d9 223e a2bb d43d a02d f2be
00000120: a551 cdbe 87ea 893b bafc 37be e69c 87bd
00000130: 40ee b7be 83f8 1abe ffab 31bd 3456 a2be
00000140: d162 db3c 6197 b3be 3969 75be 01d8 28be
00000150: 2cc7 10bf e77f 393e fe43 52be eeeb 13bf
00000160: 1add 01be 9cee 7d3d 1cc2 1cbe 08f8 85be
00000170: f23c 3dbe 2a78 75be 2564 b8be 7e41 5b3e
00000180: d8f2 8abd 395a 573e e979 b73d f7d9 d53d
00000190: 2963 013e f1d9 703e 819d 203c 4366 893c
000001a0: c6d7 e2bd 9f19 1cbf befb 96be cff8 08bf
000001b0: 168e cebe 83ea 373e 689d 8bbc 918d cdbe
000001c0: c215 73be 54c4 513e 09b7 16be 06bc 88be
000001d0: 6519 c43c c925 e8bd ff54 6abe 5e0d 31be
000001e0: 233a 85be 50ba 8ebe 0edc d3be 6309 2cbf
000001f0: a4ae 85be f0de 43be 0abc 84be 4670 1e3e

running_mean f4 [128]
-0.17343599 0.046298955 -0.036942717 -0.14426807 -0.054681882 0.13400938 -0.06249032 0.09273639
-0.17898643 -0.041780647 -0.20428775 -0.047797326 0.0021881685 -0.06745483 0.099643394 -0.09558335
0.15045145 -0.007047767 -0.21873754 0.035677113 -0.34843484 0.14049003 -0.17794506 0.03889962
-0.061976656 0.028078163 0.01757033 -0.06527392 0.08239837 -0.044153463 -0.045737788 0.13216265
-0.016650468 -0.10769172 0.057901006 0.033069737 -0.08702474 -0.0032146014 0.00054148585 0.038646936
0.030595668 -0.074062064 0.0050135404 0.10295232 -0.21297002 -0.07405122 -0.038359415 -0.09752559
-0.102526575 -0.4171537 -0.017882504 0.006106116 -0.124459796 0.109471545 -0.10122421 -0.06563431
-0.20489113 -0.29472157 -0.1444648 -0.23524985 -0.036165297 0.10732885 -0.13133176 -0.21552068
0.14553097 -0.41543704 -0.073180705 0.00033390895 -0.27865443 -0.16428694 0.09161489 -0.03521207
0.0032702666 0.10802751 0.16657446 -0.1999844 0.05251272 -0.23083931 -0.06483209 -0.009091599
-0.06294903 -0.030769669 -0.056902844 -0.017534476 0.17347679 -0.044485394 -0.13819976 0.06291979
-0.11198625 0.02892104 -0.25136212 0.06465777 0.029320374 -0.3069728 0.09799695 -0.25968727
-0.022654027 -0.05931599 -0.1130142 -0.04113482 -0.123345636 -0.11752921 0.0130541865 0.007214159
-0.17512852 0.05689212 -0.038916588 -0.030982796 0.023740795 -0.047488023 0.25060105 -0.058491793
0.012594388 -0.07252917 -0.22179365 0.019438623 -0.24429819 -0.017856512 0.0103135705 0.15418015
-0.01802507 0.0039456524 0.026435912 -0.057055183 -0.034101404 0.0053432453 0.058017455 -0.2190989
00000000: 3499 31be f9a3 3d3d 3f51 17bd 02bb 13be
00000010: 1cfa 5fbd c139 093e daf5 7fbd 94ec bd3d
00000020: 3848 37be 2f22 2bbd cf30 51be 21c7 43bd
00000030: 6067 0f3b c225 8abd d611 cc3d 34c1 c3bd
00000040: f20f 1a3e f4f0 e6bb bcfc 5fbe 2a22 123d
00000050: 0d66 b2be 9edc 0f3e 3b37 36be 3555 1f3d
00000060: 3cdb 7dbd 2d04 e63c a7ef 8f3c 55ae 85bd
00000070: 7ac0 a83d 43da 34bd 8c57 3bbd a555 073e
00000080: 9066 88bc 7a8d dcbd 9b29 6d3d 2274 073d
00000090: 073a b2bd 10ac 52bb 80f2 0d3a 404c 1e3d
000000a0: c4a3 fa3c daad 97bd a048 a43b aad8 d23d
000000b0: d014 5abe 2ba8 97bd c31e 1dbd 7fbb c7bd
000000c0: 74f9 d1bd 2b95 d5be 547e 92bc d015 c83b
000000d0: c7e4 febd 9e32 e03d a34e cfbd 486b 86bd
000000e0: fbce 51be bfe5 96be 95ee 13be 56e5 70be
000000f0: 1022 14bd 3acf db3d d57b 06be 74b1 5cbe
00000100: 1206 153e 2ab4 d4be c4df 95bd 8010 af39
00000110: cbab 8ebe d63a 28be 96a0 bb3d 883a 10bd
00000120: f851 563b 873d dd3d 7f92 2a3e b6c8 4cbe
00000130: 9417 573d 2461 6cbe b0c6 84bd eef4 14bc
00000140: 6ceb 80bd ac10 fcbc f512 69bd 76a4 8fbc
00000150: e6a3 313e 5136 36bd 3d84 0dbe 17dc 803d
00000160: 0c59 e5bd d1eb ec3c 89b2 80be 4b6b 843d
00000170: 4831 f03c 8a2b 9dbe a0b2 c83d bbf5 84be
00000180: f094 b9bc 53f5 72bd fd73 e7bd fc7c 28bd
00000190: a39c fcbd 28b3 f0bd 3ae1 553c c064 ec3b
000001a0: e454 33be b607 693d 0067 1fbd a2cf fdbc
000001b0: 0e7c c23c cd82 42bd c84e 803e 1795 6fbd
000001c0: b158 4e3c 2c8a 94bd e01d 63be bf3d 9f3c
000001d0: 4e29 7abe d247 92bc 40fa 283c 67e1 1d3e
000001e0: 50a9 93bc 884a 813b 2090 d83c b2b2 69bd
000001f0: eaad 0bbd 6416 af3b b6a3 6d3d 765b 60be

running_var f4 [128]
4.0846014 4.77291 3.6878142 15.816234 3.0992787 1.4984616 15.275094 10.191904
1.5950531 16.639126 5.387318 11.145341 3.1985307 0.45336157 0.33523035 3.4486344
4.6922493 3.021292 12.564222 4.6391234 6.141998 0.724286 6.3878074 10.732603
8.476942 2.4063866 5.3989506 2.225893 2.2511728 3.5678058 0.24631663 5.072276
5.303118 9.503774 1.7110443 4.52021 9.980788 4.3616085 7.5050015 10.530828
11.613046 3.0878692 15.059871 1.5357184 10.661244 10.777747 3.7022073 2.7379074
4.575605 16.221554 0.22542472 1.8937291 18.464697 0.4125209 0.53038126 9.226456
6.526835 18.71582 9.410355 6.011544 9.482068 7.9350896 4.667193 2.784023
2.3824956 5.049081 4.1144476 10.562754 20.208797 9.747112 11.813281 6.061109
2.8981225 7.1022806 1.8149834 20.131805 2.4296815 3.8573666 1.699366 2.1853118
5.462904 9.105417 0.6394216 3.812954 7.1434255 1.677411 0.704563 6.7925134
14.566762 6.1925974 4.4303136 6.295091 15.1457615 2.8701081 4.150034 8.368556
16.030073 4.4227157 3.1877189 12.032493 4.2701693 3.80828 5.031733 8.511531
2.7270381 5.2975287 8.963681 7.3148165 4.0035925 5.0993466 6.0189595 2.3703284
0.77449465 5.192882 6.01637 2.9310722 10.623317 17.033169 25.345669 5.3027387
1.3008035 4.572594 2.5236623 5.23066 3.1706557 3.1742163 8.07265 13.049666
00000000: 0eb5 8240 aebb 9840 2605 6c40 4b0f 7d41
00000010: 955a 4640 97cd bf3f c966 7441 0a12 2341
00000020: b32a cc3f ee1c 8541 e964 ac40 5153 3241
00000030: bab4 4c40 021f e83e 50a3 ab3e 6db6 5c40
00000040: e826 9640 d95c 4140 0e07 4941 b373 9440
00000050: 3f8b c440 cf6a 393f eb68 cc40 beb8 2b41
00000060: 8ea1 0741 3d02 1a40 34c4 ac40 0875 0e40
00000070: 3713 1040 ee56 6440 6d3a 7c3e 1650 a240
00000080: 25b3 a940 750f 1841 8003 db3f 8fa5 9040
00000090: 4fb1 1f41 4c92 8b40 f928 f040 467e 2841
000000a0: 09cf 3941 a69f 4540 3bf5 7041 6c92 c43f
000000b0: 7594 2a41 a771 2c41 f7f0 6c40 e039 2f40
000000c0: 5b6b 9240 bec5 8141 bdd5 663e b765 f23f
000000d0: b3b7 9341 f035 d33e 11c7 073f 909f 1341
000000e0: d5db d040 00ba 9541 d090 1641 925e c040
000000f0: 8db6 1741 41ec fd40 a559 9540 6f2d 3240
00000100: cf7a 1840 1292 a140 8ea9 8340 0a01 2941
00000110: 9eab a141 2cf4 1b41 3303 3d41 9bf4 c140
00000120: d77a 3940 e245 e340 6051 e83f f00d a141
00000130: e77f 1b40 18df 7640 d384 d93f 26dc 0b40
00000140: 1cd0 ae40 caaf 1141 22b1 233f 7007 7440
00000150: f196 e440 67b5 d63f 3e5e 343f 455c d940
00000160: 7511 6941 c229 c640 21c5 8d40 6371 c940
00000170: 0a55 7241 daaf 3740 14cd 8440 9be5 0541
00000180: 973d 8041 e386 8d40 9603 4c40 1785 4041
00000190: 3aa5 8840 dcba 7340 f503 a140 3b2f 0841
000001a0: cb87 2e40 5b85 a940 3d6b 0f41 fa12 ea40
000001b0: 6e1d 8040 d92d a340 519b c040 76b3 1740
000001c0: 4845 463f 172c a640 1a86 c040 b096 3b40
000001d0: 1bf9 2941 ee43 8841 eec3 ca41 09b0 a940
000001e0: bb80 a63f b152 9240 af83 2140 9161 a740
000001f0: 06ec 4a40 5c26 4b40 9329 0141 6fcb 5041

weight f4 [64, 128]
-0.13479662 -0.17126775 -0.0746403 -0.14304411 -0.2142198 0.23427758 -0.077738404 -0.104127906
0.12096044 0.11146979 -0.06523646 0.10343071 -0.20133978 0.14466123 -0.020740563 0.09679161
0.17267635 -0.07326851 0.13946387 0.2533688 -0.024984647 0.31143314 -0.11610642 -0.09277345
0.11346021 -0.09727687 0.23155661 -0.09029309 -0.009615606 -0.1732565 0.12349585 0.2948227
-0.054195456 0.14196505 0.16626512 -0.08555618 -0.07597082 -0.22660947 0.1528435 0.09979488
0.10202238 -0.19712174 -0.16268739 0.31954524 0.15836032 0.087278344 0.17878014 -0.17705275
-0.22754335 -0.009672547 0.15529092 -0.07533453 0.15370628 0.16539934 -0.041310158 0.23102671
0.1893601 -0.054838195 0.16174544 0.14654823 0.2442708 -0.14059384 0.06500667 0.11287951
-0.13319641 -0.10365895 -0.23297483 -0.023993568 0.1734123 0.15728778 0.13805778 0.06244916
0.2950686 0.12935178 -0.117938854 0.09700532 0.24059124 -0.11730058 0.1634553 -0.1223975
-0.2004757 0.2639662 0.29448107 -0.105884254 0.34817454 -0.27001077 -0.07719349 0.30279323
0.14458185 -0.17580934 -0.022748694 -0.050701562 -0.13915676 -0.1378684 0.25541702 0.12963262
-0.17458625 -0.19284491 -0.19981109 0.107127845 -0.24425887 -0.1876636 -0.17683154 -0.19438794
-0.08829828 0.29159343 0.17429002 0.20122002 0.22211719 -0.14450645 -0.12640692 0.12224876
0.16864103 -0.25803098 0.047092907 -0.048954338 0.12900318 0.14410713 -0.13508514 -0.10306962
-0.10311886 -0.058944892 0.32100573 0.30738202 -0.04329823 -0.09635265 -0.109175704 0.18092524
0.018887317 0.027199375 0.15025812 0.07277942 0.06915846 -0.052099936 0.09752623 0.06915018
0.06349928 -0.32140833 -0.00759777 -0.35892424 0.04795384 0.06584127 0.018542886 -0.050971463
-0.22295825 0.12876895 -0.3385708 -0.07742291 0.047520943 -0.011705605 0.05146497 0.08668873
-0.3142364 -0.0064010704 -0.2374923 0.12071897 0.07409514 0.069936134 0.08113885 -0.10686969
0.108723715 -0.30586797 -0.09285526 0.060429975 -0.00067561574 0.077109665 -0.29982746 -0.3040973
-0.22328809 0.10400308 0.040634517 -0.15519021 -0.39887312 -0.4000868 -0.17561717 0.04916326
0.06676424 -0.0077306116 -0.06978909 0.055875544 -0.26466244 0.15302947 0.024003401 -0.20036839
-0.23379266 0.0872385 -0.21921284 -0.21914648 -0.25796473 0.06082597 -0.29753807 0.07300466
0.07885744 0.14640966 0.09281344 0.055319816 -0.16655484 -0.33724245 -0.21903993 0.14933987
-0.10017287 -0.3401517 0.06989466 -0.37035075 -0.18799746 0.042822536 -0.38045865 0.0870181
0.045497 -0.2309857 -0.0541012 0.0917989 -0.14751315 0.054053314 0.045703262 -0.020681225
-0.2832018 0.05134651 -0.031140415 0.17583334 0.025458518 -0.061555408 -0.30960962 -0.2824384
0.11004485 0.091706164 0.13732654 -0.22955425 0.06098282 0.08984156 -0.010782186 0.10592273
0.05357472 -0.08203891 -0.26953918 -0.015049849 -0.18215595 0.032081988 0.04904672 0.15808669
-0.047901068 0.056564145 -0.1881917 0.07045862 -0.09292958 -0.3324371 0.12686427 0.11163732
0.1112937 0.12744728 -0.14775419 -0.06555136 0.11076974 0.089961685 0.050480973 -0.13773544
00000000: 2008 0abe d060 2fbe 03dd 98bd 287a 12be
00000010: 6f5c 5bbe 76e6 6f3e 5035 9fbd 0341 d5bd
00000020: 1bba f73d 464a e43d b19a 85bd 7bd3 d33d
00000030: 042c 4ebe 1322 143e 1de8 a9bc ae3a c63d
00000040: 12d2 303e cd0d 96bd 9ecf 0e3e 8eb9 813e
00000050: 9aac ccbc 2a74 9f3e 34c9 edbd 0200 bebd
00000060: d45d e83d 1839 c7bd 2d1d 6d3e 95eb b8bd
00000070: c68a 1dbc 276a 31be 64eb fc3d 00f3 963e
00000080: 0efc 5dbd 495f 113e 6741 2a3e 1438 afbd
00000090: 9796 9bbd 500c 68be 0283 1c3e 4261 cc3d
000000a0: 1cf1 d03d 48da 49be 8697 26be 6f9b a33e
000000b0: 3529 223e fdbe b23d 2412 373e 514d 35be
000000c0: 2001 69be 9a79 1ebc 9504 1f3e fd48 9abd
000000d0: 2e65 1d3e 725e 293e d734 29bd 4492 6c3e
000000e0: 9de7 413e 049e 60bd 99a0 253e bd10 163e
000000f0: 2022 7a3e d5f7 0fbe 3822 853d 5f2d e73d
00000100: a464 08be 254b d4bd f490 6ebe 298e c4bc
00000110: fe92 313e 0c10 213e 055f 0d3e b1ca 7f3d
00000120: 3b13 973e cb74 043e ed89 f1bd baaa c63d
00000130: 8d5d 763e 493b f0bd d360 273e 8aab fabd
00000140: 8049 4dbe 9426 873e 39c6 963e d8d9 d8bd
00000150: ef43 b23e da3e 8abe 9f17 9ebd b707 9b3e
00000160: 440d 143e 5d07 34be 785b babc 71ac 4fbd
00000170: 1c7f 0ebe 602d 0dbe 05c6 823e 6abe 043e
00000180: bdc6 32be 2379 45be 479b 4cbe d865 db3d
00000190: ff1e 7abe e32a 40be 5413 35be a20d 47be
000001a0: bbd5 b4bd bc4b 953e 1579 323e 9f0c 4e3e
000001b0: b072 633e 80f9 13be d170 01be 8f5d fa3d
000001c0: 3cb0 2c3e a31c 84be 7ee4 403d 5884 48bd
000001d0: 6919 043e d290 133e c253 0abe 2a16 d3bd
000001e0: fb2f d3bd 3370 71bd dd5a a43e 2d61 9d3e
000001f0: 7c59 31bd 8a54 c5bd 8397 dfbd 7744 393e
00000200: 93b9 9a3c 39d1 de3c 44dd 193e 600d 953d
00000210: f3a2 8d3d be66 55bd d5bb c73d 9c9e 8d3d
00000220: e90b 823d a28f a4be b7f6 f8bb ebc4 b7be
00000230: 3f6b 443d cad7 863d 40e7 973c 74c7 50bd
00000240: 2b4f 64be 02dc 033e 2759 adbe e78f 9ebd
00000250: 52a5 423d dec8 3fbc efcc 523d dc89 b13d
00000260: 98e3 a0be 12c0 d1bb 2e31 73be 823b f73d
00000270: 31bf 973d ad3a 8f3d 202c a63d 7fde dabd
00000280: 8aaa de3d ba9a 9cbe e62a bebd 6c85 773d
00000290: ce1b 31ba aceb 9d3d fc82 99be a4b2 9bbe
000002a0: a2a5 64be 91ff d43d 6170 263d 2fea 1ebe
000002b0: 1939 ccbe 2dd8 ccbe fdd4 33be 6a5f 493d
000002c0: b1bb 883d 1251 fdbb 95ed 8ebd c1dd 643d
000002d0: d681 87be c2b3 1c3e c8a2 c43c 5f2d 4dbe
000002e0: 5867 6fbe 19aa b23d 5579 60be ef67 60be
000002f0: f413 84be a724 793d e956 98be 7883 953d
00000300: 0280 a13d 6aec 153e f914 be3d 0897 623d
00000310: 5a8d 2abe 0bab acbe 014c 60be 8dec 183e
00000320: 6f27 cdbd 5d28 aebe ee24 8f3d 9d9e bdbe
00000330: 6882 40be af66 2f3d 7acb c2be 8c36 b23d
00000340: 105b 3a3d 8487 6cbe 3899 5dbd 1001 bc3d
00000350: b00d 17be 0267 5d3d 5833 3b3d ac6b a9bc
00000360: d4ff 90be b850 523d 2f1a ffbc a80d 343e
00000370: 628e d03c 8621 7cbd 2785 9ebe c49b 90be
00000380: 325f e13d 71d0 bb3d 549f 0c3e 4510 6bbe
00000390: 1fc9 793d dafe b73d c4a7 30bc 04ee d83d
000003a0: 2a71 5b3d 0404 a8bd 0a01 8abe a493 76bc
000003b0: 1787 3abe 6768 033d 37e5 483d 7ae1 213e
000003c0: e933 44bd ceaf 673d 53b5 40be 9c4c 903d
000003d0: dd51 bebd 3235 aabe b5e8 013e 1ba2 e43d
000003e0: f4ed e33d 8a81 023e e04c 17be cb3f 86bd
000003f0: 3fdb e23d d53d b83d 23c5 4e3d 850a 0dbe

bias f4 [64]
-0.03427747 0.009552328 -0.012143672 -0.028951434 0.08129366 -0.0964167 0.12156075 0.019905899
-0.08369896 0.03057224 0.040320944 -0.048804056 -0.08606763 -0.08885956 0.016708424 -0.12245198
-0.075017214 0.018691199 0.06441482 -0.013974036 -0.012177297 0.028962323 0.066911206 -0.012142926
0.04479899 0.10826809 -0.1022535 0.0002319865 0.021420708 -0.023281325 -0.056840036 0.03120539
-0.01686568 -0.0547047 0.07499982 -0.020902934 0.0109974155 0.021147894 0.015745249 0.07820102
0.006694459 0.05449677 -0.022124004 -0.02176318 -0.046840638 0.0830315 0.008226759 0.017340155
0.020376824 0.067087315 0.044372812 0.040511124 -0.010125201 -0.016677486 0.032717656 0.056652337
0.09999649 -0.048322536 -0.06260074 0.019088648 0.04700653 -0.0068825074 -0.07237765 -0.03707506
00000000: 8866 0cbd 5e81 1c3c 41f6 46bc 8f2b edbc
00000010: 4a7d a63d 1e76 c5bd d8f4 f83d b211 a33c
00000020: 5c6a abbd a272 fa3c 9327 253d c3e6 47bd
00000030: 3a44 b0bd 00fc b5bd 1be0 883c 1bc8 fabd
00000040: a0a2 99bd 491e 993c ebeb 833d 5bf3 64bc
00000050: 4983 47bc 6542 ed3c be08 893d 20f3 46bc
00000060: 257f 373d a9bb dd3d 486a d1bd 6741 7339
00000070: 7b7a af3c 7ab8 bebc 19d1 68bd 72a2 ff3c
00000080: e529 8abc 0912 60bd 8199 993d a13c abbc
00000090: 812e 343c 593e ad3c 2efc 803c db27 a03d
000000a0: 315d db3b 0138 5f3d 663d b5bc b248 b2bc
000000b0: f8db 3fbd 6b0c aa3d 87c9 063c f10c 8e3c
000000c0: 4ced a63c 1365 893d 44c0 353d feee 253d
000000d0: 2ce4 25bc 399f 88bc f302 063d 480c 683d
000000e0: f6ca cc3d daed 45bd d134 80bd cc5f 9c3c
000000f0: eb89 403d a886 e1bb bc3a 94bd 05dc 17bd

weight f4 [64]
0.48437712 0.32084537 0.39094856 0.32707602 0.19772643 0.29258332 0.36765417 0.67578596
0.43366647 0.39767644 0.36843482 0.5112347 0.5726059 0.40076277 0.5339789 0.26249763
0.36917013 0.22624977 0.5214614 0.307859 0.39897916 0.117786236 0.7919558 0.35792637
0.2981733 0.32248154 0.28690562 0.43867478 0.24146742 0.7433929 0.39563042 0.52473974
0.42852783 0.4095707 0.40300643 0.2783144 0.6784107 0.3000689 0.42640606 0.2821
0.073521554 0.5221497 0.763704 0.7430748 0.6423939 0.26406914 0.46655935 0.38354
0.50404453 0.3184349 0.61160654 0.35693505 0.38725975 0.5560223 0.730063 0.37558588
0.30613118 0.4269067 0.5469577 0.39154822 0.62831765 0.5240791 0.30125636 0.82137555
00000000: 4700 f83e d845 a43e 692a c83e 8276 a73e
00000010: cc78 4a3e 7bcd 953e 2b3d bc3e 4f00 2d3f
00000020: 8809 de3e 3f9c cb3e 7da3 bc3e 47e0 023f
00000030: 4d96 123f c730 cd3e d7b2 083f 1766 863e
00000040: de03 bd3e 05ae 673e 7f7e 053f b29f 9d3e
00000050: ff46 cc3e e939 f13d 9ebd 4a3f 2042 b73e
00000060: 2caa 983e 4d1c a53e 4be5 923e fb99 e03e
00000070: 3c43 773e ff4e 3e3f 1290 ca3e 5855 063f
00000080: 0068 db3e 40b3 d13e dc56 ce3e 3a7f 8e3e
00000090: 53ac 2d3f a2a2 993e e551 da3e 696f 903e
000000a0: 7892 963d 9aab 053f 1b82 433f 263a 3e3f
000000b0: ed73 243f 1234 873e dee0 ee3e 5b5f c43e
000000c0: 1009 013f e609 a33e 3f92 1c3f 31c0 b63e
000000d0: e946 c63e 7a57 0e3f 69e5 3a3f cb4c c03e
000000e0: 3abd 9c3e 8493 da3e 6b05 0c3f 0279 c83e
000000f0: 6dd9 203f 0c2a 063f 463e 9a3e ab45 523f

bias f4 [64]
1.3106192 1.3996673 1.1866136 1.3066343 1.2913455 1.3852206 1.4169616 0.80073357
1.0079441 1.1625888 1.1138448 0.79918134 0.6416253 1.0775933 1.1315601 1.3757135
1.3758572 1.376884 1.2402511 1.496796 1.5701969 1.2260436 0.7366989 1.3714072
1.4539768 1.4068081 1.2559401 0.8480823 1.2045566 0.46704385 1.4371845 0.9701756
1.134862 1.3040906 1.0119802 1.0791062 0.67682326 1.0992817 1.1483834 1.372159
1.5265577 0.98820233 0.5565465 0.51784664 0.85341847 1.2573649 1.0710344 0.90778375
0.9857479 1.2720809 0.63762313 1.2770512 1.0886248 1.0232853 0.5714737 1.1541016
1.5019467 1.0610834 1.1402489 1.1748542 0.9958095 1.2577722 1.0223457 0.42308924
00000000: 5fc2 a73f 4c28 b33f f4e2 973f cb3f a73f
00000010: cf4a a53f e94e b13f ff5e b53f e0fc 4c3f
00000020: 5004 813f b6cf 943f 7792 8e3f 2697 4c3f
00000030: 8e41 243f 94ee 893f f6d6 903f 6117 b03f
00000040: 171c b03f bc3d b03f 8cc0 9e3f 0397 bf3f
00000050: 36fc c83f ffee 9c3f 4d98 3c3f 458a af3f
00000060: e91b ba3f 4a12 b43f a5c2 a03f ec1b 593f
00000070: e92e 9a3f 5f20 ef3e a9f5 b73f 6e5d 783f
00000080: 2843 913f 71ec a63f 9188 813f 2720 8a3f
00000090: 4a44 2d3f 43b5 8c3f 3afe 923f e8a2 af3f
000000a0: 3e66 c33f d4fa 7c3f d579 0e3f 9991 043f
000000b0: a279 5a3f 55f1 a03f a817 893f 8464 683f
000000c0: f959 7c3f 8cd3 a23f 453b 233f 6a76 a33f
000000d0: 0f58 8b3f 03fb 823f 1a4c 123f 9ab9 933f
000000e0: ca3f c03f 95d1 873f adf3 913f 9f61 963f
000000f0: 5fed 7e3f aefe a03f 39dc 823f 279f d83e

running_mean f4 [64]
-0.78458506 -1.275872 0.58316606 -3.1749725 -1.4208506 -1.5859216 -2.5757067 1.1383232
2.1786098 1.2183423 0.05452694 1.4840269 1.6386275 0.09967813 0.89249897 -3.3501103
-2.7339976 -1.8629792 -0.3292621 -1.1221163 -1.279826 -2.01575 1.8778144 -2.055863
-2.853388 -2.2169175 -2.7619877 1.5585967 -1.3715787 2.3107905 -1.2069031 0.8712628
1.4245375 0.15099446 -0.7645253 0.5740662 1.6971834 0.79783016 0.8562704 -0.97923064
-2.629701 1.2768574 2.581186 2.1049747 -0.5390822 -2.3978472 1.9914671 1.9145669
0.63116133 -0.10571335 0.5269828 0.62563294 2.0350113 1.1410745 0.89475954 2.0539763
-2.4997146 1.432016 0.7519133 0.83927816 1.3548496 -0.1088995 0.3693273 2.1232157
00000000: 91da 48bf c64f a3bf 5f4a 153f c032 4bc0
00000010: 6fde b5bf 7bff cabf 61d8 24c0 93b4 913f
00000020: 586e 0b40 a4f2 9b3f a457 5f3d 98f4 bd3f
00000030: 8cbe d13f 0c24 cc3d d07a 643f 3568 56c0
00000040: d1f9 2ec0 1a76 eebf 0b95 a8be 82a1 8fbf
00000050: 57d1 a3bf 0c02 01c0 395c f03f 4293 03c0
00000060: e99d 36c0 fae1 0dc0 68c4 30c0 1980 c73f
00000070: e48f afbf fee3 1340 cd7b 9abf 140b 5f3f
00000080: 3f57 b63f 4b9e 1a3e eeb7 43bf 01f6 123f
00000090: 4e3d d93f 993e 4c3f 8934 5b3f dcae 7abf
000000a0: 054d 28c0 1070 a33f 2732 2540 e8b7 0640
000000b0: 4b01 0abf 5476 19c0 65e8 fe3f 8710 f53f
000000c0: ca93 213f 3e80 d8bd 58e8 063f 7b29 203f
000000d0: a03d 0240 bb0e 923f f60e 653f 5974 0340
000000e0: 53fb 1fc0 4d4c b73f 647d 403f efda 563f
000000f0: b66b ad3f b306 dfbd 7818 bd3e c4e2 0740

running_var f4 [64]
11.368709 11.229957 12.19207 6.2728467 2.2387743 10.271275 10.458252 7.9572897
6.4449606 11.3607235 10.224441 3.775876 9.233872 10.948281 12.098463 6.214773
11.229842 2.5261123 10.618175 9.295815 10.343843 1.1836789 6.217056 9.141683
4.887614 9.054454 7.771895 8.605336 9.521695 4.7719417 11.593686 11.146101
11.953879 12.585526 11.505264 12.339104 3.941195 11.517951 8.78963 11.283516
0.6056838 10.689234 5.544362 5.7400026 9.27273 2.9544563 10.454638 9.650178
9.714785 3.542241 2.9135473 11.858456 8.974863 10.128061 2.501355 9.200046
5.71111 10.323811 11.969477 11.936475 5.319193 11.225417 9.189425 5.247815
00000000: 3be6 3541 e7ad 3341 b812 4341 29bb c840
00000010: 1448 0f40 2457 2441 0055 2741 1ea2 fe40
00000020: 1e3d ce40 86c5 3541 4f97 2341 f4a7 7140
00000030: f1bd 1341 292c 2f41 4e93 4141 6cdf c640
00000040: 6fad 3341 d3ab 2140 0be4 2941 a9bb 1441
00000050: 6280 2541 ca82 973f 1ff2 c640 5544 1241
00000060: 5567 9c40 0bdf 1041 5db3 f840 75af 0941
00000070: dd58 1841 bfb3 9840 bd7f 3941 6e56 3241
00000080: 1743 3f41 515e 4941 9015 3841 f86c 4541
00000090: 8a3c 7c40 8749 3841 53a2 0c41 4889 3441
000000a0: 180e 1b3f 1a07 2b41 6a6b b140 1aae b740
000000b0: 1a5d 1441 d015 3d40 3246 2741 2167 1a41
000000c0: c26f 1b41 14b4 6240 8f77 3a40 3cbc 3d41
000000d0: 0a99 0f41 8a0c 2241 3316 2040 6333 1341
000000e0: 6ac1 b640 542e 2541 fa82 3f41 cdfb 3e41
000000f0: d436 aa40 4f9b 3341 e307 1341 1aee a740

weight f4 [1, 64]
0.6362811 0.7599568 0.5226836 0.6762528 0.6653116 0.75763535 0.7484405 0.45650095
0.42047396 0.50697005 0.49775648 0.3274098 0.29490614 0.48804134 0.5152795 0.69395137
0.75696844 0.68550676 0.59146774 0.7705956 0.84206575 0.6985012 0.40880713 0.63183945
0.76503 0.7393166 0.67994994 0.33843294 0.6863363 0.31872213 0.6781211 0.502903
0.49230504 0.58312243 0.50988936 0.5141968 0.36758915 0.46938536 0.5123972 0.7220449
0.8435958 0.4319706 0.2747533 0.28795102 0.4701588 0.59529173 0.4482999 0.34610784
0.4602389 0.595008 0.26357988 0.6006364 0.47279373 0.4887591 0.27577114 0.535434
0.80404025 0.45945188 0.55806357 0.5170153 0.46328223 0.59847045 0.41443065 0.34640557
00000000: 51e3 223f 878c 423f 98ce 053f e71e 2d3f
00000010: dc51 2a3f 64f4 413f cc99 3f3f 7eba e93e
00000020: 5d48 d73e cac8 013f f0d9 fe3e 42a2 a73e
00000030: f0fd 963e 8ee0 f93e 5be9 033f cca6 313f
00000040: afc8 413f 5f7d 2f3f 6e6a 173f c145 453f
00000050: 9f91 573f fad0 323f 2b4f d13e 3bc0 213f
00000060: 02d9 433f da43 3d3f 3311 2e3f 1547 ad3e
00000070: bcb3 2f3f 8c2f a33e 5899 2d3f 40be 003f
00000080: 680f fc3e 8347 153f 1c88 023f 67a2 033f
00000090: a534 bc3e 4753 f03e 772c 033f efd7 383f
000000a0: e5f5 573f 402b dd3e 77ac 8c3e 516e 933e
000000b0: a7b8 f03e 0a65 183f 9187 e53e 0c35 b13e
000000c0: 6fa4 eb3e 7252 183f f1f3 863e 4fc3 193f
000000d0: 0512 f23e a23e fa3e e031 8d3e 3412 093f
000000e0: 95d5 4d3f 473d eb3e 41dd 0e3f 1d5b 043f
000000f0: 5433 ed3e 5c35 193f 4130 d43e 125c b13e
