Plots old/naive models/results_FCNN_3L_40ED_no_sched/e_40_model.pt (torch, 71019 bytes, 13 tensors)

weight f4 [128, 54]
00000000: 496e b2bd 9dec 15bc ea8e 573d 8b47 79bc
00000010: 0293 27bd ac6c 163d 77c0 ff3d 30d9 493c
00000020: efdf 543e 8108 49bd f45f 703c 6734 96bc
00000030: d3d9 893f 0076 243f 2d4f b03c 3eaa aabc
00000040: 1a7a 7d3d 4e46 e23d d767 f83d 711a 7cbd
00000050: bc1a 9fbd 2b98 973c 16bb 5a3c f821 8abd
00000060: 38e7 f1bd 7d94 7b3e d739 10bf 787a 503d
00000070: 25e2 5fbd b965 90bc 5ddd a7bd 68f0 c2bb
00000080: 27a0 15be 95ca 2ebe 62cd 09bd d056 3d3d
00000090: 68d5 6a3d 66f3 793d 0338 22bd f32c 263d
000000a0: 88a0 0a3c 722a 903e 5c29 2d3c c339 5d3d
000000b0: 0219 91bb 56fb 11bc 5c47 0a3e d157 33bc
000000c0: f89a 1dbd e5c0 53bd f665 12be 5786 a6bc
000000d0: bb32 b5bd 5856 a6bd 595d 7d3d 21d8 a1bc
000000e0: fc75 173d f9c9 32bc 6424 bb3b 9ca4 d1bc
000000f0: cc07 593d 7d9e 1ebc 8a94 d3bc d927 81bb
00000100: 932d 9ebc e855 783d ef67 2340 02e9 3b3d
00000110: 835f 6bbc 94a5 82bc 7530 983d b6dc e03c
00000120: b7db f63c 0618 013d 1cab c0bc 7a5c c7bc
00000130: 409c 313d 7d00 063d 0f7a 2ebd a34b 7abd
00000140: e133 0fbd e81a 1f3c 386b 96bb 8de7 aabd
00000150: 365b ee3b 76d2 0b3d 88d7 263d 7c55 41bd
00000160: 56f4 453d 2ff1 ff3c ca1b 283c e6c5 52bd
00000170: d0dc e0bc 8892 a1bd 3c55 88bb b419 2f3e
00000180: f384 8d3d 7fd8 d9bb 8198 4ebd 363f 3fbb
00000190: 4f33 a23d df1e 28bd 4b3c 04bd eab9 16bd
000001a0: 56a8 ec3d e4c3 d7bc 34ae f33c e561 2ebd
000001b0: e0ea 223e a3f2 9dbd e790 a5bd 8298 dc3b
000001c0: fd90 a23d e064 92bd 5e8c ce3b 3b31 7e3b
000001d0: 02e1 973d bc47 e5bd 3ed4 cdbd 48d2 07bc
000001e0: c971 1a40 ec50 7a3c 8694 b9bc efcb c63c
000001f0: ef43 4b3d 08a5 153d bf58 213d dddd c03b
00000200: 7772 9a3d 1e54 c6bc ada1 b7bd eb30 cabd
00000210: 725a e33d 4f20 abba 6139 b4bc eee0 8fbb
00000220: 9afc 0fbe fc74 ffbd 606e 3e3d bd40 d43c
00000230: 510d 513c baf2 1ebe 94bd 5d3a 852c 8e3b
00000240: b1fb e93d 60ee 533d 06dd 323c 4a4f 93bd
00000250: a1f4 4a3d 6a65 353e fe6b 463c 2d4a c3bc
00000260: 81b2 4b3c 5ee2 9b3d 8201 b93c 7eb5 973c
00000270: 598b dcbc a3e1 f0bd 453b 07be ad3b fcbc
00000280: 6e20 99bd f04f 39bd 67ea 98be 0b7c 67be
00000290: 1cbf 30bf 776d 0fbf ab38 21bd 4f37 cfbd
000002a0: d9b0 e6bd b30e d9bd e6e6 11be d281 74be
000002b0: 4133 39bc b696 b03d f0bb 84bd 8f22 cd3d
000002c0: 0db3 4ebe e49e 0dbe 9423 9abd 0055 233c
000002d0: 20fd 30be 94e6 0cbf fe7d 92be 9fdc c0be
000002e0: a047 f8be 4360 31bf 0e06 96be 4ea9 5d3d
000002f0: 60e5 f0be 2b49 103d 01e6 9cbe 60af 68be
00000300: ca54 d0bd acaf 203d 27de d6bc edb3 58be
00000310: 76ee 2c3d c323 083e 2afa 563d a35f 2f3e
00000320: 620f 693d 57a4 9d3d e037 143e a190 7f3d
00000330: bb39 5f3e 5041 cd3d 7421 533c 0dfc d03d
00000340: 0781 603e 4e99 223e ce9b 583d 3d64 26be
00000350: 0a00 05be 0f6e 86bc dfce 9cbd 9f0b 17be
00000360: 8401 01bc f4c4 aebd 97b9 b63c d0b5 10bd
00000370: f69b 92bd e056 80bc bc0a f73c d140 0c3e
00000380: 9370 e33d 3e47 9abd d22a 69bd 7a22 113e
00000390: ef46 ef3f 5cde 19bc 52eb bb3c 1f96 bcbd
000003a0: 967b 023e ca3a 0a3e 413b 063e 4a6a 043c
000003b0: b6dd a6bc 165f 07bc 1063 12bc 09a2 45bc
000003c0: 5b47 83bd 577c c73d 7627 c93d 9dbb e5bd
000003d0: f66c 2a3d 5a44 11bd c3ac 033c 79fe 20bd
000003e0: 8e1e 42bd f0ed 1dbd 758c cd3c 3d06 e33d
000003f0: 9277 6f3d d401 563d a279 9e3b 7a2a 723d
-0.087124415 -0.009150651 0.052626528 -0.015214811 -0.040911682 0.03672473 0.12487882 0.012319848
0.20788549 -0.049080376 0.0146713145 -0.018335534 1.07696 0.64242554 0.021522129 -0.02083313
0.061884023 0.11048566 0.12129181 -0.061548654 -0.07768771 0.018505177 0.013350269 -0.0674476
-0.118116796 0.24568363 -0.56338257 0.050898045 -0.054659028 -0.01762663 -0.081965186 -0.005949069
-0.14611875 -0.17069466 -0.033643134 0.04622537 0.057332426 0.06102314 -0.0396042 0.04057021
0.008461125 0.28157383 0.010568943 0.054010164 -0.00442803 -0.008910021 0.13503784 -0.01094623
-0.038477868 -0.05169763 -0.14296708 -0.02032773 -0.08847567 -0.081219375 0.0618566 -0.019756379
0.036977753 -0.010912412 0.005711125 -0.025591187 0.05298595 -0.009681341 -0.025827665 -0.003941518
-0.01930884 0.0606288 2.5532186 0.04587651 -0.0143660335 -0.015948094 0.074311174 0.027448993
0.030134065 0.03151705 -0.023519091 -0.024336088 0.043361902 0.03271531 -0.042596873 -0.06110729
-0.034961585 0.009711005 -0.004590418 -0.08344946 0.007274057 0.034136258 0.04073289 -0.047200665
0.04832872 0.031242935 0.010260532 -0.051458262 -0.027449042 -0.07889277 -0.0041605514 0.17099649
0.06910124 -0.006648123 -0.050438408 -0.0029181964 0.079199426 -0.041045066 -0.032284062 -0.036798395
0.11555545 -0.026338525 0.029746152 -0.04257383 0.1590991 -0.07712295 -0.080842786 0.0067320475
0.079378106 -0.07148147 0.006303354 0.0038786668 0.07415964 -0.11195323 -0.100502476 -0.008289881
2.413195 0.015278082 -0.02265383 0.024267165 0.049625333 0.03653434 0.039391275 0.005885823
0.07541364 -0.024210032 -0.08966384 -0.098726116 0.111012354 -0.0013055893 -0.022000017 -0.0043908274
-0.14061204 -0.12473485 0.04649198 0.025909776 0.012759523 -0.1552228 0.00084587303 0.0043388032
0.114249595 0.051741004 0.010916954 -0.071928576 0.049549703 0.17714468 0.012110708 -0.02383908
0.012432695 0.076115355 0.022583727 0.01851916 -0.026921915 -0.11761787 -0.13206203 -0.030790174
-0.074768886 -0.04524225 -0.29866335 -0.22605912 -0.6904161 -0.56026405 -0.039360683 -0.10117971
-0.112642 -0.10598507 -0.14248237 -0.23877648 -0.011303724 0.08622496 -0.06481159 0.10016357
-0.2018549 -0.13830143 -0.07526317 0.009968996 -0.1728406 -0.55039334 -0.2861175 -0.3766832
-0.48492146 -0.6928751 -0.29301494 0.05411654 -0.4705 0.03522603 -0.3064423 -0.2272315
-0.10172422 0.039230034 -0.026228977 -0.21162386 0.0422196 0.13294892 0.05248467 0.17126326
0.056899436 0.07697361 0.1447444 0.06239379 0.21799366 0.10022223 0.012886394 0.10204325
0.2192422 0.15878794 0.052882962 -0.16249175 -0.12988296 -0.016409902 -0.07656645 -0.14750527
-0.0078738965 -0.085336596 0.022305293 -0.03532964 -0.071586534 -0.015666425 0.030156486 0.136966
0.11105456 -0.075331196 -0.056925602 0.14173308 1.8693522 -0.0093913935 0.022939358 -0.09208321
0.12742457 0.13498989 0.13108541 0.008081982 -0.020369392 -0.008262416 -0.008934751 -0.012062558
-0.06410094 0.09740513 0.0982198 -0.11217425 0.04160782 -0.035465576 0.008036795 -0.039305184
-0.04739242 -0.038556993 0.02509139 0.11085174 0.05846364 0.052247837 0.004836277 0.05912254

bias f4 [128]
00000000: 351a 38bd a2a9 883d 2167 92bc 3cc9 a43b
00000010: 65c8 6f3c 41dd 9d3c e0ab 62bd 9c30 b7bc
00000020: 6768 0a3c fe46 92bc b368 dfba 41ff bb3c
00000030: 9419 d53c 6458 7bbd 5940 a23d 82ff 573d
00000040: b96b 5b3d dddc 6c3c e442 78bd 4f0c b5ba
00000050: 9474 00bd 9136 4b3d 8df2 67bc 8a55 ff3a
00000060: 0405 0fbd 7eb8 d53b efcd a33c 162c 44bd
00000070: 1a25 223d 013b 4cbc f5bf 58bd 40d6 943c
00000080: 2dcc 9e3b ef5a debc 2097 3e3d 7601 cd3c
00000090: 5c22 893d 7152 113d 523e 913c 54a4 043c
000000a0: 54ee 30bd 84dc bbbc e48a 803c 45d9 c1bc
000000b0: 584d 25bd 2fcc 3dbd 447a 50bd bfeb 8bbb
000000c0: 82ec 1abc 9cd2 0a3d 781e 58bc 4a68 013b
000000d0: c72a 143d 7563 243d 7e2c 00bd 876d 61bc
000000e0: 8ffa 40bd 6bff 9f3c 90be 933c bfa1 103d
000000f0: 3e81 c43b 32fb b3bc 2edd 2fbd 86fc 5b3b
00000100: ae32 f03c ecd0 08bd 01c6 623c 8a24 19bc
00000110: 566a 03bd 2d99 58bd 45eb 203d 9d9c 613d
00000120: bcef d9bc 9b02 573d 72c8 f63b f4cb 513d
00000130: 92b3 babc b58a 56bd a01d 703a 7396 8dbb
00000140: f58d bf3c eb40 4e3d 3519 85bd af6e 0d3c
00000150: dc86 a73d 3a1d 223b eafd 3abc b8bd 043c
00000160: 0930 43bc 2a1d 773c 952a 87bc fdb9 863d
00000170: ca14 9f3c 1f7a 47bd d21f c23c a4cf 88bd
00000180: 75c2 633d c72e dcbc e3ad 04bc 9955 d8bc
00000190: b5b1 b4ba 2461 fbbc 0d35 3fbd 77fd 173d
000001a0: 3d19 2d3c c99d 043c 10fd 993c f4fd 16bd
000001b0: 76cc e63c 401c 203c 5907 753d b524 46bc
000001c0: 9624 a2bc 9613 16bc 0311 823b b480 173c
000001d0: 294a 393c 7c43 703b 1b46 483d 423c 9a3c
000001e0: 343c 50ba 9e83 123d 4ea6 1bbd 6650 5dbd
000001f0: 7d27 d8bc b813 273c eff1 163d 40d3 5abd
-0.044946868 0.0667298 -0.017871441 0.005028872 0.01463518 0.019270541 -0.055339694 -0.022362046
0.008447743 -0.017856117 -0.0017044753 0.022948863 0.026013173 -0.061363593 0.079224296 0.052733906
0.05356953 0.014456955 -0.060610667 -0.0013812872 -0.031361178 0.049612585 -0.01415695 0.0019480449
-0.034916893 0.0065222373 0.019995658 -0.047893606 0.039586164 -0.0124652395 -0.05291744 0.018168569
0.004846117 -0.02714297 0.046530843 0.02502511 0.06696007 0.035479013 0.017729912 0.0080958195
-0.043196037 -0.022932298 0.015691228 -0.023663172 -0.040356964 -0.046337303 -0.05089785 -0.0042700465
-0.009455802 0.03389226 -0.013190858 0.0019746 0.03617361 0.040133912 -0.03129243 -0.0137590235
-0.04711395 0.019530972 0.018035203 0.035310503 0.005996852 -0.021970365 -0.042935543 0.0033567264
0.029321041 -0.03340237 0.013841153 -0.0093470905 -0.03208383 -0.052880455 0.03928687 0.055081
-0.026603572 0.05249272 0.007531219 0.051219895 -0.022790704 -0.052378375 0.0009159688 -0.0043209135
0.02338312 0.05035488 -0.064989485 0.008632346 0.08180019 0.0024736659 -0.011413077 0.008101873
-0.011913308 0.015082637 -0.016499797 0.06578443 0.019419093 -0.048700448 0.023696814 -0.06680229
0.05560537 -0.026877774 -0.008098098 -0.026408004 -0.0013785871 -0.030685969 -0.046681453 0.037106957
0.010565099 0.00809426 0.018797427 -0.036863282 0.028173666 0.00977236 0.05982146 -0.012093713
-0.019792836 -0.009159943 0.003969313 0.009246994 0.011309185 0.0036661318 0.048894983 0.018827561
-0.0007943541 0.03577005 -0.038000397 -0.054031752 -0.026386017 0.010197572 0.03685182 -0.05342412

weight f4 [128]
00000000: 29e0 163f 8ff3 8d3e 9898 9a3e 7115 f03e
00000010: bdbe f33e 9ed8 c53e 8c01 7b3e 65e8 bd3e
00000020: 12cf fd3d 2664 e73e 6b84 d53e cc8a 7a3e
00000030: 354c ae3e 5f05 e83e bee2 8c3e abf0 5c3e
00000040: 2034 b13e 7401 923e ec78 383e efaa b13e
00000050: e965 363e 2061 003f e171 923e 19d6 533e
00000060: f0c4 5b3e 9b2c 713e 83a9 bc3e 9079 9f3e
00000070: 321b a43e 763a 8b3e 3b86 8e3e d092 b63e
00000080: 8477 733e 41d7 d23e 901d 213e a9a8 8b3e
00000090: 3ed8 e53e 793e af3e 87ac c53e 9ea1 e63e
000000a0: 3139 c23e 8c13 a33e fabc e53e ce73 ed3e
000000b0: f654 ed3e f656 e53e 256c b83e d6e0 ad3e
000000c0: 2623 e53e f13c 983e 97b0 a83e 35cf 9b3e
000000d0: 3c4e f83e 1c75 1a3f 0a4b bd3e 3583 cd3e
000000e0: d304 e33e be58 a63e 11a0 9d3e 775b 8d3e
000000f0: 0b82 ae3e 4f65 d33e 8361 2f3e c421 a83e
00000100: 0908 903e 3d68 9c3e 6698 cd3e b4b7 c13e
00000110: b106 5e3e 9818 6c3e 4730 6c3e 89bd af3e
00000120: b481 cc3e 642c 973e 533e 9c3e f3a2 043f
00000130: 1034 af3e efde e83e 7b7f 3c3e 968f f13e
00000140: 9a09 c53e 370f d13e bb10 db3e d1f3 8f3e
00000150: 2ae9 ba3e caf3 c73e f453 0d3f f5a8 b73e
00000160: d72c d13e 9e22 da3e 75a2 8c3e 44e0 893e
00000170: c3f9 123f 40a3 a63e 4f5c bc3e 1169 2d3e
00000180: 9c36 073f 4f6b d43e 044b 903e 87c9 5b3e
00000190: 7ec6 be3e 1be9 ce3e a536 e13e 4ccc d43e
000001a0: 1c66 2b3e d0b0 b83e c134 d43e 8875 963e
000001b0: 08e7 d23e 937e cd3e 168e a53e 481c c63e
000001c0: 2f0b b43e 332f d33e 9187 873e 25a2 943e
000001d0: a95b 2e3e 9514 c43e 21f7 c33e cd4d cc3e
000001e0: 4b72 a73e 75c2 7e3e f918 ab3e 63a5 c93e
000001f0: a080 6f3e f571 863e b5bc 853e 2feb c73d
0.5893579 0.27724883 0.30194545 0.46891358 0.4760646 0.38641828 0.24512309 0.37091365
0.12393011 0.45193595 0.4170259 0.2446701 0.34042516 0.45316598 0.2751674 0.21576183
0.3461008 0.28516734 0.18014878 0.34700724 0.17812313 0.501482 0.28602508 0.2068714
0.21461844 0.23552172 0.36848077 0.31147432 0.32051998 0.2719304 0.27836785 0.35658884
0.2377606 0.4117985 0.15733933 0.27277115 0.44891542 0.3422735 0.3860819 0.4504518
0.3793426 0.3185085 0.4487074 0.46377414 0.46353883 0.44792908 0.36020008 0.339606
0.4475338 0.29733995 0.32947227 0.30431524 0.48497188 0.60334945 0.36971313 0.40139166
0.44339618 0.3248958 0.30786183 0.27608845 0.3408359 0.4128823 0.17127042 0.3283826
0.2813113 0.30548277 0.40155333 0.37835467 0.2168224 0.23056257 0.23065291 0.3432429
0.39942706 0.29526055 0.305163 0.5181114 0.34219408 0.45482585 0.18408005 0.4717986
0.38483888 0.4083192 0.42786202 0.28115705 0.36506015 0.39053184 0.5520623 0.3587109
0.40854523 0.42604536 0.27467695 0.26928914 0.57412356 0.32546425 0.36789176 0.16934611
0.528177 0.4148812 0.28182232 0.21463595 0.37260813 0.4041222 0.43987003 0.41562116
0.1673817 0.36072397 0.41446498 0.29386544 0.41191888 0.4013563 0.32334965 0.38693452
0.35164782 0.41246948 0.26470616 0.29029956 0.17027153 0.38296953 0.38274482 0.39903107
0.32704386 0.24878867 0.3341749 0.39383993 0.2338891 0.26258817 0.26120535 0.097616546

bias f4 [128]
00000000: e258 e23b f504 c4bd 2725 7dbe 1699 17be
00000010: 7f70 123e d360 19be f1bc 09be 883d abbd
00000020: 395a 223d a13a 0abe 5ec6 53be c791 dd3d
00000030: 06aa 21be ca80 5cbe 403e 2abe 5103 033d
00000040: 972c 6dbe 7a0c ccbd 56ac 193d 3106 b5be
00000050: 4fcf bdbc 7b3c 68be f3bc 43bd b265 ddbd
00000060: 0d98 ec3d a724 09be 0a9e cdbe 61d3 2cbe
00000070: 19e8 7fbe ea1f 04be 23b6 9dbc 8bc9 d8be
00000080: d865 04be eff8 60be e901 ab3c fa37 4dbe
00000090: 0375 44be 5584 043e 4447 92be 92ed 23be
000000a0: b685 6dbe f706 eabd bf91 503c aab6 38be
000000b0: 40d1 1dbe e7a7 70be 4bb8 b8be 4a09 7dbc
000000c0: 0d44 183e 04a4 92bd b868 0ebc 6f26 16be
000000d0: ad04 dfbd 0de8 94be 73d9 64be 16b2 b3be
000000e0: 25a1 7fbd b13b 4ebe 182f c8bd 435d b0bd
000000f0: 0b64 46be 6521 9cbc 2547 de3d 04a1 e0bd
00000100: 20ee 40be 3f61 f2bd 082d 073e 549c 94be
00000110: 40b2 cdbd 043b df3d 58b1 a63d 828a afbe
00000120: c082 58be bdaf 37bd d5bf 35be 69a7 9abe
00000130: 0a93 48be 106f bebd 67d5 e43b 9cc3 3ebe
00000140: 2696 0a3e 372e c7be b678 16be 657b d4bd
00000150: 845f e2be 74ff 213e 8d45 89be efb6 f7be
00000160: 653d 93be 9050 443e 8cd1 6abd 9c71 2bbe
00000170: e786 4bbe bd74 54be 8f9e b3be f518 de3d
00000180: 9830 40bd f4e4 313e ed6d 06be 42ce 2b3e
00000190: d10b 1f3e 4e20 1b3e 1044 4cbe 54f4 0f3e
000001a0: 0e48 92bc 152b 02bf a29b a5be bb30 07bf
000001b0: a8c6 93be f259 203e fd14 54be 5878 91be
000001c0: 43e4 28be 5a96 253e 1eab 3fbe e2ca 2cbe
000001d0: d5f8 5f3d 8ab0 88be 8f7a 43be f021 92be
000001e0: 5756 27be 7f92 29be 58e7 aabe 7fda 07bf
000001f0: 8295 ddbd 739c 07be d0c5 f8bd 2553 4b3d
0.0069075683 -0.09571258 -0.24721204 -0.14804491 0.14300726 -0.14978342 -0.13450982 -0.083613455
0.039636824 -0.13498928 -0.2068114 0.108188204 -0.15787515 -0.21533504 -0.16625309 0.031985585
-0.23161541 -0.09963317 0.037517868 -0.35356286 -0.023170142 -0.22679321 -0.047787618 -0.108104125
0.11552439 -0.13392888 -0.40159637 -0.1687751 -0.24990882 -0.12902799 -0.019251889 -0.42341265
-0.12929475 -0.2196996 0.020874934 -0.20040885 -0.19185261 0.12941106 -0.28569996 -0.16008595
-0.23195538 -0.1142711 0.012730061 -0.18038431 -0.15411854 -0.2350155 -0.36078104 -0.015444109
0.1486971 -0.0716019 -0.008691959 -0.14663099 -0.10889564 -0.2908329 -0.22348575 -0.35096806
-0.06240954 -0.20139958 -0.097746074 -0.08611538 -0.19374101 -0.019058893 0.108534135 -0.10968211
-0.18840837 -0.118349545 0.13200772 -0.2902552 -0.10043764 0.10899928 0.081392944 -0.3428536
-0.21143627 -0.04484533 -0.1774896 -0.3020585 -0.19587341 -0.09298527 0.0069834474 -0.18629307
0.1353384 -0.38902447 -0.14694485 -0.10375098 -0.44213498 0.15820104 -0.26810876 -0.48381755
-0.28757778 0.19171357 -0.057328746 -0.16742557 -0.1987568 -0.20747657 -0.35081908 0.10844604
-0.046921343 0.17372495 -0.13127871 0.167779 0.15531851 0.15149042 -0.19947839 0.14058048
-0.017856624 -0.5084699 -0.323453 -0.5280873 -0.288625 0.15659311 -0.20711131 -0.28412127
-0.16493325 0.16170636 -0.1871762 -0.16874269 0.054680664 -0.2669719 -0.19089721 -0.28541517
-0.1634153 -0.1655979 -0.33379626 -0.53067774 -0.10819532 -0.13243274 -0.12147105 0.04963984

running_mean f4 [128]
00000000: ed50 68be 8054 f83c 42a4 91bd 84ea d5bd
00000010: a383 73bd 9b12 a23d 9a86 b8bd f4df 1f3e
00000020: 078b 3ebc 75d1 8b3d aeb1 8cbe c03a 02be
00000030: ce91 0e3c 2654 49bc 53fa 253c 5ccf bfbd
00000040: cf59 f93d b882 a4bb c843 6cbe 8a18 0d3e
00000050: 8533 84be 0e32 123d 42d9 1dbe 72bd c1bd
00000060: c858 43bd ffcb 29bd bb6f a83d 636c eabd
00000070: 5476 3abc cefc 90bd 371e 04bd b8a7 e83d
00000080: fb08 29bd 692f 453d ae35 033c 89f4 24bd
00000090: dc5a 0ebc 4a2d 1bbd 1f73 123e 16a9 963d
000000a0: 6957 c53d a8cc 78bd 9a96 2abd 34e0 533d
000000b0: 404a 7a3c bcea 4e3c 2f83 743d fd3d 55bd
000000c0: fde7 92bd fd59 a2be 1d2e a03c 0c85 e13b
000000d0: 56be aa3d 2c16 8b3d 864d 6cbd 68b4 ee3d
000000e0: e55e 5cbe a13a 21bd a60d 66be 8910 acbe
000000f0: 880e 7abc 2e1d 313e 23f6 09be 09e4 f2bc
00000100: 1ae8 cc3d 746f 01be 3881 7bbd 40da b9ba
00000110: fb5a 17bf ee19 e5bd 11e7 f63d 4d53 b73c
00000120: f488 71bd 18ab 403e 68bc 833d eb55 393d
00000130: 135a a13d 45c1 0cbe 3d8f edbc e0e4 a63d
00000140: fb56 a63c ee4d 33bd 3a28 84bc 209a 8cbd
00000150: 71f8 0c3e 9391 4ebd aee4 dabd 6d04 5f3d
00000160: 9a60 10be 802a 21bb 3cdd c7be ba8d 2a3d
00000170: c005 0d3c 3e47 59be 2f5d a93d 521b 23be
00000180: 8094 e9bb 8c45 c9bd c1f4 5bbd 7148 99bd
00000190: 88ed 4fbd 73e2 cfbd b8b2 953d 28a6 96bc
000001a0: 9447 30be 8659 8f3d fa0a a43d 307c 38bd
000001b0: 8cd5 653d 54ec bcbd 0275 603e 9867 b2bd
000001c0: 1c4e cc3c 09b0 a4bd 114e cbbe 8d94 80bd
000001d0: 99b0 b5be 27c3 303e ddc0 8a3d 8509 283e
000001e0: 0ecd 1e3d 302b 863b 8b4d a93c b4c3 14bd
000001f0: 20fa 3abc 2cb3 5fbc 0083 253e 1c34 58be
-0.2268712 0.03031373 -0.07111408 -0.10445121 -0.05945171 0.07913705 -0.09010048 0.15612775
-0.011629826 0.0682706 -0.2747931 -0.12717724 0.008701755 -0.012288129 0.010130483 -0.093657225
0.12175333 -0.0050204657 -0.23072731 0.13778892 -0.25820556 0.035692267 -0.15414909 -0.09459962
-0.04769209 -0.04145431 0.08224436 -0.114464544 -0.011380751 -0.07079469 -0.032255378 0.11360115
-0.04126833 0.048140917 0.008008404 -0.04027227 -0.008688655 -0.037884988 0.14301728 0.07356469
0.09635813 -0.06074205 -0.04164753 0.05172749 0.015276492 0.012629207 0.05969542 -0.05206107
-0.071731545 -0.3170928 0.019553239 0.0068823155 0.08337085 0.06791338 -0.05769112 0.116555035
-0.21520574 -0.039362554 -0.22466144 -0.33606365 -0.015262254 0.17296287 -0.134728 -0.029649751
0.10005207 -0.12640172 -0.06140253 -0.0014179423 -0.591232 -0.11186586 0.12055791 0.022378588
-0.0589685 0.18815267 0.0643242 0.045247953 0.078785084 -0.13745601 -0.028998965 0.08149123
0.020305147 -0.04377549 -0.016132463 -0.068653345 0.13766648 -0.0504318 -0.106881484 0.05444758
-0.1409935 -0.0024591982 -0.39035976 0.041639067 0.008607328 -0.21218583 0.082697265 -0.1592839
-0.0071282983 -0.09827718 -0.053700212 -0.0748452 -0.050763637 -0.10150614 0.073094785 -0.018389776
-0.17214805 0.06999497 0.08009906 -0.04504031 0.056111857 -0.092247635 0.21919635 -0.08711165
0.02493959 -0.080413885 -0.39707997 -0.06278334 -0.35486296 0.17261945 0.06775067 0.16409881
0.038769774 0.004094504 0.020666858 -0.03631945 -0.0114121735 -0.013653558 0.16163254 -0.21113628

running_var f4 [128]
00000000: df2e 1340 373e cf40 532b f040 397f e441
00000010: 01a0 6840 493e 533f 83e5 0f41 45e4 0c41
00000020: 4e55 873e 3790 1941 58ff 0141 ad80 1141
00000030: eb61 7b40 20d7 f43e 8666 3a3f ebd6 6d40
00000040: 0d2f 4c40 7fe7 8340 3264 5741 5160 3f41
00000050: 4cef 3c40 8ab4 243f 064c 7e40 0bce 1e41
00000060: 2c38 6c41 838c ad40 8c45 c040 a057 7340
00000070: bd11 8e40 98f8 b340 78fc 963e c50a f940
00000080: ab1d 0941 7e5e b140 fb42 393f e2d0 0041
00000090: 86ea a440 742b 0641 c7d5 9a40 2cd3 1a41
000000a0: 4624 bc40 2b87 bb40 0a1e 4141 5a87 5d3f
000000b0: c04c 7841 ca14 ea40 e4ab 0341 625e d340
000000c0: 3795 ad40 fda9 e141 9aa1 a93e bd74 6040
000000d0: 0c4f 3f41 4446 093f 7f92 883f 05b2 0d41
000000e0: ad85 d940 d714 0e41 0e80 1141 54d6 0e41
000000f0: dcef 2040 9b58 ec40 30ce e13f 64fd b53f
00000100: 36a9 5a40 4e60 f03f d914 da40 bc07 ff40
00000110: 4b8d be41 1f53 5941 58d2 b541 286c 8d40
00000120: 7187 0740 8d42 3241 bfab 8340 68b8 1a41
00000130: 0e6c ed3f 6a24 eb3f f9c8 883e 308b 103f
00000140: 9911 c040 c807 3541 00db 303f b281 1a41
00000150: 5690 3341 3691 a240 8371 8a3f 6f25 4641
00000160: deaa 7641 d35b 0541 f0f1 7941 6fe4 0341
00000170: b844 a141 de3a b63f 0ebe 7041 6fdd 733f
00000180: e6de 9641 f627 1441 7f64 cf40 7e1b 7941
00000190: c4a9 d240 9c0d f240 b56a e040 b3f0 2941
000001a0: a550 1940 b534 2a41 b4d7 cb40 8fb2 0041
000001b0: f24d 3140 85ed ca40 caa4 9540 0d26 a440
000001c0: ecc3 113f 94d6 3041 8901 4541 1d92 b440
000001d0: 3bc3 6441 e2ef a340 a7a6 e640 98cf 9140
000001e0: 5471 ab3f 1496 d740 8680 2440 5d8b 4d41
000001f0: 92a9 ae40 33ad ec40 510b b540 db7b 6a41
2.2997358 6.4763446 7.5052886 28.56212 3.6347659 0.82516915 8.993533 8.80573
0.2643227 9.597709 8.12484 9.093915 3.9278514 0.47820377 0.7281269 3.7162426
3.1903718 4.122009 13.461962 11.961015 2.9521055 0.6433798 3.97339 9.925303
14.763714 5.4234023 6.0084896 3.8022232 4.4396653 5.624096 0.29489493 7.7825646
8.569743 5.5427847 0.7236783 8.050997 5.1536283 8.385609 4.838596 9.676556
5.879428 5.86025 12.069834 0.86534655 15.518738 7.3150377 8.2294655 6.6052713
5.4244647 28.208002 0.33131105 3.5071251 11.956799 0.5362284 1.0669707 8.855962
6.797568 8.880088 9.093763 8.927326 2.5146399 7.385816 1.7641048 1.4217954
3.4165778 1.877939 6.815045 7.969694 23.81899 13.582793 22.727707 4.4194527
2.1176417 11.141248 4.114715 9.670021 1.8548601 1.8370488 0.2671583 0.56462383
6.002148 11.3144 0.6908417 9.656664 11.222738 5.080226 1.0815891 12.384139
15.416716 8.334918 15.621567 8.24327 20.158554 1.4236715 15.0464 0.95259756
18.858837 9.259756 6.4810176 15.569212 6.5832233 7.5641613 7.0130258 10.621264
2.3955472 10.637868 6.370081 8.043593 2.7703824 6.341494 4.676366 5.129645
0.5693958 11.052387 12.312875 5.642836 14.297664 5.1230326 7.2078433 4.556591
1.339396 6.73707 2.5703444 12.846524 5.4581995 7.3961425 5.6576314 14.655238

weight f4 [64, 128]
00000000: 1cd0 52be 2a10 f7bd 719b 4fbc 80f3 5fbe
00000010: 048a 71be 7884 5f3e ba13 bfbd 4e01 41be
00000020: 46bf 113e 7b8a 343e 694c a8bc 6816 2b3e
00000030: cdbe ebbd 4c1b c43d 0a99 63bd 5127 b13d
00000040: ab3a 6b3e d3f6 c5bd 9199 413e 859a b83e
00000050: 9f9e 2ebd ca96 983e 2316 fcbd 06cb b5bd
00000060: 61f3 3e3e eca1 a0bd 1c61 753e 760b a1bd
00000070: e834 4a3d 1166 01be da17 023e aa62 8d3e
00000080: 451c 2fbd 1d91 533e c678 083e 8299 63b9
00000090: 2982 0ebe 14a2 94be 4867 693e afe6 363e
000000a0: 2487 4f3e bc4f 1abe b275 80be 4513 9a3e
000000b0: 6515 4a3e 7acf 343e c267 4e3e d260 63be
000000c0: 68b1 7fbe 1117 57bc 4102 203e fb61 0dbd
000000d0: 6b91 4f3e 0e5d 053e ef98 77bd 8120 783e
000000e0: 24d9 563e 7979 9ebd b03f 303e 5820 293e
000000f0: eb2a 8b3e f62b 44be b656 f93d 86c6 023e
00000100: fa4e 8cbd 1ee9 c2bd 7a85 8cbe 1ea3 443d
00000110: b6f3 153e 8749 413e db05 393e ca47 f53d
00000120: d746 863e fb59 473e 6bd6 fdbd ca2b 3a3e
00000130: 41e1 803e 17ad 38be da4c 1b3e 82af 4bbe
00000140: bbb6 88be c3da c93e 6cc6 583e d842 c2bd
00000150: 95c6 b93e a14d 94be 6e66 12be b82c b83e
00000160: cc2c 6b3e f4d9 95be 93fb 123d 774f 973b
00000170: 4a65 6fbe 4698 40be 4182 9e3e 5918 163e
00000180: 43d3 82be 4f5d 8fbe a132 13be e99d 3b3e
00000190: ee76 97be 20b8 85be fb79 5abe 50ae 8cbe
000001a0: 272b a1bd d949 b83e 6499 723e ae4d 9c3e
000001b0: 731e 853e 4d46 73be 683a 26be 9284 f13d
000001c0: 2190 203e 35c0 99be f500 8e3d 367b 7bbc
000001d0: d097 3d3e 9307 5c3e 1dba efbd 4285 17be
000001e0: 0503 e0bd e754 9ebd e6d6 433e 1852 c73e
000001f0: 794d 50bd 784a 85bd 70ed cabd 9e70 453e
00000200: e6eb 703d 8952 0b3e d7ed 953e 72eb 013e
00000210: 8468 013e 10fb 49bc bc2f 633e 1b43 023e
00000220: ba2d 923d 4f26 b8be 06e0 8bbd a5e1 c1be
00000230: 3857 233e 1926 283d 9f2d bb3c 085c 673d
00000240: 30f9 42be e37d 363e 70d6 cdbe f507 8abe
00000250: b6bf 1a3c f10e bcbb 39fc 903d ae48 4e3e
00000260: 01cf b9be 821a d03d b83e 9cbe a738 383e
00000270: 9567 3c3e 53b8 1a3e 418a d93c 4286 a0be
00000280: 516e 583e d8e7 b8be 625b 32bb c329 873e
00000290: 6650 ee3c 8493 103e 8bcb a9be 6787 b2be
000002a0: 254e 9ebe 7f96 3a3e 71e7 d43d 86e4 1cbe
000002b0: fd2a c7be f09d c5be 3405 9cbe 85b8 0d3e
000002c0: 3cb0 183e 3d8e d6bd cdaa 35bd 1539 423e
000002d0: a0ed b7be 9468 423e 49e2 333c a178 9cbe
000002e0: 1b30 a7bd b8a2 603e 8551 0ebe c6a6 3abe
000002f0: 4dfc 56be fc86 c13d feca a3be bfe6 c43d
00000300: ae3f 6d3e 54e1 aa3d 1874 103e 0419 693e
00000310: 9227 7ebe dc03 bdbe 02b6 9fbe 9b61 5a3e
00000320: 96e5 92bb 716a bdbe 7240 1b3e 8d9f b9be
00000330: 038e 38be 0673 2b3d f5c0 92be 5eb7 6fbc
00000340: 71a9 c43d 9c89 80be 9c59 4e3d ba6e 363e
00000350: 9435 aabe 03ce ef3d 879e 953d 0e2f 76be
00000360: a0ee 5ebe c499 d63d f1ea 00be 5a5d 923e
00000370: 74d6 9a3d f2a0 f4bc 492f c0be ebdd 93be
00000380: 649c 053e 39a5 0c3e a4b1 443e 1525 a0be
00000390: 7b27 1c3e ae82 203e bd24 bf3d 22e9 203e
000003a0: 4180 3d3d 85f4 9cbe 084f 8dbe dcb0 66be
000003b0: 5dea 49be 9abe 013e feae e23d 7e1e 7f3e
000003c0: 5a39 afbc 9852 f23d 6b39 82be 3159 3f3e
000003d0: 12ea 57be 0916 ccbe c2eb 5a3e ee54 033e
000003e0: 76d5 173e a842 513e 9529 0fbe af84 8ebe
000003f0: 2014 4c3e a3e9 4b3e 8abd 443e a98f 58be
-0.205872 -0.1206363 -0.012671337 -0.21870232 -0.23587805 0.21827877 -0.093299344 -0.18848154
0.14233121 0.17630951 -0.020544248 0.16707766 -0.11511002 0.09575519 -0.05556587 0.08650077
0.22971599 -0.096662186 0.18906237 0.3605539 -0.04263174 0.29802543 -0.1230891 -0.08876614
0.18647529 -0.07843384 0.23962826 -0.07863514 0.04936686 -0.12636591 0.12704411 0.27614337
-0.04275157 0.20660825 0.13327321 -0.00021705593 -0.1391684 -0.29029906 0.22793305 0.17861436
0.20266396 -0.15069479 -0.25089794 0.30092826 0.19734724 0.17657271 0.20156768 -0.22204903
-0.24970019 -0.013128058 0.1562586 -0.03451727 0.20270316 0.13023779 -0.060448583 0.2423115
0.2098127 -0.07738013 0.17211795 0.16516244 0.2718118 -0.19157395 0.12174742 0.12771043
-0.06851001 -0.0951712 -0.27445585 0.048007123 0.1464375 0.18875705 0.1806864 0.11976583
0.26225922 0.19467919 -0.123944126 0.18180767 0.25171855 -0.18034779 0.15166035 -0.1989117
-0.26701912 0.39424714 0.21169442 -0.09485406 0.3628432 -0.28965476 -0.14296886 0.35971618
0.22966307 -0.29267848 0.03588445 0.0046176272 -0.23378482 -0.18808088 0.3095875 0.14657725
-0.25551805 -0.28000876 -0.14374782 0.18321957 -0.29582924 -0.2611704 -0.21335594 -0.2747674
-0.07869559 0.3599384 0.23691326 0.30528015 0.25999793 -0.23757286 -0.16233218 0.11792864
0.15679981 -0.30029455 0.06933776 -0.0153492 0.18514943 0.21487264 -0.1170542 -0.14796928
-0.10938076 -0.077310376 0.19124946 0.3892982 -0.050855134 -0.065083444 -0.09908569 0.19281241
0.05881872 0.13605703 0.2928302 0.12687472 0.12637526 -0.012327924 0.22186178 0.12720911
0.07137628 -0.35966727 -0.068298385 -0.37867466 0.1595124 0.041051958 0.022848902 0.056484252
-0.1904037 0.1782146 -0.40202665 -0.26959196 0.0094451215 -0.005739086 0.07079358 0.20144913
-0.36290744 0.10161306 -0.305166 0.17990361 0.18398888 0.15109377 0.026555182 -0.3135243
0.21135832 -0.36114383 -0.0027215113 0.2639905 0.029091071 0.14118773 -0.33163103 -0.3486893
-0.30918995 0.18221472 0.103957064 -0.1532155 -0.38899985 -0.3859706 -0.3047272 0.1383992
0.14910978 -0.104763485 -0.04435234 0.18967088 -0.3592348 0.18985206 0.010979244 -0.30560783
-0.08163472 0.21937072 -0.13898285 -0.18227682 -0.20994683 0.09449574 -0.31990808 0.09614324
0.23168823 0.08343759 0.14106786 0.22763449 -0.24819782 -0.36917007 -0.31193548 0.21326296
-0.004482935 -0.3699527 0.15161303 -0.3625454 -0.18022923 0.04185774 -0.2866284 -0.0146311205
0.09602631 -0.25104988 0.050378427 0.17815676 -0.33244002 0.117092155 0.07305627 -0.24041387
-0.21770716 0.10478547 -0.12589623 0.28586847 0.07560435 -0.029861901 -0.37536076 -0.28880247
0.1304794 0.13734902 0.1920839 -0.3127829 0.15249436 0.1567485 0.09333179 0.15713933
0.04626489 -0.30655304 -0.2759936 -0.22528404 -0.19718309 0.12670365 0.11068533 0.24913976
-0.021389652 0.1183216 -0.2543443 0.18686368 -0.21085384 -0.3986056 0.21378997 0.12825367
0.14827523 0.20435584 -0.13980706 -0.27835605 0.19929552 0.19913344 0.19212928 -0.21148552

bias f4 [64]
00000000: b864 e8bc dbf8 db3b 376f 97bc 67a5 a2bc
00000010: ff8f 193d dd42 67bd 3e41 993d ae38 f23b
00000020: faa2 20bd 5b8b dc3c 9226 c23c e839 35bd
00000030: 5edb 33bd 88b9 47bd ed5d 0e3d c4cb 86bd
00000040: 6ffa 34bd 4f75 60bc b345 0c3d bc3e 64bb
00000050: e1fd d2bb 24d6 8a3c 8089 1d3d 04cf fabc
00000060: fe3d 8e3b c811 8f3d 398d 98bd 8df9 8fba
00000070: 25a6 c13c 802b 113d 9c4b bebc 6eae 233b
00000080: 85ba 31bc 79ae 1ebd 8a2c 073d dbf4 b7bc
00000090: 2b0d e43c e884 34bb 681f 963b 269d 6b3d
000000a0: 1bc1 873a ff60 653d c075 2abd 4264 4e3c
000000b0: 500b f1bc ed71 683d 3688 3e3b 9f80 603b
000000c0: 34d0 b43c 3d8e 023d 8140 b13c d682 b73c
000000d0: 155a 86bb 78a8 0bbc 5235 adbc c46e fe3c
000000e0: 0627 3a3d 20b4 c1bc 8d72 f0bc f851 4a3c
000000f0: f6b1 b03b 5e96 ffbb f64c 15bd 0a81 4bbd
-0.028368339 0.0067130155 -0.018485649 -0.01985426 0.03749084 -0.05646025 0.07483147 0.0073920107
-0.039217927 0.026921919 0.023700032 -0.044244677 -0.043910377 -0.04876092 0.034757543 -0.06581834
-0.044184145 -0.013699844 0.034246158 -0.0034827432 -0.006438956 0.016947813 0.03846121 -0.03061629
0.004340886 0.069858134 -0.07448811 -0.0010984406 0.023638794 0.035441875 -0.023229413 0.0024975794
-0.010847692 -0.03874061 0.03300146 -0.022455623 0.02783831 -0.0027545039 0.0045813806 0.057522915
0.0010357233 0.056000706 -0.0416162 0.0125971455 -0.02942434 0.056749273 0.0029072887 0.0034256352
0.022071935 0.03187393 0.021637203 0.022401255 -0.004100094 -0.008524053 -0.02114359 0.031058677
0.045447372 -0.02364546 -0.029351497 0.012348644 0.0053923083 -0.0077999076 -0.03645035 -0.049683608

weight f4 [64]
00000000: e6b7 553e d644 ee3d 322c 1c3e fb31 f73d
00000010: 160b d23d 9975 c93d 0531 143e 9433 a93e
00000020: 2212 163e fe05 1d3e 00e8 0a3e 0f3e 403e
00000030: dc84 be3e 4c61 1e3e 2a21 6f3e b9bc a93d
00000040: aa31 143e 6926 9c3d 9dd8 673e 0098 de3d
00000050: 3586 223e bfb9 af3d e783 133f dac8 073e
00000060: 0cd8 b03d 3b49 ed3d 4070 bd3d ac8c 1d3e
00000070: a718 8c3d 5bf9 243f 8d0b 223e 1808 633e
00000080: 6222 293e c2d6 293e 73de 243e a15f b93d
00000090: c1ee 123f 5360 d43d 7d82 293e 56aa c43d
000000a0: 850f 843d 983b 603e 2985 253f 8c24 fb3e
000000b0: 9cee db3e 2296 893d 67d9 373e 1f45 013e
000000c0: fd9a 583e cb74 f33d 48e8 063f cd52 0a3e
000000d0: a7c6 0a3e e213 763e f5d8 233f 4ad6 093e
000000e0: aa45 143e 58b1 243e 6571 763e de03 1c3e
000000f0: 200d 8a3e 17d5 693e be6a d73d 93ff 303f
0.20870933 0.11634223 0.15251234 0.1207008 0.10256021 0.09836883 0.14471824 0.33047163
0.14655355 0.15334317 0.13565063 0.18773673 0.3721074 0.15466803 0.23352495 0.08287949
0.1447207 0.07624514 0.22641225 0.108688354 0.15871508 0.0858035 0.5762314 0.13260213
0.08634958 0.11586233 0.092499256 0.15385693 0.068406396 0.64442986 0.15824719 0.22171056
0.16517022 0.1658583 0.16100483 0.09051443 0.5739556 0.10369935 0.16553684 0.096028015
0.064482726 0.21897733 0.6465631 0.4905132 0.42955482 0.06718089 0.17954026 0.12624024
0.21152873 0.11887511 0.52698183 0.13508148 0.13552342 0.24031022 0.64002925 0.13460651
0.144797 0.16083276 0.24066694 0.1523585 0.2696314 0.22835194 0.10518406 0.69139975

bias f4 [64]
00000000: f5cb 8e3f ae83 953f 6835 853f 848c 8e3f
00000010: 9b64 8d3f 6b71 943f e3d7 963f f79d 4d3f
00000020: 349d 6f3f 6169 833f bdcf 7f3f c072 4e3f
00000030: 26a7 273f fe68 7a3f c84c 813f b4af 933f
00000040: f9d2 933f ebb6 933f 3f8f 893f 14b4 9c3f
00000050: ca38 a23f df9e 883f 6d72 2d3f f526 933f
00000060: fd93 993f 8710 963f 05d3 8a3f e699 573f
00000070: bef7 863f 62aa c03e da1c 983f f919 6b3f
00000080: 9972 813f 7610 8e3f 19db 703f cc87 7a3f
00000090: 3f0e 103f 8732 7d3f 587f 823f 9e6a 933f
000000a0: 8a0e 9f3f f526 6d3f e078 e53e 14f4 083f
000000b0: c2e9 493f b5bb 8a3f 2442 793f b8a2 603f
000000c0: 9dec 6c3f 51d2 8b3f 4408 e63e e81d 8c3f
000000d0: 45d0 7b3f 43af 723f 1081 ce3e a5d9 823f
000000e0: cd24 9d3f 83c3 773f d512 823f a957 843f
000000f0: cf55 6d3f e9df 8a3f b991 713f ef83 bf3e
1.1155993 1.168081 1.0406923 1.1136632 1.1046327 1.1597112 1.1784633 0.8031916
0.9359925 1.0266534 0.9992636 0.80643845 0.65489423 0.97816455 1.0101557 1.1537995
1.1548759 1.1540197 1.074684 1.2242455 1.2673581 1.0673484 0.67752725 1.1496264
1.1998287 1.1723794 1.0845648 0.84219205 1.0544355 0.37629992 1.1883805 0.91836506
1.0113097 1.1098773 0.94084316 0.9786346 0.5627174 0.98905224 1.0195112 1.1516912
1.2426312 0.9263757 0.44818783 0.53497434 0.7887231 1.0838534 0.9736655 0.8774829
0.92548543 1.0923558 0.4492818 1.0946627 0.9836467 0.9479868 0.40332842 1.022267
1.2276856 0.967827 1.0161997 1.0339252 0.9270906 1.0849582 0.9436298 0.37405345

running_mean f4 [64]
00000000: 3d16 33bf a1f4 41be f052 b33e 2e7b 05c0
00000010: bab7 8bbf da46 c4be 4c14 ccbf 6fed b2bd
00000020: 786d 653f 5afe 133f 0906 8cbe 822e 333e
00000030: 77d1 913f 8b3b 89be 1caa 17be cc37 01c0
00000040: 4dba d2bf 002d 32bf ed7e 17bf edfb 8ebf
00000050: 68af 05be 782e 9ebf ca0d da3e 9241 80bf
00000060: 5d1c edbf 4c7a babf e59c e6bf 0473 013f
00000070: 3e87 b4be b31f b83f e8da 55bd 70cc 13be
00000080: 22eb 1f3f ff26 683e e6ca 2cbf e1b2 af3e
00000090: 9aa1 853f 596d b63e 1038 223e 4d79 13be
000000a0: ebd9 5abf 1fb6 0a3e ba72 b13f 7f08 c63f
000000b0: 880b 62bf 0a61 9ebf 782b 4d3f cc62 203f
000000c0: 6ad5 62be acb2 96be 78d2 80bd 8f4d e63e
000000d0: 489d 4e3f 9cd2 08be 4158 cc3e 924b 483f
000000e0: c941 98bf 6a79 143f e020 89be c299 dc3e
000000f0: d705 0dbf eb5c f8be a627 7e3d ec81 943f
-0.6995581 -0.18940975 0.35024214 -2.0856433 -1.0915444 -0.38335305 -1.5943694 -0.08736693
0.8962016 0.57809985 -0.27348354 0.1749821 1.1392049 -0.2680324 -0.14810985 -2.0190306
-1.6463104 -0.69599915 -0.5917805 -1.1170632 -0.13055193 -1.2357931 0.42588645 -1.002001
-1.8524281 -1.4568572 -1.801663 0.50566125 -0.35259432 1.4384674 -0.05221072 -0.14433455
0.6246816 0.22671126 -0.674971 0.3431616 1.0439942 0.356303 0.15841699 -0.14401741
-0.85488766 0.13546036 1.3863137 1.5471343 -0.88298845 -1.2373364 0.80144453 0.6265075
-0.22151724 -0.2943319 -0.06290144 0.44981048 0.8070874 -0.13361591 0.39911082 0.7824031
-1.1895076 0.57997763 -0.26782894 0.43086058 -0.55087036 -0.4850839 0.06204953 1.1602149

running_var f4 [64]
00000000: 531b a240 2339 9840 383d a540 0a8b a13f
00000010: 82a8 fa3e 24c5 9040 0cad 8a40 3aa2 8b40
00000020: 4e47 8f40 3bdc a840 1ab5 8a40 2431 853f
00000030: 0915 5740 505a 9640 01d2 ab40 2638 0a40
00000040: 3635 8f40 78e8 573f a6d8 a040 586c 3640
00000050: 0e2f 9a40 70cc dc3e cd6f 7040 cac2 6640
00000060: a244 673f a478 7140 af26 8640 16a5 8f40
00000070: fbaf 8640 c202 d13f 6933 9f40 f9ba ab40
00000080: 5678 ae40 0509 a340 7e5f a240 86d8 9e40
00000090: 65e1 b63f eba4 8e40 bb02 8040 a309 8a40
000000a0: c56f 993e de46 a140 b02f ed3f a8ec 2840
000000b0: db46 4540 8737 3e3f 81b5 ab40 fc86 8e40
000000c0: 34f0 a240 2e01 af3f b294 903f e627 a840
000000d0: 658d a240 359a a740 c44f 9e3f 382f a240
000000e0: fa68 2c40 43b7 a240 5693 ab40 e8a8 a240
000000f0: ecb2 ce3f c25b a440 a97b 2c40 07a6 df3f
5.0658355 4.7569747 5.163723 1.2620556 0.48956686 4.524065 4.333624 4.363553
4.477454 5.2768836 4.334607 1.0405622 3.360659 4.6985245 5.3693852 2.159677
4.4752455 0.84339094 5.0264463 2.8503628 4.818244 0.43124723 3.7568238 3.605639
0.903391 3.7729883 4.192222 4.488902 4.208982 1.6328967 4.9750257 5.366574
5.4521894 5.094851 5.0741568 4.963931 1.4287535 4.4576316 4.0003333 4.3136764
0.29968086 5.039901 1.8530178 2.6394444 3.0824497 0.7430348 5.3659062 4.4539776
5.0918217 1.3672235 1.1295378 5.2548704 5.07976 5.237574 1.2368093 5.068264
2.6939073 5.084871 5.3617353 5.0831184 1.6148353 5.136201 2.6950476 1.7472543

weight f4 [1, 64]
00000000: 248d 3a3f a5e2 463f 11d9 203f 5d11 403f
00000010: 9340 3e3f a90b 473f 3f6e 4b3f 7c13 183f
00000020: 6917 0f3f af26 1e3f ec32 253f 2fec f43e
00000030: 6152 d23e 0b9c 233f cea5 273f bbe9 423f
00000040: 0794 4c3f 73b9 3e3f 3782 333f 6860 493f
00000050: 9b6f 523f 5041 423f 4c3f 083f a927 333f
00000060: 8506 4d3f 5ae7 493f 4487 403f e3e8 003f
00000070: 2d94 3c3f 80ff bb3e 4886 393f f6d6 243f
00000080: 142c 1b3f 0a52 2a3f 8bb5 263f 7064 213f
00000090: 47c7 d13e fe6d 1a3f 0657 273f 8dea 413f
000000a0: 3232 593f 8554 1a3f cd10 b23e 39fc b03e
000000b0: d37b 193f 0c80 333f 8412 133f cdb8 043f
000000c0: c7a6 1e3f 3e23 343f 08b8 963e b0c9 2d3f
000000d0: dacc 183f 58ca 223f 1d07 a73e 3bce 223f
000000e0: 121b 4f3f 26a3 153f bef8 2d3f 78ea 1f3f
000000f0: 3f4e 1c3f dba4 343f 1de6 113f fed1 c93e
0.72871614 0.7768958 0.6283122 0.75026494 0.7431728 0.77752167 0.794651 0.5940473
0.55895096 0.61777776 0.64530826 0.47836444 0.41078475 0.6390998 0.6548737 0.76137894
0.7991337 0.74501723 0.7012057 0.7866273 0.82201546 0.7588091 0.53221583 0.6998239
0.80088073 0.7886864 0.752064 0.50355357 0.736636 0.3671837 0.7247052 0.64390504
0.6061413 0.6653143 0.6512076 0.6304388 0.4097235 0.60324085 0.6536716 0.7574852
0.84842217 0.60285217 0.34778443 0.3456743 0.59954566 0.7011726 0.5745013 0.51844484
0.6197323 0.70366275 0.2943728 0.67885876 0.5968758 0.6359 0.32622615 0.6359593
0.8090068 0.5845207 0.67957675 0.62467146 0.61056894 0.7056405 0.5699175 0.39418024
