Plots old/naive models/results_FCNN_3L_100E_D_no_sched/e_100_model.pt (torch, 71037 bytes, 13 tensors)

weight f4 [128, 54]
0	0x3dffd6fe	0.124921784
1	0x3d0b7d56	0.034055077
2	0xbd2aee11	-0.041730944
3	0xbd89494d	-0.06703434
4	0x3d9032d9	0.070409484
5	0x3b3b76f3	0.0028604835
6	0xbd8f09c6	-0.06984286
7	0xbb28210a	-0.0025654458
8	0xbc2644ed	-0.010148269
9	0xbd89c2d4	-0.06726614
10	0xbd10bb90	-0.035335124
11	0x3d03bd8e	0.032163195
12	0x40263e87	2.5975664
13	0x3dfbd7a3	0.12296989
14	0x3dab6aca	0.08369978
15	0xbd7be73a	-0.06149981
16	0xbd756e9f	-0.05991995
17	0xbce7775c	-0.028255157
18	0xbdc1b71b	-0.09458753
19	0xbd5fb57e	-0.054616444
20	0x3d80b91a	0.06285305
21	0x3d1a0d4f	0.03761035
22	0x3c9dfbc4	0.01928509
23	0xbbcc761e	-0.0062396666
24	0x3c15b08e	0.009136332
25	0x3ce4538c	0.02787187
26	0xbd8a8607	-0.06763845
27	0x3c0f4e55	0.008746703
28	0xbe02a098	-0.12756574
29	0xbe192bfa	-0.14958182
30	0xbca8b077	-0.020591957
31	0x3ca6e0f2	0.020370934
32	0xbd118120	-0.035523534
33	0xbe211a50	-0.15732694
34	0xbc0de081	-0.008659483
35	0x3dd7e51f	0.10541748
36	0x3dff031a	0.124517635
37	0x3e2f6018	0.171265
38	0x3db9df59	0.09075803
39	0x3d1f335a	0.038867332
40	0x3ddddc52	0.108330384
41	0x3eb51ac2	0.35371977
42	0x3e348861	0.1763015
43	0x3e03cf7d	0.12872119
44	0x3c046646	0.0080810245
45	0x3dc591ef	0.09646975
46	0x3e1fb9d2	0.15598229
47	0x3d77ec5c	0.060528144
48	0x3d7c6fa1	0.061629895
49	0xbe420fdb	-0.18951361
50	0xbd968da3	-0.07351234
51	0x3d872ef7	0.06600755
52	0xbce92ff4	-0.028465249
53	0xbded29f6	-0.11580269
54	0x3d27df2b	0.040984314
55	0xbb2cbbff	-0.0026357172
56	0x3cbea9a3	0.023274248
57	0x3b47b909	0.003047528
58	0x3ce72111	0.02821401
59	0x3d441df8	0.047880143
60	0xbcd2289d	-0.025654132
61	0x3c9e25c7	0.019305123
62	0x3c819997	0.015820308
63	0x3c8b2313	0.016984498
64	0xbc38661c	-0.0112548135
65	0x3cac8367	0.021058751
66	0xbf5e75b4	-0.8689835
67	0xbcc7a5a4	-0.024370976
68	0xbce01808	-0.027355209
69	0x3cb33610	0.021876365
70	0xbf610ce9	-0.87910324
71	0xbc2ba181	-0.010475517
72	0x3c0fb509	0.0087711895
73	0xbc18d8d1	-0.009329037
74	0x3d043d48	0.032285005
75	0xbc337ea9	-0.010955491
76	0xbc3f0ad2	-0.011660295
77	0xbc3ca765	-0.011514519
78	0x3b23630d	0.0024930865
79	0x3cebfbd6	0.028806608
80	0x3a2d41a8	0.000660921
81	0xbcd89445	-0.026437888
82	0xbce24189	-0.02761914
83	0xbd29230e	-0.041293196
84	0xbc8b34c1	-0.016992928
85	0x3d1ded08	0.03855613
86	0x3d53dbd7	0.051723327
87	0x3aeb3308	0.0017944286
88	0xbd5d3df5	-0.054014165
89	0x3b10b545	0.0022080701
90	0x3d181d69	0.037137423
91	0x3d13ab7b	0.03605221
92	0x3d01d59e	0.03169786
93	0xbc9591b8	-0.01825796
94	0xbce29198	-0.027657315
95	0xbd4669a7	-0.0484406
96	0x3db5d001	0.08877564
97	0xbbca4927	-0.006173271
98	0xbca37f0e	-0.019958045
99	0xbd08ea3d	-0.033426512
100	0x3ce296de	0.02765983
101	0xbd5be1ec	-0.053682253
102	0x3bcb67b5	0.006207431
103	0xbc95bd78	-0.018278822
104	0xbd12dc88	-0.035854846
105	0xbc5cdeb8	-0.013480835
106	0xbcf0fb46	-0.029416692
107	0x3cd605e7	0.026125861
108	0xbcf0dd17	-0.029402299
109	0xbc83595f	-0.016033826
110	0xbd4e71c7	-0.050401475
111	0x3b295cc8	0.0025842655
112	0xbd02c54e	-0.031926446
113	0xbdf056df	-0.11735319
114	0xbd93ee66	-0.07223205
115	0xbec24353	-0.3794199
116	0xbe65c0dc	-0.22436851
117	0xbd8a93b0	-0.067664504
118	0xbbb8ca14	-0.005639324
119	0xbf1eb0ed	-0.6198872
120	0xc09dbc4e	-4.9292364
121	0xbdce9d0b	-0.10088547
122	0xbd693066	-0.056930922
123	0x3b05bc91	0.0020406584
124	0x3e233463	0.15937953
125	0xbecc72d3	-0.39931354
126	0x3d3a10be	0.045426123
127	0xba86226a	-0.0010233645
128	0xbddd5568	-0.108073056
129	0xbd867ee4	-0.06567171
130	0x3dc74abc	0.09731051
131	0xb996b6b2	-0.00028746348
132	0xbd145ee0	-0.036223292
133	0xbe90cde1	-0.28282073
134	0x3e1dbf8c	0.154051
135	0x3bf5e416	0.0075039966
136	0x3c84ea2e	0.016224947
137	0x3c59a328	0.013283528
138	0xbd3a2259	-0.045442913
139	0xbc0604bb	-0.008179839
140	0xbccc2e5c	-0.02492445
141	0x3c23ccaf	0.009997531
142	0xbc32b245	-0.010906761
143	0xbd825637	-0.063641004
144	0x3d97dfcf	0.07415735
145	0x3c026a94	0.0079599805
146	0xbcea4f0d	-0.028602147
147	0xbc8dfe50	-0.01733318
148	0x3d414aff	0.047190662
149	0x3d0ba0d1	0.034088913
150	0x3cb7802c	0.022399984
151	0xbbdfecea	-0.0068336623
152	0xbcf93c4d	-0.030424261
153	0x3c1279a7	0.008940137
154	0xbdaa3c09	-0.08312232
155	0x3d0c84a1	0.034306172
156	0x3d0d4563	0.03449
157	0x3cb944a2	0.022615734
158	0x3d3daa41	0.046304945
159	0x3d9415f6	0.07230751
160	0xbc068d49	-0.008212396
161	0xbcb41b78	-0.021985754
162	0x3dbe154b	0.09281405
163	0xbde206e3	-0.1103647
164	0xbe0d25b8	-0.1378392
165	0xbc0a12cf	-0.008427336
166	0x3ce45f79	0.027877556
167	0xbe92a5e2	-0.28642184
168	0x3e31f27d	0.17377658
169	0x3cfd4341	0.030915858
170	0x3e07a990	0.13248277
171	0xbba974d1	-0.0051713963
172	0xbede3561	-0.434001
173	0x3e900aff	0.2813339
174	0xbf5cf70f	-0.8631448
175	0x3e0f993c	0.14023298
176	0x3d721052	0.059097596
177	0xbe82722e	-0.25477737
178	0x3e37dd81	0.17955591
179	0xbd03c995	-0.032174665
180	0x3eeedb48	0.46651673
181	0x3cad3353	0.021142637
182	0x3d76f3e9	0.060291205
183	0xbdbf88c9	-0.093522616
184	0xbe287e40	-0.1645441
185	0xbcb68736	-0.02228127
186	0x3db97459	0.09055395
187	0x3e277c08	0.16355908
188	0xbee90ac7	-0.45516035
189	0x3c937c15	0.018003503
190	0x3da47d7f	0.08031749
191	0xbd1a5e5b	-0.03768764
192	0xbc8f3989	-0.01748349
193	0xbcb876f5	-0.02251766
194	0x3cbdeb03	0.023183351
195	0xbd9763bb	-0.07392069
196	0x3da4a42b	0.08039125
197	0xbcafc4a0	-0.021456063
198	0x3debfabe	0.11522435
199	0xbd0c861a	-0.034307577
200	0x3d5f1e0a	0.054472007
201	0xbd5ae37a	-0.053439595
202	0x3ab7a461	0.0014010781
203	0x3d51dd8c	0.051236674
204	0xbc3d0b36	-0.011538317
205	0x3c9a6226	0.018845629
206	0x3c8043d3	0.015657341
207	0x3d7079f4	0.058710054
208	0x3cf7c16b	0.030243596
209	0xba330cf2	-0.0006830237
210	0x3d1f8741	0.038947348
211	0x3c466dbe	0.0121111255
212	0xbe1be09f	-0.15222405
213	0x3bf91452	0.0076012993
214	0xbd1d7597	-0.03844222
215	0xbc4e4b99	-0.012591266
216	0x3ea7d5c4	0.32780278
217	0xbbd28a84	-0.0064252038
218	0x3dda90e1	0.10672165
219	0xbde408c8	-0.111344874
220	0x3e208df6	0.15679154
221	0xbe456648	-0.19277298
222	0xbc615633	-0.013753462
223	0xbececc1d	-0.403901
224	0xbe9b16d1	-0.30290845
225	0x3cd8648a	0.026415128
226	0xbe372b2c	-0.17887563
227	0xbf1d03f9	-0.61334187
228	0x3edc2d9f	0.43003556
229	0xbf1c86b0	-0.61143017
230	0xbe8de719	-0.27715376
231	0xbe36ea84	-0.17862898
232	0xbe5492bc	-0.207591
233	0xbee970bf	-0.4559383
234	0xbec30738	-0.38091445
235	0xbdecceb7	-0.11562865
236	0x3dd1681f	0.10224938
237	0xbe316ec4	-0.1732741
238	0xbe51ae1f	-0.20476578
239	0xbed5eb1e	-0.41780943
240	0x3d61c6ea	0.05512134
241	0xbe77d38d	-0.24201794
242	0x3e098b15	0.13431962
243	0xbba7782e	-0.005110762
244	0xbe2d94d3	-0.16951303
245	0xbe7437a3	-0.23849349
246	0xbde5dbce	-0.11223565
247	0x3da0540c	0.07828531
248	0x3dccfb9c	0.10008928
249	0xbdd627da	-0.1045682
250	0x3dfd9f28	0.12383872
251	0x3e18c973	0.14920597
252	0xbdc0d8ba	-0.09416337
253	0x3dcb201c	0.09918234
254	0x3c8bb79c	0.017055325
255	0x3da5cfdd	0.080962874

bias f4 [128]
0	0xbabbcea8	-0.0014328556
1	0x3b9aa56e	0.004719428
2	0x38b276c2	8.509822e-05
3	0x3bf6135b	0.0075096316
4	0x398cb18f	0.00026835172
5	0x3b13ccfc	0.00225526
6	0x3b9dcf4c	0.0048159715
7	0x3aaccc6d	0.0013183482
8	0xba8b06a8	-0.0010606842
9	0x3c389174	0.0112651475
10	0xbb40d1e9	-0.0029421991
11	0xbbe04435	-0.0068440684
12	0xbb331da5	-0.0027330902
13	0xbba0ffac	-0.004913291
14	0xbb8f8096	-0.0043793423
15	0xbc01caec	-0.0079219155
16	0xbb503a3c	-0.0031772992
17	0xbc30938e	-0.010777367
18	0x3baa0dbb	0.005189625
19	0x3b8f53ba	0.0043739947
20	0x3c1428ab	0.009042899
21	0x3c2e5929	0.010641375
22	0x3b886669	0.004162599
23	0xbc0e1425	-0.008671795
24	0xbc0531c0	-0.008129537
25	0xbc1a72c0	-0.009426773
26	0x3b02cdad	0.0019959018
27	0xbc101031	-0.008792923
28	0x3abc7452	0.0014377928
29	0x3b069efb	0.0020541537
30	0xbc202548	-0.009774514
31	0x3c18b568	0.009320594
32	0x3ba657a2	0.0050763646
33	0x3b499b00	0.0030762553
34	0x3b0fd6b0	0.0021948032
35	0x3aac48b5	0.0013144227
36	0x3bc1ca39	0.0059139994
37	0xba9938a4	-0.0011689854
38	0xbc4652af	-0.012104674
39	0xbc17e70f	-0.009271397
40	0x3b851e25	0.0040624314
41	0xbbba7891	-0.005690642
42	0x3b0d2d46	0.0021541878
43	0x3b9939f0	0.004676096
44	0xbc04160e	-0.008061899
45	0x3bad0daa	0.00528117
46	0xbc0bde10	-0.008536831
47	0x3abf21f9	0.0014582268
48	0xbbd18f41	-0.006395251
49	0x3ba569c4	0.0050480086
50	0x3af04f78	0.001833423
51	0xbafa17c0	-0.0019080564
52	0xbbaef47c	-0.0053392034
53	0xbc373094	-0.0111810155
54	0x3c3cff19	0.011535429
55	0xbbf12d89	-0.0073601645
56	0x3c425d29	0.011863031
57	0x3b02c4c2	0.0019953703
58	0xbca820e0	-0.020523489
59	0xbba8a379	-0.0051464406
60	0xbc14a459	-0.009072387
61	0xbc0966ce	-0.008386327
62	0x3c06efd5	0.008235891
63	0x3a081f30	0.00051926356
64	0xba803d62	-0.0009783919
65	0x3a2ae8ae	0.00065196573
66	0x3c42d014	0.01189043
67	0x3bf36503	0.007427813
68	0x3c138913	0.009004849
69	0xbb966787	-0.004589978
70	0xbafb251b	-0.0019160839
71	0x3b05fc8e	0.0020444724
72	0xbc1b0aef	-0.009463056
73	0x3bcc8d71	0.006242447
74	0xbc38d824	-0.011282001
75	0xbbd4a875	-0.006489808
76	0xb92029a4	-0.00015274301
77	0x3c150a23	0.009096655
78	0x3bb8f4a9	0.0056444
79	0xbbba5d52	-0.005687394
80	0xbc225a73	-0.00990926
81	0x3a2ef154	0.0006673534
82	0x3b2293e3	0.0024807386
83	0x3bb5d949	0.005549584
84	0xbbaa3e13	-0.005195388
85	0xbc3fb034	-0.011699725
86	0xbb7952e0	-0.0038043782
87	0xbb0a132b	-0.0021068554
88	0xbc84ccc5	-0.016210923
89	0x3c1312ef	0.008976682
90	0xbc09becc	-0.008407306
91	0xbbdd875d	-0.0067605213
92	0xba109d08	-0.00055165635
93	0x3a6e081c	0.0009080188
94	0x3c55ad1b	0.01304176
95	0x3c3dffe5	0.011596655
96	0x3c06761a	0.008206869
97	0x3be29340	0.006914526
98	0x3c56a082	0.0130997915
99	0xb83b8b94	-4.4714267e-05
100	0x3bd0959d	0.0063654915
101	0xbc09b0a2	-0.008403929
102	0x3c33dd24	0.010978017
103	0x3b2de4fb	0.0026534188
104	0x39d176cb	0.00039952094
105	0xbc28926b	-0.010288815
106	0xbba6b8ab	-0.005087932
107	0x3b378273	0.0028001338
108	0xbc08f79b	-0.008359815
109	0xbaac2728	-0.0013134228
110	0x3c0e3fb3	0.008682179
111	0x3b34c60a	0.002758386
112	0xbbe87247	-0.007093701
113	0xbc3819b1	-0.011236594
114	0x3b9df501	0.0048204665
115	0xbbd2a948	-0.0064288713
116	0xbc8d29d2	-0.017231856
117	0x3a0a8afe	0.00052849937
118	0x3c2b4b71	0.010454998
119	0xbadb1c7c	-0.0016716863
120	0x3ac9a729	0.0015384901
121	0xbb8e4dac	-0.0043427553
122	0xbc0558cd	-0.008138848
123	0xbbd41d24	-0.0064732004
124	0xb9268958	-0.00015882158
125	0xbc199aa6	-0.00937525
126	0x3b8fc25e	0.004387184
127	0xbbaa1915	-0.0051909783

weight f4 [128]
0	0x3e20b6d5	0.15694745
1	0x3eb3d700	0.3512497
2	0x3e87d1a7	0.2652714
3	0x3e0f756f	0.14009641
4	0x3ea2ae97	0.31773826
5	0x3e721e40	0.23644352
6	0x3e24622f	0.16053079
7	0x3ec50f0f	0.3848805
8	0x3ea1247d	0.3147315
9	0x3e2fea0c	0.17179126
10	0x3e7b330f	0.24531196
11	0x3ec2aa73	0.38020667
12	0x3e928413	0.2861639
13	0x3ef18d6c	0.4717821
14	0x3e9bae3c	0.30406368
15	0x3e46d54a	0.19417301
16	0x3e649d6b	0.22325675
17	0x3e870747	0.2637274
18	0x3e1e0795	0.1543258
19	0x3e59d06a	0.2127091
20	0x3e2367da	0.15957585
21	0x3e959a12	0.2921911
22	0x3e19be3a	0.15013972
23	0x3e816b73	0.2527729
24	0x3ddee6b6	0.10883848
25	0x3e88ba00	0.26704407
26	0x3e1f9441	0.15583898
27	0x3e4e2e9e	0.2013497
28	0x3e81d78f	0.2535977
29	0x3eb07f54	0.34472144
30	0x3e9a28ef	0.30109355
31	0x3e981c8a	0.29709274
32	0x3e740188	0.23828709
33	0x3eb3986d	0.3507723
34	0x3e5499a9	0.20761742
35	0x3e47824a	0.19483295
36	0x3e69294f	0.22769664
37	0x3e53b864	0.20675808
38	0x3e8bb6e8	0.27287984
39	0x3e597c4e	0.21238825
40	0x3e901f3c	0.2814883
41	0x3e4ca763	0.19985728
42	0x3e42245b	0.18959181
43	0x3e68a1e4	0.22718006
44	0x3e805ac9	0.25069264
45	0x3e3fd94f	0.1873524
46	0x3e59de3c	0.21276182
47	0x3e9672c1	0.29384425
48	0x3eaee2ef	0.34157512
49	0x3e64dd95	0.22350152
50	0x3e84e2b5	0.25954214
51	0x3e225e36	0.15856251
52	0x3e29a53e	0.16566941
53	0x3e87ed49	0.26548222
54	0x3dc1197e	0.094286904
55	0x3e10e3bf	0.14149378
56	0x3dd32808	0.1031037
57	0x3e7f1eee	0.24914142
58	0x3eb7deec	0.35912263
59	0x3ea43c9a	0.32077485
60	0x3e923385	0.2855493
61	0x3e9e6e2d	0.30943432
62	0x3e90d182	0.28284842
63	0x3e7ec0c7	0.24878226
64	0x3ec4cf53	0.38439426
65	0x3e80c766	0.2515213
66	0x3e6157fb	0.22006218
67	0x3e794adb	0.24344961
68	0x3e3ab582	0.18233302
69	0x3e68e5fa	0.22743979
70	0x3e7d3512	0.24727276
71	0x3e92f0b1	0.28699258
72	0x3e25f7ad	0.16207762
73	0x3e25d4f7	0.16194521
74	0x3e8d6367	0.276149
75	0x3e76b9af	0.2409427
76	0x3ea3d7f9	0.32000712
77	0x3eaa7281	0.33290485
78	0x3ea5432e	0.32277817
79	0x3e7712d5	0.24128278
80	0x3ea68da9	0.32529953
81	0x3e5fd850	0.2185986
82	0x3e86840a	0.26272613
83	0x3e5ae39d	0.2137589
84	0x3e8bbfe0	0.27294827
85	0x3e75abcd	0.23991318
86	0x3e8a0767	0.26958773
87	0x3e747ed8	0.23876512
88	0x3e3c660c	0.18398303
89	0x3e95a54e	0.2922768
90	0x3e28a36b	0.16468589
91	0x3eaa300c	0.33239782
92	0x3e6f70e6	0.23382911
93	0x3e70718b	0.23480813
94	0x3e8f70da	0.28015786
95	0x3e5eaa3d	0.21744628
96	0x3e8263dd	0.25466815
97	0x3e966f71	0.29381898
98	0x3e6061b6	0.21912274
99	0x3e3494a3	0.17634825
100	0x3eac60ec	0.33667696
101	0x3e7011a7	0.23444234
102	0x3e6aa83b	0.22915737
103	0x3e4b5ada	0.19858876
104	0x3e5c2b98	0.21501005
105	0x3ea0f35b	0.31435665
106	0x3e986461	0.29764083
107	0x3eaf68d6	0.3425967
108	0x3e9f0fac	0.31066644
109	0x3e7e27e6	0.24819908
110	0x3eb04026	0.3442394
111	0x3e8e0cb3	0.27744064
112	0x3dd094ca	0.10184629
113	0x3e8d6910	0.2761922
114	0x3e3b2116	0.1827434
115	0x3e394b43	0.18095116
116	0x3e2de985	0.16983612
117	0x3eab201a	0.3342293
118	0x3e349082	0.1763325
119	0x3e748d8d	0.23882122
120	0x3e5f385f	0.21798848
121	0x3e889280	0.2667427
122	0x3e29a2f6	0.16566071
123	0x3e8cd735	0.2750794
124	0x3e96c4bc	0.2944697
125	0x3e867009	0.2625735
126	0x3e37bb15	0.1794246
127	0x3e4439d6	0.19162688

bias f4 [128]
0	0xbd8a1609	-0.06742484
1	0xbe003029	-0.12518372
2	0xbe8c924f	-0.27455375
3	0x3d918892	0.07106127
4	0xbd0ced25	-0.034405846
5	0xbdd33ba5	-0.10314111
6	0xbd96112d	-0.07327495
7	0xbdb03d23	-0.08605411
8	0xbc3efc68	-0.011656858
9	0xbd643cb8	-0.05572197
10	0xbe738b20	-0.2378354
11	0xbe3f5d53	-0.18687944
12	0xbe329265	-0.17438658
13	0xbe098b36	-0.13432011
14	0xbe83fa46	-0.2577688
15	0xbc6d3a21	-0.014479191
16	0xbde8ad30	-0.11361158
17	0xbe87d27a	-0.26527768
18	0xbd83b5b2	-0.0643114
19	0xbd756f99	-0.05992088
20	0xbdd3387f	-0.1031351
21	0xbe110a06	-0.1416398
22	0xbd28c7c9	-0.041206155
23	0xbe0ef261	-0.13959648
24	0x3d207cc3	0.039181482
25	0xbe84645e	-0.25857824
26	0x3d698f7f	0.057021614
27	0xbe01c998	-0.12674558
28	0xbe25bd0f	-0.16185401
29	0xbe912247	-0.28346464
30	0xbd923ab1	-0.07140101
31	0x3dfdd211	0.123935826
32	0xbdc3c5c0	-0.09559202
33	0xbd2d8008	-0.04235843
34	0xbdf59d48	-0.1199289
35	0xbd9abbbc	-0.07555339
36	0xbe56c645	-0.20974071
37	0x3da35903	0.07975962
38	0xbe06e9ce	-0.13175127
39	0x3d44ebde	0.048076503
40	0xbe0b5ba0	-0.13609171
41	0xbd8bb131	-0.06820906
42	0x3d9c683c	0.07637069
43	0x3db203d2	0.08692135
44	0xbe9258a4	-0.28583252
45	0xbdf38024	-0.11889675
46	0xbd527a33	-0.05138607
47	0xbe14dbe5	-0.14537008
48	0xbe1c5f16	-0.15270647
49	0xbe0660da	-0.13122883
50	0xbdbf13fc	-0.093299836
51	0xbd50d849	-0.050987516
52	0xbdbe6467	-0.09296494
53	0xbe2fd39b	-0.17170565
54	0x3d82b112	0.0638143
55	0x3d2b448a	0.04181341
56	0x3d35432a	0.044253506
57	0xbea976ba	-0.33098394
58	0xbe3ca55d	-0.18422456
59	0xbe59a08b	-0.21252649
60	0xbe401ca0	-0.1876092
61	0xbd2f0f5d	-0.04273926
62	0xbe1df0a0	-0.15423822
63	0x3d0a2029	0.033722077
64	0xbe3e1007	-0.18560801
65	0x3dcff79e	0.10154651
66	0x3dae2777	0.08503621
67	0xbe092370	-0.13392425
68	0xbda2578e	-0.07926856
69	0x3dcb8e60	0.09939265
70	0xbe9e5c59	-0.3092983
71	0xbd37af35	-0.044844825
72	0xbd9ccd46	-0.0765634
73	0xbd6a2ac2	-0.057169683
74	0xbe3b6f94	-0.18304282
75	0xbe4d2981	-0.20035364
76	0xbe23f704	-0.16012198
77	0xbe65fd0f	-0.22459815
78	0xbdf1b803	-0.118026756
79	0xbe104306	-0.14088067
80	0xbe0a47ff	-0.13504027
81	0xbd5faaf0	-0.054606378
82	0xbeb797e3	-0.35858068
83	0x3db5474d	0.0885149
84	0xbeb65d59	-0.35618094
85	0xbdd7c4e2	-0.10535599
86	0xbd96ae51	-0.07357467
87	0x3d9b25c1	0.0757556
88	0xbbc82df6	-0.0061089946
89	0xbe6b3168	-0.22968066
90	0xbd9e45df	-0.077281706
91	0xbe93613d	-0.28785124
92	0x3c1a3abb	0.0094134165
93	0x3c196a00	0.009363651
94	0xbd6417ab	-0.055686634
95	0xbe184436	-0.1486977
96	0xbdcf3530	-0.101175666
97	0xbecef89e	-0.40424055
98	0x3dc084c8	0.09400326
99	0x3d5e548d	0.054279853
100	0xbe3ec111	-0.18628336
101	0xbe392f60	-0.18084478
102	0x3da46d07	0.08028608
103	0xbd358291	-0.04431397
104	0x3d9f8ee4	0.07790926
105	0xbe32bab2	-0.17454031
106	0xbe309ac9	-0.17246546
107	0xbcd8c00c	-0.026458763
108	0xbe814d26	-0.25254172
109	0x3ddd4335	0.10803834
110	0xbe430b3a	-0.19047251
111	0xbe2fed32	-0.17180327
112	0x3c675fe8	0.014121987
113	0xbe08cc4f	-0.13359188
114	0xbdafa1d3	-0.085757874
115	0xbdf7cc94	-0.12099567
116	0xbd88ff50	-0.06689322
117	0xbe0717d6	-0.13192686
118	0xbd91cc2f	-0.07119023
119	0xbe329155	-0.17438252
120	0x3da3ada6	0.07992105
121	0xbea32033	-0.31860504
122	0xbc9b0da0	-0.018927395
123	0xbe750a88	-0.23929799
124	0xbd80b3ae	-0.06284271
125	0xbd0faff5	-0.035079915
126	0xbda51921	-0.080614336
127	0xbdbde44b	-0.09272059

running_mean f4 [128]
0	0x3d740251	0.05957252
1	0x3d880888	0.06642252
2	0x3df4242e	0.11920963
3	0xbd525422	-0.051349767
4	0x3e4893e6	0.19587669
5	0x3d5fdfc0	0.054656744
6	0x3cb6a516	0.022295516
7	0xbe12ec7e	-0.14348027
8	0x3dfc8494	0.12329975
9	0xbd1c0c2a	-0.038097538
10	0xbd634344	-0.05548407
11	0xbe3417d4	-0.17587215
12	0x3e20a0db	0.15686361
13	0xbbaf2550	-0.005345024
14	0x3c814428	0.01577957
15	0xbe304c5c	-0.17216629
16	0x3da7733c	0.08176276
17	0x3dab8b92	0.0837623
18	0x3cee5128	0.029091433
19	0xbe98d751	-0.29851773
20	0x3d841a57	0.064503364
21	0x3bae67be	0.0053224256
22	0xbc2c8450	-0.010529593
23	0x3e01aa8f	0.12662719
24	0xbd9c5508	-0.07633406
25	0x3e228c1a	0.15873757
26	0xbcfaa1e0	-0.030594766
27	0xbd9012fe	-0.070348725
28	0x3da30a38	0.079609334
29	0x3df63707	0.120222144
30	0x3e5d8a36	0.21634755
31	0xbd4d33dc	-0.050098285
32	0xbe8c4023	-0.27392682
33	0xbe2dd2e2	-0.16974977
34	0xbd9f53be	-0.077796444
35	0xbd00025c	-0.03125225
36	0xbe8fa8f9	-0.28058603
37	0xbd5a2a9c	-0.05326329
38	0x3e02d9b4	0.1277836
39	0xbd3672a2	-0.044542916
40	0xbc4f34a7	-0.012646831
41	0x3d0d53e4	0.034503832
42	0xbda37eb0	-0.07983148
43	0xbdc4d2dc	-0.09610531
44	0x3adf2c80	0.0017026812
45	0xbd1b393a	-0.037896372
46	0xbd0e106a	-0.034683622
47	0xba912608	-0.0011073956
48	0x3cf6e5ee	0.030138936
49	0x3cf76aa7	0.030202223
50	0x3d340a29	0.043955002
51	0x3d52df1e	0.051482312
52	0xbd1e41cc	-0.038636968
53	0x3d0dc53a	0.034611918
54	0xbd1a0af5	-0.037608106
55	0x3d392504	0.045201316
56	0xbd996b21	-0.07491136
57	0x3d5e7588	0.054311305
58	0x3ce205cd	0.027590657
59	0x3c91a18a	0.017777223
60	0x3dcd5cca	0.10027464
61	0xbc2f54fa	-0.010701412
62	0x3c3f699a	0.011682892
63	0xbe297eca	-0.16552272
64	0x3c9a400c	0.018829368
65	0xbd8f13c3	-0.06986191
66	0xbd0b8e9a	-0.034071542
67	0x3d708d31	0.0587284
68	0xbd431996	-0.047631823
69	0xbdf71104	-0.12063792
70	0x3e033050	0.12811399
71	0xbe00b288	-0.12568104
72	0x3d5cb4e2	0.05388344
73	0x3d3cea51	0.0461219
74	0xbe9db4b3	-0.30801925
75	0xbd98b33a	-0.0745606
76	0xbeaa6202	-0.332779
77	0x3d0856f7	0.03328606
78	0x3dc7b156	0.09750621
79	0x3da9f12c	0.08297953
80	0x3d5ca8b7	0.053871837
81	0xbef0212d	-0.4690031
82	0x3d553d04	0.052060142
83	0xbdd51a0c	-0.10405359
84	0x3d0bbaaa	0.034113564
85	0xbe979773	-0.29607734
86	0xbd1faeab	-0.038984936
87	0xbdd2785e	-0.102768645
88	0xbd1cca22	-0.038278706
89	0xbd94c890	-0.07264817
90	0xbc447594	-0.011990923
91	0xbe1e86d2	-0.15481117
92	0x3daaac94	0.08333698
93	0x3cf6fd25	0.030150006
94	0x3d01b699	0.03166828
95	0xbd5e5b87	-0.054286506
96	0xbe4be58e	-0.19911787
97	0x3d954da2	0.07290198
98	0xbd6adae9	-0.057337675
99	0xbe2e241f	-0.17005967
100	0x3ce0f69e	0.027461346
101	0xbd339ca9	-0.043850575
102	0xbdadc83e	-0.08485459
103	0xbde52be7	-0.11190014
104	0xbd77c762	-0.06049288
105	0x3dc3daf3	0.095632456
106	0x3b197e40	0.0023421198
107	0x3e833a07	0.2563021
108	0xbea10e15	-0.31456056
109	0xbdb4145d	-0.087929465
110	0x3d3fe043	0.046844732
111	0x3e601389	0.21882452
112	0xbd906587	-0.07050615
113	0xbd2b5cba	-0.041836478
114	0xbd96956f	-0.07352721
115	0xbb4bfe70	-0.0031126998
116	0xbd816832	-0.06318702
117	0x3da5be9d	0.08092997
118	0xbd18db1b	-0.03731833
119	0xbcb984f4	-0.022646405
120	0xbd81f170	-0.06344879
121	0x3dbbc54c	0.09168491
122	0x3c2b4b2c	0.010454934
123	0x3e1d1a94	0.1534217
124	0xbebabaed	-0.36470738
125	0xbe717817	-0.23580967
126	0xbd671ce4	-0.056424037
127	0xbcd8e232	-0.026475046

running_var f4 [128]
0	0x40c9bb00	6.304077
1	0x3f306312	0.6890117
2	0x418931b6	17.149273
3	0x3f4b4084	0.7939532
4	0x4138b89f	11.5450735
5	0x3f3f4eb3	0.7472946
6	0x40e45c4a	7.1362658
7	0x400e1e9f	2.220619
8	0x40e3ee90	7.1228714
9	0x411b4886	9.705206
10	0x40975999	4.729687
11	0x3fdca884	1.7238927
12	0x409783ab	4.7348228
13	0x41a01ff8	20.01561
14	0x409c5433	4.885278
15	0x40244be3	2.5671318
16	0x409dd01d	4.9316545
17	0x414aee3e	12.683165
18	0x4115cde2	9.362764
19	0x41b1cccb	22.224997
20	0x3fedef4d	1.8588654
21	0x3f0aa299	0.54154354
22	0x41088e09	8.534677
23	0x3fbbc5f7	1.4669789
24	0x3f660e5d	0.89865667
25	0x4110c5db	9.048305
26	0x408b6de3	4.357164
27	0x409df082	4.935609
28	0x403a402d	2.910167
29	0x408b8bf8	4.360836
30	0x40c4f619	6.155041
31	0x41386a42	11.525942
32	0x413ab5d7	11.6693945
33	0x40b2045d	5.5630326
34	0x40989d96	4.7692366
35	0x40bd08b8	5.9073143
36	0x40ee87cb	7.4540763
37	0x4152f916	13.185812
38	0x3fa38122	1.2773783
39	0x41047df9	8.280755
40	0x3f29e54d	0.6636551
41	0x3fc00f12	1.5004599
42	0x41347ad0	11.2799835
43	0x410de8aa	8.869303
44	0x40b9340a	5.7876024
45	0x41132f29	9.199014
46	0x3f97bdc7	1.185479
47	0x3f0c3e6f	0.54782766
48	0x3f16e184	0.5893786
49	0x3fc397d5	1.528071
50	0x3f18a334	0.5962403
51	0x40a14086	5.0391264
52	0x4108ef5d	8.558438
53	0x405af972	3.421475
54	0x3fa8eba6	1.3196914
55	0x3f014e5f	0.5051021
56	0x3f8a4d5e	1.080486
57	0x4136222b	11.383342
58	0x3ed824b4	0.42215502
59	0x3f142283	0.5786516
60	0x40a9995c	5.2999706
61	0x40ddf6f8	6.9363976
62	0x3f81102a	1.0083058
63	0x4090cbd5	4.524882
64	0x3ffacb7e	1.9593351
65	0x415fe44d	13.9932375
66	0x411eb553	9.919269
67	0x3ff1db7b	1.8895105
68	0x412f0d87	10.940803
69	0x41411f59	12.070153
70	0x411f8204	9.969242
71	0x40e4e59e	7.1530294
72	0x4075331a	3.831244
73	0x408d0772	4.407159
74	0x410d761c	8.841335
75	0x40a64f47	5.1971774
76	0x4107eebe	8.495787
77	0x3f1ea896	0.6197599
78	0x3f682139	0.90675694
79	0x40128a6b	2.2896984
80	0x3f1a07e1	0.6016827
81	0x41e831a5	29.02424
82	0x416e210f	14.883071
83	0x419a5416	19.291058
84	0x41cce722	25.612858
85	0x40e31234	7.095972
86	0x3ea23934	0.31684268
87	0x40c1ee8d	6.06037
88	0x3e7f082a	0.24905458
89	0x40be8fdf	5.9550624
90	0x40ebd805	7.3701196
91	0x41752ac8	15.322945
92	0x4099bbe6	4.804187
93	0x3ebd526f	0.36976954
94	0x3ebec5d5	0.3726031
95	0x405a57e5	3.4116147
96	0x400bbd27	2.18342
97	0x4162d962	14.178072
98	0x4116de45	9.429265
99	0x40485919	3.130438
100	0x3f7676ad	0.96274835
101	0x40ba3200	5.8186035
102	0x4131f49e	11.122221
103	0x3f8a9360	1.0826225
104	0x4117d5d4	9.489704
105	0x40189a2b	2.3844097
106	0x4084d019	4.1504025
107	0x4135e19d	11.367581
108	0x41c36e02	24.428715
109	0x40cc281e	6.379897
110	0x3f129b8d	0.572686
111	0x407bd036	3.9345832
112	0x3ee0360d	0.43791237
113	0x3f94a521	1.1612893
114	0x40aa6c96	5.325755
115	0x40d7e7e5	6.7470574
116	0x4148d52b	12.552043
117	0x3f8e5f63	1.112286
118	0x40eb8e9f	7.36116
119	0x40967843	4.7021804
120	0x4141e695	12.118794
121	0x41640cee	14.253157
122	0x3f0f4417	0.5596327
123	0x41039d1e	8.225859
124	0x40bc8113	5.890756
125	0x4063f3af	3.5617483
126	0x4109b79b	8.607326
127	0x40e5b434	7.1782475

weight f4 [64, 128]
0	0xbda25f78	-0.079283655
1	0xbd1dd589	-0.03853372
2	0xbdf17838	-0.11790508
3	0x3ef2027c	0.4726752
4	0xbd981c16	-0.07427232
5	0xbee3f2c9	-0.44521168
6	0xbda0f1d9	-0.07858629
7	0x3f04beea	0.5185381
8	0xbcacc9d6	-0.021092337
9	0xbdd8c1c8	-0.10583836
10	0x3db56952	0.08857979
11	0x3e948e8f	0.29015014
12	0x3bc7c72d	0.0060967417
13	0x3e3f9854	0.18710452
14	0x3c1eab86	0.009684449
15	0x3e811d8c	0.25217855
16	0xbe07847c	-0.13234133
17	0xbe2bbac1	-0.1677046
18	0xbd24042e	-0.04004305
19	0x3d88bb2a	0.06676324
20	0x3dec9739	0.11552281
21	0x3da46bee	0.080283985
22	0xbdbc4211	-0.09192289
23	0xbe0d2cf6	-0.13786682
24	0xbe988720	-0.29790592
25	0x3d234da1	0.039868955
26	0xbd7229fe	-0.059122078
27	0x3e0ff246	0.14057264
28	0x3c6182c1	0.013764084
29	0xbc036897	-0.008020542
30	0xbe0a3daa	-0.13500085
31	0x3dfe37d3	0.124129914
32	0x3f45741d	0.771303
33	0xbda2d377	-0.0795049
34	0x3da261e1	0.07928825
35	0x3cef6f00	0.029227734
36	0xbe490715	-0.19631608
37	0x3cad0c92	0.021124158
38	0x3e2ab112	0.1666911
39	0xbe2b847b	-0.16749756
40	0x3d8c2288	0.06842524
41	0xbd854aee	-0.06508432
42	0xbdaf05e2	-0.08546044
43	0xbd9f02ce	-0.07764207
44	0xbc02d58a	-0.007985482
45	0x3dcb330e	0.09921847
46	0xbe981e37	-0.29710552
47	0x3e06cf0a	0.13164917
48	0x3e0db6df	0.13839291
49	0x3c90c32b	0.017671188
50	0x3e55368c	0.20821589
51	0x3cd611c9	0.026131527
52	0xbddb3747	-0.10703903
53	0xbe26e315	-0.16297562
54	0xbc763565	-0.015027379
55	0x3c88b663	0.016688531
56	0xbdfde112	-0.123964444
57	0x3e61e651	0.22060515
58	0xbe889732	-0.26677853
59	0x3e946583	0.28983697
60	0xbb7c4d2f	-0.0038498153
61	0xbd4d9102	-0.05018712
62	0x3dbd724f	0.09250318
63	0x3df8f667	0.121563725
64	0xbd8cb57e	-0.068705544
65	0xbe061825	-0.13095148
66	0xbe11d449	-0.14241137
67	0xbe05ba96	-0.13059458
68	0xbd5d78d9	-0.054070327
69	0xbd869afe	-0.06572531
70	0xbd214713	-0.039374422
71	0x3dd986be	0.10621403
72	0xbde01f4c	-0.109434694
73	0xbccee5af	-0.025256006
74	0x3d1a2834	0.037635997
75	0x3e25fcab	0.16209666
76	0x3edf7954	0.43647254
77	0x3e38f7df	0.18063305
78	0x3dd2fc6c	0.10302052
79	0xbeb9a402	-0.3625794
80	0xbd0e0485	-0.03467228
81	0xbe2d19b8	-0.16904342
82	0x3ed3365e	0.41252416
83	0x3c0a2462	0.008431526
84	0x3e1b1b6f	0.15147184
85	0x3e8ca5e7	0.27470323
86	0xbe13acb8	-0.14421356
87	0x3da71cdb	0.081598006
88	0x3d8fbd5e	0.07018541
89	0x3dcbf2f7	0.09958451
90	0xbc80ba61	-0.015713872
91	0x3ea584f8	0.3232801
92	0x3db5a4ba	0.0886931
93	0x3ef0673e	0.46953768
94	0xbd79e06b	-0.061005037
95	0x3d2285fc	0.03967856
96	0xbc3f5027	-0.011676825
97	0x3e301a07	0.17197429
98	0xba4c2feb	-0.0007789123
99	0x3f8d9e36	1.1063907
100	0xbd81fdf1	-0.063472636
101	0x3e290fb3	0.16509895
102	0xbdf1c0af	-0.118043296
103	0xbe2b5ade	-0.16733882
104	0x3dd45ebc	0.10369632
105	0xbe16d468	-0.14729464
106	0xbd5cdd9c	-0.05392228
107	0xbe2a93db	-0.16657965
108	0x3eb963d8	0.36208987
109	0x3dbdc5b7	0.09266227
110	0xbd1abedb	-0.03777967
111	0xbe061d41	-0.13097097
112	0xbe6c3640	-0.2306757
113	0xbcf73114	-0.03017477
114	0x3e09dd7c	0.13463396
115	0x3d865972	0.06560029
116	0xbac0b227	-0.0014701531
117	0xbdd71477	-0.1050195
118	0x3e03e04a	0.12878528
119	0x3e130887	0.14358722
120	0x3c8c10a6	0.017097782
121	0xbdcf9c97	-0.10137289
122	0xbd912c2f	-0.070885055
123	0xbdf517b8	-0.119674146
124	0x3cdd7525	0.027033398
125	0x3fadc8df	1.3576926
126	0x3da4c8c9	0.08046109
127	0xbce5c758	-0.028049156
128	0xbd50ce39	-0.05097792
129	0x3e7c839c	0.2465958
130	0x3edcaeb9	0.43102053
131	0x3e610c48	0.21977341
132	0xbe61c937	-0.22049414
133	0x3e1d85dc	0.15383095
134	0xbe030bd4	-0.12797481
135	0xbe36e15b	-0.17859404
136	0x3cdd1e77	0.026992066
137	0xbda3a653	-0.07990708
138	0x3daa698a	0.08320911
139	0xbdbfe048	-0.0936895
140	0x3e1cc061	0.15307762
141	0xbe2ecc54	-0.17070132
142	0x3eb9b3cb	0.36269984
143	0x3e4b10c2	0.19830611
144	0xbc64444b	-0.013932298
145	0x3e91fa5f	0.2851133
146	0xbdd7f44f	-0.10544645
147	0x3c70ace8	0.014689662
148	0xbd9d1d06	-0.076715514
149	0x3e926a44	0.285967
150	0xbdffd2e1	-0.12491394
151	0x3ce67676	0.028132658
152	0x3db9ad8b	0.09066304
153	0x3e9c7c6c	0.30563676
154	0x3b9e31b6	0.0048277033
155	0x3d4ee763	0.050513636
156	0x3e05aff7	0.13055407
157	0xbde4cef3	-0.11172285
158	0xbe512d63	-0.2042747
159	0xbe86abed	-0.26303044
160	0x3ed0310f	0.4066243
161	0x3ca7b0c6	0.020470034
162	0xbd0ef3c3	-0.034900438
163	0xbdb56d3b	-0.08858725
164	0x3e468a68	0.19388735
165	0xbe9285b6	-0.28617638
166	0x3de4fb15	0.111807026
167	0x3d4bd424	0.04976286
168	0xbe2af8c7	-0.16696464
169	0x3da2f36b	0.079565845
170	0xbe90c383	-0.28274164
171	0xbe8d2b45	-0.27572075
172	0x3e94b895	0.29047075
173	0x3dba8668	0.09107667
174	0x3e2c1964	0.16806561
175	0x3e9e495f	0.30915353
176	0x3e8d6e90	0.27623415
177	0x3e0dd9a7	0.13852559
178	0x3e66659b	0.22499697
179	0xbe39edd4	-0.1815713
180	0xbdc8c31f	-0.098028414
181	0xbdc79bd9	-0.097465225
182	0x3c978388	0.018495336
183	0x3d577dee	0.05261033
184	0x3ddceff1	0.10787953
185	0x3ecb089a	0.39655
186	0xbe92b528	-0.28653836
187	0x3e42bbbd	0.19016929
188	0xbe4411cf	-0.19147418
189	0x3d143412	0.03618247
190	0x3e5274c1	0.2055235
191	0x3c9c0f5f	0.019050298
192	0xbe0c1546	-0.1367999
193	0xbe8b68f5	-0.27228513
194	0xbe7dc932	-0.24783781
195	0x3e01faa1	0.12693264
196	0xbda6e784	-0.08149627
197	0xbe934808	-0.28765893
198	0x3e7710ea	0.24127546
199	0x3d55e614	0.052221373
200	0xbdc81845	-0.09770254
201	0xbe15b658	-0.1462034
202	0x3e1c1590	0.152426
203	0x3dbde927	0.09272986
204	0x3e8e887d	0.27838507
205	0x3e5e836b	0.2172982
206	0x3e8d9ecf	0.27660224
207	0xbd731a07	-0.059350993
208	0x3e85fe6c	0.2617067
209	0xbd8d9169	-0.069125004
210	0x3f04b8e8	0.51844645
211	0xbe90794d	-0.28217545
212	0x3f380c9e	0.7189425
213	0x3e82b433	0.25528106
214	0x3e05d382	0.13068965
215	0xbe7a015d	-0.24414583
216	0x3e241293	0.1602271
217	0x3f1da971	0.6158667
218	0xbd550cdc	-0.052014217
219	0x3f3cef4e	0.7380265
220	0x3c818233	0.015809154
221	0x3e52e4a8	0.20595038
222	0x3e3c6d98	0.18401182
223	0x3ce68719	0.028140591
224	0x3d8b0a71	0.06789101
225	0x3f4a812c	0.7910335
226	0xbe73471b	-0.23757593
227	0x3e960763	0.2930251
228	0x3e313f1a	0.17309228
229	0x3e943b45	0.2895147
230	0xbe86d90e	-0.26337475
231	0x3ea5e35f	0.32400033
232	0xbe965715	-0.29363313
233	0xbde8162e	-0.113323554
234	0xbda9099b	-0.08253785
235	0xbe6658d8	-0.22494829
236	0x3f24a587	0.64315075
237	0xbe7a679e	-0.2445359
238	0x3e80c08a	0.25146896
239	0x3d1eda9a	0.038782693
240	0x3e38465f	0.17995594
241	0x3ec618e9	0.3869088
242	0xbd0ef525	-0.034901757
243	0x3e04d374	0.12971288
244	0xbe26e0ef	-0.16296743
245	0x3e1dc21b	0.15406077
246	0xbd92eafc	-0.07173726
247	0x3ea7a84f	0.32745597
248	0xbe9760fe	-0.29566187
249	0x3ea29f70	0.31762266
250	0x3e6d7df2	0.23192576
251	0x3e81c39f	0.2534456
252	0x3db2f62a	0.08738358
253	0x3e932906	0.28742236
254	0xbda16a7f	-0.07881641
255	0xbafad345	-0.001913645

bias f4 [64]
0	0xbbc146ad	-0.005898318
1	0xbc778209	-0.015106686
2	0x3d8c6e1b	0.068569385
3	0x3a8136b9	0.0009858228
4	0x3c23e88f	0.010004177
5	0xbbc7f1f5	-0.0061018416
6	0x3b42f0a7	0.002974549
7	0x3bb60ad5	0.0055554905
8	0x3c185a26	0.009298837
9	0xbb8c2422	-0.0042767683
10	0xbbf2c157	-0.007408302
11	0xbb70c727	-0.0036739798
12	0x3d03b747	0.03215721
13	0x3badfc5b	0.005309624
14	0x3ae71069	0.0017628792
15	0x3be10653	0.006867209
16	0xbb09a68e	-0.0021003815
17	0x3b0eeffe	0.0021810527
18	0x3b549a7a	0.0032440708
19	0x3b6160a4	0.0034389878
20	0xbb98f542	-0.004667909
21	0xbb041c7c	-0.002015858
22	0xbbbdb909	-0.00578988
23	0xbc5a6c5f	-0.013331502
24	0xbc984ee0	-0.018592298
25	0xbc3e3fd1	-0.011611895
26	0xbb6abb80	-0.0035817325
27	0xbc580f69	-0.013187268
28	0x3cd97855	0.026546637
29	0x3c8c137a	0.01709913
30	0xbd1bf6e4	-0.03807725
31	0xbb3898f6	-0.0028167344
32	0xbb85a965	-0.0040790313
33	0x3cb553f9	0.022134768
34	0x3a8b5bb2	0.0010632186
35	0xbcd07beb	-0.025449714
36	0x3ce26c6c	0.02763959
37	0x3c195c63	0.009360406
38	0x3c1fcbc1	0.009753169
39	0xba5a29f7	-0.0008322293
40	0xbb329a25	-0.0027252522
41	0xbb62bedd	-0.0034598627
42	0xbc330876	-0.01092731
43	0x3b8f1c98	0.0043674223
44	0xbc06b9b4	-0.008222986
45	0xbb4a7dd9	-0.0030897765
46	0xbd09f4d6	-0.03368076
47	0x3ab4aafd	0.0013783869
48	0xbc6d0d10	-0.014468446
49	0xbc086bb4	-0.00832646
50	0xbc808087	-0.015686287
51	0xbba5fe9e	-0.005065753
52	0xbc946078	-0.018112406
53	0xbb642a20	-0.0034815148
54	0x39fe2b49	0.00048478905
55	0x3b9051ca	0.0044042813
56	0xbbe9db04	-0.0071367044
57	0xbc89d024	-0.016822882
58	0xbae97aa5	-0.001781304
59	0x3b94b3c2	0.0045380304
60	0xbcc71f6b	-0.024306973
61	0xbbf08770	-0.007340364
62	0xba43c5ac	-0.0007468115
63	0x3c9cd296	0.019143384

weight f4 [64]
0	0x3ab5c8d8	0.001386906
1	0x3dd5bead	0.10436759
2	0x3e09316f	0.13397764
3	0xb9bf243b	-0.00036457353
4	0x3cd86682	0.026416067
5	0xbcb91c6e	-0.022596564
6	0x3d6e890c	0.058236167
7	0x3d03319c	0.032029733
8	0x3d3c0662	0.045904525
9	0x3d801125	0.0625327
10	0x3ccedeca	0.025252718
11	0x3f2dd3c0	0.6790123
12	0x3d1efe7c	0.038816914
13	0x3c9a086e	0.018802848
14	0x3ae33aa5	0.0017336203
15	0x3db70d8b	0.0893813
16	0x3d54f40c	0.051990554
17	0x3d3143d5	0.04327758
18	0xb66ab180	-3.4972036e-06
19	0x3d6ecb34	0.05829926
20	0x3d629625	0.05531897
21	0x3c32dfb6	0.010917595
22	0x386c5da8	5.635401e-05
23	0x3d1eecea	0.038800158
24	0x3d9a64a8	0.0753873
25	0x3f11d8a7	0.5697121
26	0x3d7524f3	0.05984969
27	0xbcdac539	-0.026705371
28	0x3d81deec	0.06341347
29	0x3ed173b5	0.4090859
30	0x3f16458e	0.5869988
31	0xba3cf1c6	-0.0007207658
32	0xbb370f77	-0.0027932802
33	0x3d59cf44	0.05317618
34	0x3d56c467	0.052433398
35	0x3dae9f82	0.085265175
36	0x3d87b29c	0.06625864
37	0x3ef2551d	0.4733056
38	0x3d785543	0.060628187
39	0x3da17141	0.078829296
40	0xbad6ce2c	-0.0016388348
41	0x3d6b33e4	0.057422534
42	0x3d9175f8	0.07102579
43	0x3931557a	0.00016911878
44	0x3b330101	0.002731383
45	0x3d2cf954	0.042229965
46	0x3f197a2d	0.5995205
47	0x3d599555	0.05312093
48	0x3d2556e6	0.040366076
49	0x3d7b7dbc	0.061399207
50	0x3d5409cf	0.051767167
51	0xba338cb2	-0.00068492733
52	0x3d1b209d	0.0378729
53	0x3c67dde6	0.014152026
54	0x3cd0b4e8	0.025476888
55	0x3d765b5e	0.06014573
56	0x3d1fe23b	0.03903411
57	0x3d6eb3ae	0.058276825
58	0x3d654808	0.055976897
59	0x3d2805d4	0.041021183
60	0x3d2f02f3	0.042727422
61	0x38e97f8e	0.00011134065
62	0xbabd224c	-0.0014429777
63	0x3f031795	0.5120786

bias f4 [64]
0	0x3f5df745	0.8670543
1	0x3f54f5b3	0.8318741
2	0x3f523fe1	0.8212872
3	0x3f5c27ba	0.8599812
4	0x3f60ba5a	0.8778435
5	0x3f5ce03f	0.8627967
6	0x3f612a22	0.87954915
7	0x3f6bc9e6	0.9210495
8	0x3f685ef6	0.907699
9	0x3f594683	0.8487322
10	0x3f555300	0.8332977
11	0x3ea512db	0.32240948
12	0x3f60e3f6	0.8784784
13	0x3f58d20f	0.84695524
14	0x3f5b52b4	0.8567307
15	0x3f6b9439	0.92023045
16	0x3f6724d0	0.90290546
17	0x3f61bba3	0.88176936
18	0x3f5af8a6	0.8553566
19	0x3f5cfe0b	0.8632514
20	0x3f6497fd	0.89294416
21	0x3f64d63b	0.8938939
22	0x3f615a1f	0.8802814
23	0x3f68d28f	0.90946287
24	0x3f685edf	0.9076976
25	0x3ecd03a4	0.4004184
26	0x3f5a4843	0.8526651
27	0x3f62915c	0.8850305
28	0x3f474acb	0.778485
29	0x3f0527a2	0.520136
30	0x3ed21a67	0.41035768
31	0x3f5c5e83	0.86081713
32	0x3f5f228b	0.87162083
33	0x3f5e793c	0.8690374
34	0x3f682b51	0.90691096
35	0x3f6a6ae4	0.9156935
36	0x3f65acc9	0.89716774
37	0x3f02d4d6	0.5110601
38	0x3f607643	0.87680453
39	0x3f64ace7	0.8932633
40	0x3f628a60	0.88492393
41	0x3f67f5f2	0.9060966
42	0x3f665c11	0.8998423
43	0x3f5dd9d0	0.8666048
44	0x3f608b7d	0.8771284
45	0x3f698663	0.9122068
46	0x3ed6e92e	0.41974777
47	0x3f644df0	0.89181423
48	0x3f698c38	0.9122958
49	0x3f5a135d	0.85185796
50	0x3f5ed89d	0.87049276
51	0x3f5c5396	0.8606504
52	0x3f593e03	0.8486025
53	0x3f68772e	0.90806854
54	0x3f533b9c	0.8251283
55	0x3f5f3601	0.8719178
56	0x3f63907e	0.8889235
57	0x3f652cc4	0.8952143
58	0x3f61a430	0.88141155
59	0x3f68c315	0.9092267
60	0x3f65a737	0.89708275
61	0x3f6620f0	0.8989401
62	0x3f60aa86	0.877602
63	0x3eaaaeb6	0.3333642

running_mean f4 [64]
0	0x3e992086	0.29907626
1	0xbe8fbb72	-0.28072697
2	0xbf64a75d	-0.89317876
3	0xbee04780	-0.4380455
4	0xbe3bb33f	-0.18330096
5	0x3ef0b06a	0.47009593
6	0xbe9730fe	-0.29529566
7	0xbec67e49	-0.38768223
8	0xbf89267c	-1.071487
9	0xbf280e08	-0.6564641
10	0xbf43dd94	-0.76509976
11	0x3f4050c1	0.7512322
12	0xbe8fb62f	-0.28068683
13	0xbe30e6bd	-0.1727552
14	0x3daf6695	0.08564488
15	0xbf64c2ba	-0.8935963
16	0xbf66e466	-0.9019226
17	0xbefc7de1	-0.49314788
18	0xbeb04a8a	-0.3443187
19	0xbf1691b7	-0.58816093
20	0xbf7b8fa2	-0.9826604
21	0xbedcb1da	-0.4310444
22	0x3e6b0e43	0.22954659
23	0xbf81f497	-1.0152768
24	0xbee35496	-0.4440047
25	0x3f03c4b7	0.5147204
26	0xbe85d187	-0.2613642
27	0xbe4f05c8	-0.20217049
28	0x3c3c5382	0.011494519
29	0x3f8dcafb	1.107757
30	0x3f8d0668	1.101758
31	0xbe9520c6	-0.29126567
32	0xbf37848e	-0.7168664
33	0xbf45fe79	-0.7734142
34	0xbf70be59	-0.9404045
35	0xbfa52622	-1.2902262
36	0xbf4df3ec	-0.8045032
37	0x3f467b0a	0.7753149
38	0xbf0e94de	-0.55695903
39	0xbf8d9fa3	-1.1064342
40	0xbf0907d3	-0.53527564
41	0xbf1fb9b7	-0.62392753
42	0xbf2658c4	-0.64979196
43	0xbec619da	-0.38691598
44	0xbeb691c3	-0.35658082
45	0xbf16e0e0	-0.5893688
46	0x3f17e9de	0.5934123
47	0xbe9a78f1	-0.30170396
48	0xbf691bcc	-0.9105804
49	0xbe9391f1	-0.28822282
50	0xbeebf0bc	-0.46082103
51	0xbe950db8	-0.2911203
52	0x3d4de30c	0.050265357
53	0xbf54e628	-0.8316369
54	0xbdc1d288	-0.09463984
55	0xbf088440	-0.533268
56	0xbf721906	-0.9456943
57	0xbf23e129	-0.6401544
58	0xbf0a2fdd	-0.53979284
59	0xbf39d504	-0.7259066
60	0xbea2c014	-0.3178717
61	0x3c907580	0.017634153
62	0xbebef1c8	-0.3729384
63	0x3c0734f3	0.00825237

running_var f4 [64]
0	0x3e962cb5	0.29330984
1	0x3fa24576	1.2677448
2	0x3f324808	0.6964116
3	0x3e9dae35	0.30796972
4	0x3eb62fe2	0.35583407
5	0x3e851511	0.25992635
6	0x3f611d35	0.8793519
7	0x3e132c46	0.14372358
8	0x3f83c5e2	1.0294764
9	0x3fb5a69a	1.4191468
10	0x3e27fc04	0.1640473
11	0x3f481d52	0.7816974
12	0x3e18ef83	0.14935116
13	0x3e1047a9	0.14089836
14	0x3e92deec	0.286857
15	0x3f3f3a30	0.7469816
16	0x3f3cc5fd	0.73739606
17	0x3fad3413	1.3531517
18	0x3ea4f5d2	0.32218796
19	0x3fc96a4e	1.5735567
20	0x3ea418ea	0.32050258
21	0x3e114336	0.14185795
22	0x3e7bc54f	0.24586986
23	0x3f29182e	0.6605252
24	0x3f523e43	0.82126254
25	0x3f44650d	0.7671669
26	0x3fac1685	1.3444372
27	0x3df5e78b	0.12007054
28	0x3e95db04	0.29268658
29	0x3fa3ade9	1.2787448
30	0x3f80b6d0	1.005579
31	0x3ebb9249	0.36635044
32	0x3e892a52	0.267901
33	0x3ea4e22e	0.3220381
34	0x3f34acfb	0.7057645
35	0x3f0f96e5	0.5608962
36	0x3f1789d7	0.591947
37	0x3fa229c5	1.2668997
38	0x3fc8243c	1.5636058
39	0x3efb0992	0.4903074
40	0x3e94969b	0.29021153
41	0x3ef3d47d	0.47623053
42	0x3f637566	0.8885101
43	0x3ea30781	0.31841663
44	0x3e56ddf5	0.20983107
45	0x3f648cf5	0.89277583
46	0x3f400784	0.7501147
47	0x3e6966b6	0.22793087
48	0x3e61f3fb	0.22065727
49	0x3fb00a45	1.3753134
50	0x3f4a9841	0.7913857
51	0x3eb377ee	0.35052437
52	0x3e350ada	0.17679921
53	0x3ea326db	0.31865582
54	0x3ea01893	0.3126875
55	0x3fb5c27e	1.4199979
56	0x3eb186eb	0.34673247
57	0x3fc6d161	1.5532647
58	0x3fc7bed8	1.5605116
59	0x3e88f7ba	0.267515
60	0x3e38fc57	0.1806501
61	0x3ee7d126	0.45276755
62	0x3ea3f77f	0.32024762
63	0x3f42ab8b	0.76043004

weight f4 [1, 64]
0	0x3f4aad12	0.79170334
1	0x3f4a21dd	0.7895792
2	0x3f49d24e	0.78836524
3	0x3f45a8fe	0.77210987
4	0x3f486d9d	0.78292257
5	0x3f47d938	0.78065825
6	0x3f4d75e4	0.8025801
7	0x3f55b7e1	0.834837
8	0x3f544c89	0.82929283
9	0x3f4956d6	0.78648126
10	0x3f4285bb	0.75985307
11	0x3f01a157	0.5063681
12	0x3f4d7f7c	0.8027265
13	0x3f42eabd	0.7613943
14	0x3f45ffcb	0.77343434
15	0x3f5234a1	0.82111555
16	0x3f4d9445	0.80304366
17	0x3f4df314	0.8044903
18	0x3f466a18	0.77505636
19	0x3f4b596f	0.7943334
20	0x3f4ffc0f	0.81243986
21	0x3f50789f	0.81434053
22	0x3f4c23c2	0.7974206
23	0x3f4ebb18	0.8075423
24	0x3f51c1ab	0.8193614
25	0x3eef46d0	0.46733713
26	0x3f49734f	0.7869157
27	0x3f4b0c0b	0.7931525
28	0x3f313e5f	0.69235796
29	0x3ef279d9	0.47358587
30	0x3ef6e40c	0.4822086
31	0x3f46d38e	0.77666557
32	0x3f477cdc	0.77924895
33	0x3f4bf014	0.79663205
34	0x3f524ebe	0.821514
35	0x3f567e69	0.83786637
36	0x3f4c4c65	0.7980407
37	0x3ef6157c	0.48063266
38	0x3f4d7d88	0.8026967
39	0x3f544bab	0.8292796
40	0x3f4ac6a9	0.7920938
41	0x3f52ca0e	0.8233956
42	0x3f51b251	0.81912714
43	0x3f474c3c	0.778507
44	0x3f4a9855	0.7913869
45	0x3f539090	0.8264246
46	0x3f04a466	0.5181335
47	0x3f4eaec8	0.80735445
48	0x3f50f94b	0.8163039
49	0x3f491c5d	0.78558904
50	0x3f4c7175	0.7986062
51	0x3f46c71e	0.7764758
52	0x3f45c316	0.772508
53	0x3f4ed825	0.8079856
54	0x3f3cfb01	0.738205
55	0x3f4c723d	0.79861814
56	0x3f502ce4	0.813185
57	0x3f507e81	0.8144303
58	0x3f4e2b5f	0.8053493
59	0x3f5256c3	0.8216364
60	0x3f4f1f9a	0.80907595
61	0x3f50b797	0.81530136
62	0x3f49b52e	0.78792083
63	0x3eccd638	0.40007186
